model_params/train_ddpg_1606028850_15_critic.pth (torch, 438735 bytes, 17 tensors)

state_input.weight f4 [128, 2]
000000 67 c7 45 bc 2d 2d ad bb 87 55 d6 bb 94 c5 d1 3b
       -0.012071467 -0.0052849264 -0.0065409574 0.006401727
000010 ee 48 5c 3b f4 fd 20 bc 94 13 93 38 f9 7b e0 bc
       0.0033612805 -0.009826172 7.013153e-05 -0.027402865
000020 95 ed e6 ba e7 5b 1f 3c c9 ba 9b 3c fc d1 6b bc
       -0.0017618412 0.009726501 0.019009965 -0.014393326
000030 65 f6 6d 3a f3 c1 fb 3b f2 6a 44 bb 00 f2 f0 3a
       0.0009077548 0.0076830327 -0.002997097 0.0018382668
000040 9c 71 a4 bc d6 1e 11 3b 57 4b 31 3c 2a ee 6e 3b
       -0.020073704 0.0022143624 0.010821185 0.0036457875
000050 42 4d 17 bb 1e 45 87 3c 8f 6d 36 b8 07 4b a1 bb
       -0.002308682 0.01651245 -4.3494216e-05 -0.004922274
000060 3e a8 1b bc 50 6f bc ba 14 31 61 3a de c7 3b 3c
       -0.009500561 -0.0014376435 0.0008590382 0.011461226
000070 34 2b 2f bc f1 23 15 bb db e5 0b 3c 35 60 df bb
       -0.010691453 -0.0022757018 0.0085386885 -0.0068168887
000080 4d 2e 38 3b d4 34 fb 3a b8 35 d7 bb 85 e5 0f bc
       0.002810377 0.0019165524 -0.006567683 -0.008782749
000090 79 8e 99 bc 3e b4 0f bc 2a de 44 bc 62 30 a2 3a
       -0.018744694 -0.008771 -0.012015859 0.0012374038
0000a0 d2 79 a1 3c 01 95 ac 3b fe ea cd bb 72 65 9a bb
       0.019711409 0.005266786 -0.006284117 -0.0047118003
0000b0 a6 78 98 bb 7d 24 00 bc 9a 94 9d bc 66 f8 93 3b
       -0.0046530543 -0.0078211995 -0.019235898 0.0045156954
0000c0 4b ac 9f bb ec 08 d3 3a 54 09 69 bb fc b8 90 3c
       -0.004872834 0.0016100681 -0.0035558539 0.017666332
0000d0 39 f3 44 3b bc af c6 3b 72 15 1e 3b 39 58 69 3c
       0.0030052199 0.0060634296 0.002412167 0.014242225
0000e0 49 31 5e bb 72 56 4a 3b 36 4f 98 3b 4f c3 8b b9
       -0.0033903888 0.003087428 0.0046481146 -0.00026657662
0000f0 4b f4 1a 3c ed 04 11 3c 26 49 06 3c 16 1b 94 bc
       0.009457658 0.008851272 0.008196151 -0.018079322
000100 69 0f 94 bc b7 ef 69 bb d7 a4 c8 bb 26 70 b4 bb
       -0.018073754 -0.003569586 -0.006123166 -0.005506533
000110 e7 8e 04 3c f5 84 7f 3b b7 d2 13 3b 74 37 8a 3b
       0.008090711 0.003898916 0.0022556016 0.0042180363
000120 24 8f 0d bc d2 79 9c 3a 2c 6e 6f bb e2 f5 18 3c
       -0.008640084 0.0011938161 -0.0036534173 0.009335967
000130 40 ea 93 bb e5 b7 28 3b ae 12 4a bc 81 27 36 3b
       -0.0045140088 0.0025744375 -0.012333555 0.0027794542
000140 d9 a7 b3 3b f6 73 07 bb 19 7a a8 bc d4 2b 22 3c
       0.0054826555 -0.0020668483 -0.020566033 0.009898145
000150 38 6e 39 bc 6b 44 71 b9 e1 a5 bd 3b 27 80 9c 3c
       -0.011317782 -0.00023009039 0.0057875966 0.019104077
000160 94 4f 0c bb 3d 63 b6 b9 16 c5 18 ba dd 8f 8a ba
       -0.0021409737 -0.00034787683 -0.0005827708 -0.0010571439
000170 c7 ca 8d 3b d0 34 27 bc cf 90 74 39 2e 15 61 3b
       0.0043271515 -0.010205463 0.00023323599 0.00343449
000180 2c 9b 7e bc 1d c2 69 3c df aa 0b bc 5d 21 3d 3a
       -0.015539926 0.014267472 -0.008524626 0.00072147493
000190 24 24 14 bb 6b c3 b6 bb 7f 73 17 bc 44 01 39 bc
       -0.002260455 -0.005577495 -0.009243845 -0.011291806
0001a0 1e 31 cb ba 5c 21 61 3b 70 c1 84 bc b9 02 85 bb
       -0.0015502309 0.003435216 -0.01620552 -0.0040591625
0001b0 37 d8 82 3b f0 72 99 39 44 8b e1 bc 51 96 04 3c
       0.00399306 0.0002926807 -0.027532227 0.008092479
0001c0 7e 01 50 bc d7 72 06 3c dc 91 d1 ba 6e 3f 84 3b
       -0.012695668 0.008206091 -0.0015988904 0.0040358817
0001d0 83 4f f8 3b 89 e0 d9 39 ce f1 a0 3a b6 ad 8b bb
       0.007577838 0.00041556757 0.0012279095 -0.0042626513
0001e0 97 0b c9 ba 01 fc d5 3b fb dd a1 3a 01 67 77 bb
       -0.0015338537 0.0065302853 0.001234948 -0.0037750604
0001f0 ea ca 5a bc 5e 32 e7 3b 5c 22 7b 3c 00 c4 ce 3b
       -0.013354043 0.007055565 0.015328016 0.006309986
000200 64 b8 0a bc c0 15 05 bc 85 07 48 3c 7c db 3c bb
       -0.008466814 -0.008122861 0.012208824 -0.0028817346
000210 64 4f 4d bc 46 7c a9 bc 62 98 79 bb 0e 3d 9a 39
       -0.012531135 -0.020689141 -0.0038085212 0.00029418658
000220 f9 76 d1 bb 6d 46 44 3b 57 75 48 bc e0 41 f2 3b
       -0.0063923565 0.0029949204 -0.012235007 0.007393107
000230 9a 13 86 3b a5 78 6f bb d4 a6 e7 3a 50 64 7d bb
       0.004091692 -0.0036540416 0.001767362 -0.0038664527
000240 16 e3 1a 3b a5 76 a8 bb 69 9f aa ba a3 4e f5 bb
       0.002363389 -0.0051410967 -0.0013017479 -0.007486181
000250 e9 65 5b bc 30 6e 29 bb 09 9c b8 3b 20 80 0d 3a
       -0.0133909965 -0.002585303 0.005633835 0.0005397815
000260 21 76 bb 3b e3 ad 88 bb 89 6c dc 3c 4a 05 ff 3b
       0.005720869 -0.0041711195 0.026907222 0.007782613
000270 18 30 87 bb 82 fa 96 ba bd 84 ef ba 20 a2 5d ba
       -0.0041256063 -0.0011518749 -0.0018273812 -0.00084546395
000280 9d 74 08 3b 35 79 cf ba d0 a9 5b 3b 68 ae a3 3a
       0.002082146 -0.0015828969 0.0033517964 0.001248789
000290 e9 b7 6a 3c 01 d4 e1 3b b9 77 c5 bc 3c 41 bd bc
       0.014326074 0.006891728 -0.02410494 -0.023102395
0002a0 2f 85 c7 bb 01 fa be 3b 86 46 13 bc 96 14 07 bc
       -0.006088875 0.0058281426 -0.008988982 -0.008244654
0002b0 06 5a 50 3c 46 5f dd bb bc 79 90 3b 3a 54 81 bb
       0.012716776 -0.0067557422 0.004409043 -0.003946808
0002c0 bc 77 25 bc a7 2a bf 3a e1 29 32 bc 13 dc 60 bc
       -0.010099348 0.0014584855 -0.0108742425 -0.013724345
0002d0 3b e2 ac 3b ab e0 96 3c 60 c2 85 3b e6 6a e6 ba
       0.005275992 0.018417677 0.004082009 -0.0017579466
0002e0 c9 ea 32 bc e1 7b dc 3b 94 73 8a 3b 26 35 b2 3b
       -0.010920235 0.0067286347 0.004225204 0.0054384647
0002f0 7d 5d 70 bb c3 80 0a bb a1 99 46 3c 02 2f 57 bc
       -0.0036676817 -0.0021133877 0.012121589 -0.013133766
000300 69 b6 ee 3b 7c d9 0d 3c a0 f2 78 3c 54 22 a6 3c
       0.0072849286 0.008657809 0.015194565 0.02028004
000310 db ed 65 3c 07 61 2e 3b 2f 6e 94 bb 57 5e f6 3b
       0.01403376 0.0026608126 -0.0045297365 0.0075185704
000320 e0 12 86 bb 50 1a e6 3b 87 89 57 3a 2e b5 b0 3b
       -0.0040916055 0.0070221797 0.00082220923 0.005392692
000330 3c 42 54 3a b5 7a 04 bb fb 1a 85 3b cf 1b 50 3c
       0.0008097028 -0.002021474 0.004062054 0.012701943
000340 d2 7a 88 3b f9 b0 8d bc 9b 07 ef bb 2b 71 1c 3c
       0.004165032 -0.017296301 -0.007294608 0.009548466
000350 17 f4 02 3b af bc b6 3c 8b ef 95 bb 15 28 18 3c
       0.0019981915 0.022306768 -0.004575675 0.0092869
000360 79 38 14 3c 69 00 10 3b e7 88 6a ba 41 a4 64 3b
       0.009046667 0.00219729 -0.00089467916 0.0034887942
000370 ce d2 39 3b 54 da 9f bb 6f 7a 0c bc 39 4d 90 3b
       0.002835441 -0.0048783217 -0.008574112 0.004403737
000380 3d 26 22 bc 0a 91 e1 bb b4 7b 53 37 5b 36 a9 3a
       -0.009896812 -0.006883745 1.2605382e-05 0.0012909876
000390 05 97 6b 3c d5 76 4c bc 04 03 42 ba 8a 27 5b bc
       0.014379268 -0.012479504 -0.0007400962 -0.013376126
0003a0 52 95 28 3c 2e 23 af 3c 57 be 3c 3b 47 b2 b7 3b
       0.010289507 0.02137908 0.0028799975 0.005605969
0003b0 77 cd 95 ba c4 ec c3 bb b6 90 20 3c ba ca 8a bc
       -0.0011429031 -0.0059791524 0.009800127 -0.01694237
0003c0 76 d2 88 bc 6a 8b 7c bc b8 1a 8f bb de 20 e5 3b
       -0.016701918 -0.015414098 -0.004367199 0.0069924435
0003d0 c0 63 46 ba e9 51 ee 3b 1e c0 74 ba 3d a2 03 3c
       -0.00075679645 0.007272948 -0.0009336489 0.008034286
0003e0 a5 4b 39 3b 42 f7 43 bc f0 dd 29 bc 46 24 50 3c
       0.0028273847 -0.011960806 -0.010367855 0.012703961
0003f0 5b b1 c5 3b c2 a5 7c 3c e8 09 a0 3c 63 10 93 3c
       0.0060331053 0.015420379 0.019535974 0.01795215

state_input.bias f4 [128]
000000 1a 9e 87 bd c0 96 5b bd 54 eb ef bc 14 ee 8c bc
       -0.06621952 -0.053610563 -0.029287018 -0.017203368
000010 1d 27 ba 3d 17 cc bd 3d 33 b7 1b bd 58 90 24 3c
       0.090894915 0.09267443 -0.03801651 0.01004418
000020 c0 16 18 3c 67 e2 8d 3d b3 0b 92 3d ba c8 6f bd
       0.009282768 0.069279484 0.07131138 -0.058541037
000030 4d ab 58 bd 83 4f 9a 3d b5 50 94 bd c3 e8 31 bd
       -0.05289774 0.07534697 -0.07241956 -0.04343487
000040 8e cc 15 3d 50 87 1a bc 48 e9 e8 bc 8b 77 c8 3d
       0.03657203 -0.009431675 -0.02843155 0.09788426
000050 d2 35 7c 3d 8b ca b6 bd 30 4c 3d bd b2 e7 a1 bd
       0.061574765 -0.08925351 -0.046215236 -0.079055205
000060 28 4c bc bd 6e 82 4b 3d 0f 53 c1 3d 86 b8 0b 3d
       -0.09194213 0.049684934 0.0943967 0.034111522
000070 68 da 0f bc d0 4c c7 bb 14 e4 12 bd 58 0f 88 bc
       -0.008780099 -0.006082155 -0.035862043 -0.016608879
000080 c0 32 8e bd 1e 9a 96 bd 00 df 1b bc 48 be b6 bd
       -0.069432735 -0.07353614 -0.009513617 -0.08923012
000090 9d 52 9a bd d8 5e 09 bc 40 87 c6 3a dc 53 fa 3c
       -0.075352885 -0.008384429 0.0015146509 0.030557565
0000a0 3e 31 16 3d 51 02 90 3d f6 88 97 bd ed 04 3f bd
       0.036668055 0.07031692 -0.0739917 -0.046635557
0000b0 5a 24 7d bd c0 c2 09 bd 80 f7 0b bc 22 bc 0e 3d
       -0.061802246 -0.033632994 -0.008542895 0.034847386
0000c0 d3 d0 92 3d 03 8f 94 bd 7c 5f e0 3c b7 b9 88 3d
       0.07168736 -0.0725384 0.02738928 0.06676047
0000d0 d3 94 2e bd cc f5 81 bd 52 40 1a 3d 7e 3b 88 bd
       -0.0426224 -0.0634571 0.037658997 -0.06651972
0000e0 cd 60 b9 3d 94 9d ed 3c 6d 4c 1b bd e1 a8 91 3d
       0.090516664 0.029005803 -0.037914682 0.07112289
0000f0 60 ee 90 bb ed da 51 bd 4e 2e 7e 3d 66 7c 43 3d
       -0.0044229478 -0.051234175 0.06205588 0.047726057
000100 ea dd c3 bd a1 71 b9 3d 93 79 62 bd 02 e9 ac bd
       -0.09563811 0.09054876 -0.055291723 -0.0844288
000110 27 07 51 bd cc 53 ac 3c 17 42 be bd 28 78 1a 3c
       -0.05103221 0.021036051 -0.092899494 0.009428062
000120 7b 70 b2 3d b4 29 b7 3c 49 e7 9f 3d 10 c9 b8 bd
       0.0871286 0.022358753 0.07807786 -0.09022725
000130 7b 8b 8d 3d 17 d9 5b bd 79 c7 80 3d b3 5f 6a bd
       0.069113694 -0.05367383 0.062880464 -0.057220172
000140 c0 12 7d bb ba 24 72 bd 63 d1 44 bd bd bd ab 3d
       -0.0038615912 -0.059117056 -0.04805125 0.08385799
000150 d4 2e be bc db 41 be 3d 33 10 97 3d 83 bb 4c bd
       -0.023215689 0.09289905 0.07376137 -0.049983513
000160 9d 40 80 3d 3b 70 c5 bd 60 ab d6 bc 94 24 de bc
       0.06262324 -0.09640547 -0.026204765 -0.027117051
000170 70 c1 93 bd 3e af 94 bd 53 25 99 bd 9e 46 4d 3d
       -0.0721463 -0.07259987 -0.07477822 0.050116174
000180 e0 51 bb bd fb 83 96 3d 0c f1 8b 3c 3b d7 c3 bd
       -0.09146476 0.07349392 0.017082714 -0.09562536
000190 37 40 6d bd c8 60 b5 bc 90 47 75 3c 07 cd 40 bd
       -0.05792257 -0.022140875 0.014970675 -0.04707053
0001a0 dd 64 33 bd d7 4c 8c 3d 6c ed f3 3c 23 32 6f bd
       -0.043797363 0.068505935 0.029776298 -0.058397423
0001b0 aa 99 7a bd 51 90 b0 3d 32 6b 36 3d 94 35 95 3c
       -0.0611817 0.08621276 0.044535823 0.018214025
0001c0 78 ea a0 bd 00 4e da 3a 94 db df bc c0 3e 6d bd
       -0.07857221 0.0016655326 -0.027326383 -0.05792117
0001d0 02 3d af bd 8c e1 a3 3c 00 d0 b9 bc 18 76 67 bc
       -0.08556558 0.02000501 -0.02268219 -0.014127277
0001e0 aa d4 39 bd 23 58 aa bd 98 db 4b 3c 3a 92 b1 bd
       -0.045368828 -0.08317592 0.012442492 -0.08670469
0001f0 60 20 99 bc f0 9d 4c bd 00 71 e5 3b f2 9d 62 3d
       -0.018692195 -0.04995531 0.007001996 0.05532641

action_input.weight f4 [128, 187]
000000 e4 69 41 3c 61 4a cc 3b 34 30 ef ba 1b 32 83 bc
       0.011805031 0.0062344526 -0.0018248619 -0.016015103
000010 49 c3 4c 3c 1b ad 38 bc b8 e3 b0 bb 1c c3 65 3c
       0.0124977315 -0.01127174 -0.00539824 0.0140235685
000020 8b 1a 4c 3b a5 c4 35 bc 7e bb 9b bb 0e a7 1a bc
       0.003114375 -0.011094247 -0.0047525754 -0.009439243
000030 34 8a 2d bc 3d a1 a1 bc cb af 95 bb 4e 2e 9e bc
       -0.010592032 -0.019730205 -0.0045680753 -0.01930919
000040 5c aa a9 bb b7 6e 02 3c af 7c 2a bc b9 2a 88 bb
       -0.005177779 0.007960967 -0.010405703 -0.0041554836
000050 ef 58 81 3c 29 fb 0f 3c a2 a6 bc 3b 24 4a a4 39
       0.015789477 0.008787909 0.005757169 0.00031335757
000060 7e 64 c6 3b 79 62 88 ba 94 f3 cf bb 25 03 37 3c
       0.00605446 -0.0010405324 -0.0063461754 0.011170183
000070 96 b3 2d 3c a6 11 e3 3b f9 90 d4 b9 2c 69 6d ba
       0.010601899 0.006929594 -0.00040543804 -0.00090565044
000080 f9 e6 dc 3b f3 48 2a bb c7 2a 86 3b 8b 69 38 3c
       0.0067414013 -0.0025983423 0.004094455 0.011255632
000090 65 d0 8e 3a 93 c4 92 ba 93 40 b8 3b 69 d4 03 3c
       0.0010895847 -0.00111975 0.005622932 0.008046248
0000a0 f4 c5 80 b9 e5 30 5b bc 4e 34 74 3b d8 e9 63 3b
       -0.0002456155 -0.013378357 0.0037262621 0.0034776833
0000b0 94 94 a6 3b 4a 54 f0 ba 0a a1 a9 bb 37 2c 9e bc
       0.00508363 -0.0018335667 -0.005176668 -0.019308193
0000c0 e9 50 67 bc 54 f4 0d bb b9 20 69 bc c7 c9 8c bb
       -0.014118412 -0.0021660523 -0.014228993 -0.0042965147
0000d0 55 67 8e bb bc e8 2d 3b d2 42 95 3b ea 57 a0 bc
       -0.004345814 0.0026536426 0.0045550847 -0.01957317
0000e0 d5 43 37 3c f5 fa 33 3c a6 c5 a5 3b 0e 1e d9 3a
       0.011185606 0.010985126 0.005058962 0.0016564743
0000f0 9e 81 b5 bc ab f7 d9 3b f7 cd 59 3c bf 89 84 bb
       -0.022156533 0.006651839 0.013293735 -0.004044741
000100 0f 8a f3 3a 66 7e a2 3c 46 b2 8a bb e9 e3 66 3b
       0.0018580573 0.019835662 -0.0042326776 0.003523106
000110 fd 03 3c bb 06 ed af 3c 58 84 26 3c 04 e5 8a bb
       -0.00286889 0.021475326 0.010163389 -0.0042387266
000120 c2 55 30 3c 5b 4d 01 ba 64 6b b1 3b e2 57 f8 bb
       0.010762634 -0.00049324863 0.0054144133 -0.007578836
000130 19 46 6a bc 40 2b 78 bc a7 0b 00 bc d7 75 20 3c
       -0.014298939 -0.01514703 -0.007815278 0.00979372
000140 a4 e9 36 3b b3 2a ac bb 41 01 25 bc 70 75 c8 bb
       0.0027910257 -0.0052541136 -0.0100711 -0.0061175153
000150 17 38 42 3c 7c a3 59 3c ee ad 65 bc c2 31 7e 3b
       0.011854193 0.013283607 -0.014018519 0.0038786982
000160 02 86 47 3b 77 85 eb 3b 33 a8 69 bc 9b 0a e1 ba
       0.0030444865 0.007187541 -0.014261293 -0.0017169298
000170 e0 7c d8 3c 1f 3f 8e 39 b4 8d dd 3b 49 39 ff 3b
       0.026426733 0.0002713138 0.006761277 0.0077888113
000180 45 27 3c 3c 7e d2 c4 3b 1e 18 c8 3b 60 bf 6d 3b
       0.011483972 0.006006538 0.0061063906 0.0036277398
000190 bd b1 90 bc d4 2f a2 3b 89 46 4f 3b 6a 6b fa ba
       -0.017662877 0.004949549 0.0031627736 -0.0019105498
0001a0 e2 54 92 3b 77 c9 bc 3a 00 65 a2 3b 59 95 f5 ba
       0.004465685 0.0014403303 0.004955888 -0.0018736526
0001b0 6d 78 a8 bb 42 3d 0e 3c ee 9b d1 3b 61 bb eb bb
       -0.005141309 0.008681597 0.006396762 -0.007193968
0001c0 f8 1c 52 3b d4 fa 04 3c c9 97 30 3c b9 f3 6a 3c
       0.0032060724 0.008116443 0.010778376 0.014340335
0001d0 4f 2a 94 bc e7 a4 83 3c 8e f6 a7 bb 8f 4e 5a 3c
       -0.01808658 0.016069843 -0.005125827 0.013324394
0001e0 23 de f7 3b bd a5 12 3c b8 22 63 bc aa 56 f8 3b
       0.0075643226 0.008950648 -0.013863258 0.0075786905
0001f0 d0 15 01 bc 20 85 67 3c f8 27 bb 3b 81 a7 5b 3c
       -0.007878736 0.014130861 0.0057115518 0.013406635
000200 62 f3 50 bc a7 94 03 3c 66 8e a4 3c a6 22 50 bc
       -0.0127533395 0.008031047 0.020087432 -0.012703573
000210 4e ec 59 ba 6f bf f5 ba 09 9a d0 3b 25 46 68 bb
       -0.0008313105 -0.0018749068 0.0063660187 -0.00354422
000220 14 b6 67 bc a0 35 18 bb 29 cd 11 3b 57 45 00 bc
       -0.014142532 -0.0023225322 0.002224753 -0.007829032
000230 cd e9 9b 39 29 b0 0b bc 65 ce f7 3a 89 8f 5b 3c
       0.000297381 -0.008525887 0.0018906115 0.013400921
000240 14 5f 97 3c 45 1c d3 b8 75 fe 35 3a f9 ff f1 bb
       0.018477954 -0.0001006653 0.0006942519 -0.0073852506
000250 58 4a 93 bb 5b 59 55 3c f3 83 33 bc 86 c6 84 bc
       -0.0044949464 0.013021792 -0.010956752 -0.016207945
000260 a9 c9 61 bc 74 7f d6 bb 14 cc c6 bb 59 47 64 bb
       -0.01378099 -0.0065459553 -0.0060668085 -0.0034832566
000270 d8 f5 7d 3b b3 4d 25 3c 58 4b 14 3c f9 f5 2d bb
       0.003875127 0.010089326 0.0090511665 -0.0026544316
000280 34 34 a4 bb c2 00 ef 3b 99 87 0c bc 1b 87 86 3c
       -0.005011106 0.0072937915 -0.008577251 0.016421845
000290 ee d4 25 3c 1e 2e aa bb 47 02 95 bb bd a7 c9 3a
       0.010121567 -0.005193486 -0.0045473906 0.0015385073
0002a0 47 a3 d9 bb b8 b5 3f 3c 3b 49 94 bb 61 dd 75 3c
       -0.0066417786 0.01170104 -0.0045253313 0.015006394
0002b0 33 f6 9f 3b 94 48 46 3c 84 1e 0b bc 79 c5 94 bc
       0.004881644 0.012102265 -0.008491162 -0.018160569
0002c0 52 ff 0a bc 8b 12 a0 bc 22 3f 11 bb 58 c5 58 3c
       -0.008483725 -0.019540092 -0.0022162874 0.013230644
0002d0 5d 9e 0b bc 45 08 49 3b b8 d8 55 3c cf f4 15 3c
       -0.0085216435 0.0030675095 0.013052158 0.009152605
0002e0 49 f0 40 3c ac 82 d5 bb 7b 2d 3c bc a9 5d ab 3c
       0.011776038 -0.0065158214 -0.011485453 0.020918684
0002f0 fe b5 3a 3c 27 1a 81 3b ce 17 0d 3b 09 c8 fd 3b
       0.011395929 0.003939885 0.0021529081 0.0077447933
000300 69 c3 0b bc 23 a7 6e bb 6a 9f ad 3b 98 1d 25 bc
       -0.008530476 -0.003641554 0.0052985447 -0.0100778565
000310 50 f5 0b 3c fd 25 2c ba 72 1a 42 3c c2 93 cd bb
       0.008542374 -0.000656694 0.011847125 -0.0062737176
000320 fc fd 97 bc d0 16 b0 3a 99 95 64 bc 8b 64 97 3b
       -0.018553726 0.0013434533 -0.0139516825 0.00462014
000330 18 86 34 bc 14 6f 26 bc 44 f6 e0 3b 39 31 c8 3a
       -0.011018299 -0.010158319 0.0068652947 0.0015273459
000340 82 6a 83 3c a0 9d c1 3c cb e5 fa bb 78 b6 e3 bb
       0.016041998 0.023634732 -0.007656788 -0.006949242
000350 a2 19 5d 3c e7 91 e4 bb 74 7e 4b bc 85 b2 76 bb
       0.013494881 -0.0069754007 -0.0124202855 -0.0037643027
000360 64 ea 30 bc ff 97 86 ba 18 12 63 3c 54 02 ac 3c
       -0.010798071 -0.0010268687 0.013859294 0.020997204
000370 6c 62 df ba 9c 46 d2 bb 97 a1 a6 bc 66 b1 55 3c
       -0.0017042882 -0.0064171087 -0.020340724 0.013042783
000380 8e 1c 98 3b 8f 47 dc 3a e2 bf 2a bc b0 41 0a 3c
       0.004642076 0.0016805994 -0.010421725 0.008438513
000390 a6 93 69 bb 1d f3 da bb 6e 4a ec bb d7 4a 3f 3c
       -0.0035640984 -0.0066818134 -0.007211021 0.011675558
0003a0 79 47 e3 3b 95 28 e9 ba 93 16 51 3c 32 a2 51 bc
       0.0069360104 -0.0017788584 0.01276173 -0.012795018
0003b0 d5 e6 9c bc ec 5e 6f 3b 4e 22 7c 3b 08 4d 12 3c
       -0.019153038 0.0036525084 0.0038472596 0.0089294985
0003c0 d7 ad 10 3c 8e 6b 93 3c 92 20 52 bc 56 64 b1 3b
       0.008830509 0.017995622 -0.012825148 0.0054135723
0003d0 9f 67 02 bc 33 cc 43 3c 6a b6 0d bc cb 06 01 3c
       -0.0079592755 0.01195054 -0.008649448 0.007875155
0003e0 0e 6c d2 bb 01 c3 f3 3b 9c dc 5d bb 3c 1c b3 3b
       -0.0064215725 0.0074390178 -0.0033853417 0.0054660123
0003f0 09 64 0f bc de 7b 25 3c 6a 73 af bb e7 e1 6c 3b
       -0.008751878 0.010100333 -0.0053543346 0.003614539

action_input.bias f4 [128]
000000 0f 1d a6 3d 2c 2a bb 3c a0 7d 92 bb 3c 41 f1 3c
       0.08111011 0.022847258 -0.004470542 0.029450051
000010 e0 d3 a6 3b ed 6b 98 bd 51 65 a4 3d a4 66 e5 3c
       0.0050911754 -0.0744246 0.08027137 0.028003044
000020 20 09 cc bc 40 ab ae bc 38 bd ed bc ea 08 5d bd
       -0.024906695 -0.021321893 -0.02902089 -0.05396358
000030 e0 82 8f 3c 96 8b 31 3d d4 47 9a 3c 16 16 6f 3d
       0.01751846 0.04334601 0.018833078 0.058370672
000040 b0 b5 e0 bb 82 68 23 3d 34 7d e7 3c 68 0c 41 bc
       -0.0068575963 0.03989459 0.028257944 -0.011782743
000050 c9 f3 c5 3d 51 af c5 3d 62 8b 43 3d a1 94 90 3d
       0.09665639 0.096525796 0.047740348 0.07059599
000060 f2 73 34 3d 28 e5 06 3c 3b b7 99 bd 62 b5 3d 3d
       0.044055887 0.008233346 -0.075056516 0.04631556
000070 9a 48 23 bd fa b2 1f 3d f8 74 c3 3c 0f 64 99 3d
       -0.03986416 0.038989045 0.023859486 0.07489788
000080 69 2a a9 3d 4a 19 8e bd f8 4a f1 bc 6c 2e bf 3c
       0.08260042 -0.06938417 -0.029454693 0.023337565
000090 19 cb bf 3d c6 55 70 3d d8 1d 31 bc 20 41 54 bd
       0.0936491 0.05867555 -0.010810338 -0.05181992
0000a0 d0 7f 50 bd a3 a6 b6 bd 2a ed be bd 19 3a c7 3d
       -0.05090314 -0.08918502 -0.09322579 0.09727878
0000b0 9e 30 60 3d 6e 3b 57 3d c6 a0 92 bd e0 00 eb bb
       0.054733865 0.05254691 -0.07159571 -0.007171735
0000c0 d8 ae ec bc 68 26 ff bc 12 83 9a bd fa ba 51 bd
       -0.028891966 -0.031146243 -0.07544531 -0.051203705
0000d0 9e e6 7b 3d 1d 08 52 bd b2 57 a8 bd ba 78 86 bd
       0.06149923 -0.05127727 -0.082198516 -0.065659955
0000e0 da 32 5a bd 41 6c c4 3d 3b f5 c6 3d bb fe a2 bd
       -0.053271152 0.0959096 0.09714743 -0.07958742
0000f0 1b 14 cb 3d d2 90 9a bd 74 78 ee bc e0 25 66 bd
       0.09915944 -0.075471535 -0.02911017 -0.056188464
000100 b8 1f aa bd 13 49 a1 bd a0 49 de bb 4d a9 b2 bd
       -0.08306831 -0.07875266 -0.006783679 -0.08723698
000110 98 aa 96 3c 10 1f 75 3c 75 c7 ae 3d 1b af 91 bd
       0.018391892 0.014961019 0.08534137 -0.07113477
000120 39 bc 89 3d e8 2c 6c bc 78 4c 97 bd ae 9b 4a 3d
       0.06725354 -0.014415003 -0.07387632 0.049464874
000130 5b 3c b3 bd b0 8a 10 bc 85 2b 91 3d ca 0a 5c 3d
       -0.08751746 -0.008822128 0.07088379 0.053721227
000140 48 05 8c bc c0 6e cb bd 62 c0 1e 3d 82 ad 20 3d
       -0.017092362 -0.09933233 0.03875769 0.03922797
000150 4a 25 b0 bd be 57 2c 3d 4c 61 94 bc 58 b0 3e bc
       -0.08600862 0.042075865 -0.018112801 -0.011638723
000160 50 52 ae bd 63 1a 2d bd 07 9c 9c 3d e0 fc a8 bc
       -0.085117936 -0.042261492 0.07646947 -0.020628393
000170 e1 c5 a6 3d 20 bd 8d bb 95 7b 89 3d 30 45 0b 3c
       0.08143211 -0.004325524 0.067130245 0.008500382
000180 56 2d 88 bd ed e6 8a bd 92 6e 1a 3d 40 f3 43 bb
       -0.06649272 -0.06782327 0.037703104 -0.0029899627
000190 80 ab a7 ba e8 04 a5 3c aa c4 bb bd 42 76 04 3d
       -0.00127922 0.020143941 -0.0916837 0.032339342
0001a0 3d 86 6a bd 41 b8 c9 3d 64 4c f4 3c 9c 4f d0 3c
       -0.057256926 0.09849597 0.029821582 0.025428586
0001b0 38 d1 89 3c 48 68 80 bd f0 16 a3 bd b3 ab c6 bd
       0.016823396 -0.0626989 -0.07963359 -0.09700718
0001c0 ca 0f 08 3d 0c 3c 89 bc 00 ca 88 bb 6b 65 af bd
       0.033218183 -0.016752265 -0.004174471 -0.08564266
0001d0 d0 02 7d 3c e8 c9 a1 bd 02 7b 41 3d 54 1e d3 3c
       0.015442565 -0.07899839 0.04723645 0.025771298
0001e0 6d 50 6e bd e1 7a 9d 3d 36 78 02 3d 9a ba 6f 3d
       -0.05818217 0.07689453 0.031852923 0.058527566
0001f0 80 f3 ba ba 73 a5 75 bd 78 8b cb bd 70 81 6a 3c
       -0.0014263242 -0.059972238 -0.09938711 0.014313087

layers.0.weight f4 [256, 256]
000000 77 b9 3d 3b bf 5f 08 3c 82 e8 00 bc 38 0c 47 3c
       0.0028949657 0.008323609 -0.007867934 0.012148909
000010 64 2c 97 bb 0f 97 11 bc 5b 7a 29 3c 60 1b 78 3b
       -0.004613446 -0.008886113 0.010344113 0.0037858114
000020 7e d8 49 3b 3b 3e 3f 3c d9 15 a8 bc b1 ad a3 ba
       0.0030799205 0.011672552 -0.02051823 -0.0012487677
000030 b7 fa 4d 39 f4 3b 4b 3b 59 b6 c6 bb b4 a7 8f 3b
       0.00019643722 0.0031011077 -0.006064218 0.0043840054
000040 d4 6d 09 bb ee c7 3c 39 cb c9 8c bc 30 79 c0 bb
       -0.0020970004 0.00018003557 -0.017186066 -0.0058738217
000050 be e7 8b 3b ff 5a 86 bc f9 9e 87 3c f9 de 8b bb
       0.004269569 -0.016400812 0.016555296 -0.004268524
000060 f9 34 f1 3b 61 64 4a bb 59 1e 0e 3b 92 13 9c 3b
       0.007361051 -0.0030882584 0.002168557 0.004763075
000070 5e 8f 88 b9 4c 46 16 bc 93 37 64 ba fd cd be 3b
       -0.00026046758 -0.0091720335 -0.0008705791 0.0058228956
000080 20 83 74 3c a4 79 a8 3c 4e 64 60 3c 15 f0 86 3a
       0.014923841 0.020565815 0.0136957895 0.0010294939
000090 98 6a 61 3c 86 aa cf bb 19 3a 6f bc 09 5d 3c bc
       0.013758324 -0.0063374666 -0.014601254 -0.011496791
0000a0 da 97 1a bc fb 29 b9 bb c3 74 21 bc 58 c3 80 3b
       -0.009435618 -0.0056507564 -0.009854498 0.003929537
0000b0 3d 83 c7 3b 61 d4 44 bc 5d ae 1b bb b0 db 95 bb
       0.006088643 -0.012013526 -0.0023755052 -0.004573308
0000c0 03 fd 7f bb 8c ed 8f 3b d7 98 34 ba dc 07 ee 3b
       -0.003906072 0.0043923315 -0.000688923 0.0072641205
0000d0 ef 0e 68 bc c4 73 3a bc 27 9f 23 3c b7 b5 9b 3a
       -0.014163717 -0.01138014 0.009986675 0.0011879717
0000e0 f9 3b 4d 3b 45 ce e3 3a 98 23 ea 3b fb e4 13 bc
       0.0031316264 0.0017380199 0.0071453564 -0.009026761
0000f0 55 45 81 bb cd e1 b0 3b c2 3c b2 bc 54 46 3e 3c
       -0.0039450326 0.0053980113 -0.021757487 0.011613447
000100 db 2e 95 3b 0d eb 9e 3a 86 00 64 bc 2f 75 ad bb
       0.0045527047 0.0012124494 -0.01391614 -0.0052935104
000110 b0 9d 0f ba a5 29 39 bc 73 85 61 bb 4a f7 d1 bb
       -0.00054785144 -0.011301433 -0.0034411817 -0.006407653
000120 57 e0 6e bc 7b 6c 70 bb b9 62 ee bb cd f4 aa 3b
       -0.014579854 -0.0036685753 -0.0072749523 0.005217171
000130 8f e5 70 bb 27 60 d4 bb 2d c5 92 3b 0d 46 3b bc
       -0.0036757921 -0.006481189 0.0044790716 -0.011430276
000140 0e 0f 1b bc d5 1f 37 bc ec fb 6b bc 79 b8 47 bb
       -0.009464039 -0.011177023 -0.014403325 -0.0030474945
000150 ac f7 d2 bb 53 5a 31 3c f4 78 21 3c be 59 49 3b
       -0.006438216 0.010824758 0.009855498 0.0030723657
000160 ec 98 6c 3c 52 e3 90 3c c3 3e 10 3c f2 3a 84 bc
       0.014440756 0.01768652 0.008804026 -0.016141389
000170 c3 87 f8 39 16 be 22 3c 4b 5c 40 3c 22 68 42 bc
       0.00047403396 0.009933015 0.011740754 -0.0118656475
000180 db e7 27 bc 33 3a c3 39 6c 61 11 3b 4c 01 f6 3b
       -0.01024815 0.0003723666 0.0022183312 0.007507479
000190 54 ff 1c 3b dd 85 81 3a 54 63 7f 3c 9e da 5d 3c
       0.0023955898 0.0009881813 0.0155876465 0.013540892
0001a0 38 54 12 3b f9 6d 49 3c 05 e2 5a bc fc 41 29 3c
       0.002232803 0.012294286 -0.013359551 0.010330673
0001b0 85 f9 ad bb e6 26 04 3c 3e 29 d9 bb 44 13 4e 3c
       -0.005309286 0.008065915 -0.006627231 0.0125778355
0001c0 7d 49 9c 3c 91 96 0c 3c 87 a0 0b ba e6 93 09 bc
       0.01907801 0.00858082 -0.00053263496 -0.008397078
0001d0 4b 70 11 bc 87 e1 4e bc db e7 94 bb 20 30 00 3c
       -0.00887687 -0.012627012 -0.004544241 0.007823974
0001e0 36 15 19 bc 5b dd 62 3b eb be f4 bb f4 ec 29 3c
       -0.009343436 0.0034616801 -0.0074690483 0.010371435
0001f0 26 4d 45 3c c1 7d 34 3a 16 c1 88 bc d2 6a 2c 3c
       0.012042319 0.0006885194 -0.016693633 0.010523515
000200 be 11 24 3c d7 6e 16 bb be 84 aa bb db 3c 9f bc
       0.010013996 -0.002295425 -0.0052038124 -0.019438198
000210 5e 28 42 bb a6 86 4e bc 58 95 54 bc 3c c5 1b 3c
       -0.0029626111 -0.012605345 -0.012975059 0.009507474
000220 de 9d 10 3c aa 55 69 3c 80 b3 48 bc 33 12 68 3b
       0.008826701 0.014241615 -0.012249827 0.0035411238
000230 38 d1 4b bc 5d 6d 19 3c 35 cf 00 bc fa c7 82 3b
       -0.012440018 0.009364453 -0.007861902 0.003991124
000240 8f 60 57 3b 51 86 89 bc dd f5 0b bc ca 52 21 3c
       0.003286395 -0.01678768 -0.008542505 0.009846399
000250 62 2e e1 3b 80 50 78 bc 1e b6 96 bb 95 d2 e6 bb
       0.0068719843 -0.015155911 -0.004599347 -0.0070441463
000260 af dc 51 bc 5b 56 af 3b 9f 00 89 3c 05 f4 4b 3c
       -0.012808963 0.0053508705 0.016723929 0.0124483155
000270 24 ea 35 3c a2 36 91 ba 30 59 a9 3a 7e 46 06 bc
       0.011103187 -0.0011078904 0.0012920257 -0.008195518
000280 1b 60 5a 3c 52 f6 fe 3b ee dd 7f ba 92 0e ee 3a
       0.013328577 0.0077808285 -0.0009760548 0.0018162301
000290 3b 7d cc bb 6e cd 59 3a ca 23 c3 ba 62 05 86 bb
       -0.0062405146 0.00083085045 -0.0014887985 -0.004089997
0002a0 00 27 ad 3c 7c 64 26 3b 72 91 85 bc d4 0b 22 bb
       0.02113676 0.0025389483 -0.016304705 -0.0024726288
0002b0 56 7b 30 bb f1 47 06 3c a7 2d 2d 3c c2 8e 30 3c
       -0.0026928983 0.008195863 0.010569966 0.010776224
0002c0 3c fc 3f bc 05 d6 9e bc a7 d4 d7 bb fc 06 a7 bc
       -0.011717852 -0.019389162 -0.0065866294 -0.020389073
0002d0 7b cc d1 bb eb 05 0c 3c 0e bb 4b 3b 2d 02 0d 3b
       -0.00640255 0.008546333 0.0031086835 0.002151619
0002e0 07 d2 6c 3c 5b b2 1a 3c 73 54 30 3c d2 8a f7 3b
       0.014454371 0.009441937 0.010762322 0.0075543905
0002f0 a4 0b d5 3c 85 02 14 3c f4 d2 c5 3a ef 73 0f bb
       0.026006527 0.009033804 0.0015092776 -0.002188917
000300 f8 02 fa 3b e1 7c 3f 3b 9d 78 8f 3c ae b7 2a 3c
       0.0076297484 0.002921872 0.017513568 0.010419769
000310 3b 48 fc 3c 39 4f ea bb 10 6d 95 bc 45 fc 39 3c
       0.03079616 -0.0071505574 -0.018240482 0.01135165
000320 8a 44 25 bb ae 1e ed bb d2 95 65 bb ce 58 19 bc
       -0.0025217854 -0.0072363233 -0.0035031927 -0.009359552
000330 21 62 0c 3c 99 89 2a bc 3e f8 2b 3a 2d ad a0 3b
       0.008568318 -0.010408782 0.00065601233 0.0049034567
000340 9b f4 4c 3b 81 41 37 bc 6c 08 09 bb ee 95 ea bb
       0.0031273726 -0.011185051 -0.002090956 -0.0071589863
000350 2b d8 4c bc 05 12 6e bb bf 0c 8f bb 94 a3 26 bc
       -0.01250271 -0.0036326658 -0.004365533 -0.010170836
000360 54 a3 89 3b fa aa 08 bc ea 97 46 3c 0b 20 98 bb
       0.0042003784 -0.008341545 0.01212118 -0.0046424917
000370 06 6a 39 bc 61 4a 06 bb 9c 0f 23 3a 10 e9 55 3b
       -0.011316782 -0.002049111 0.00062202825 0.0032640137
000380 0a 69 5d 3c 5b 78 f0 3b 39 cd 03 bc 66 4f 64 bc
       0.013513813 0.0073385662 -0.008044534 -0.013934946
000390 b0 df 20 3b 12 6d 43 3b 25 1a 6f bc 12 00 ce ba
       0.002454739 0.002981965 -0.014593636 -0.0015716574
0003a0 39 03 e3 3a c3 dd 7a bc 70 fc d2 3a a2 33 8a bc
       0.0017319686 -0.015311661 0.0016096961 -0.016870324
0003b0 32 8f e5 3c 3d 3f 61 ba e6 f7 8f 3a 3c 92 22 bc
       0.028022382 -0.0008592492 0.0010983914 -0.00992256
0003c0 9b 00 f2 ba ed c9 c8 bb 4c 43 f4 3c 9e 63 82 3b
       -0.0018463315 -0.006127587 0.029817246 0.0039791605
0003d0 4f 4d c9 3a 47 f4 63 3b b2 f1 bf bc 8e ff df 3a
       0.0015358123 0.0034783052 -0.023430679 0.0017089711
0003e0 84 07 98 3c 8f 5d a4 bc 46 d0 a8 3c 42 1c a4 3b
       0.018558271 -0.020064143 0.020607125 0.0050082514
0003f0 a1 b3 c6 bb 5c af 25 3c 82 ee 85 3b 8e 06 99 bc
       -0.006063894 0.01011261 0.0040872702 -0.018679883

layers.0.bias f4 [256]
000000 8e 11 5d 3d c9 dd 8b 3d 70 fe 52 3c fa 8e 22 3d
       0.05397182 0.068294115 0.012878045 0.039687134
000010 a4 e7 e9 3c ce d2 a2 bd 20 95 df bb d8 2a 9d 3c
       0.028552838 -0.07950364 -0.006823197 0.019185469
000020 0c 4a a3 3c ba 1b 76 bd 07 75 47 bd ab 79 c7 3d
       0.01993277 -0.060085036 -0.04869559 0.09740003
000030 00 ab 5a 3a 71 c0 89 3d ac bb b1 bc f0 6a 90 bd
       0.0008341521 0.067261584 -0.021695934 -0.07051647
000040 74 97 bf 3c 03 4e 2c bd a1 66 ad 3d e8 72 ba bd
       0.023387648 -0.042066585 0.084668405 -0.09103948
000050 b0 90 39 bc f0 bb 9b bd 85 6b b3 bd 64 bd 03 bd
       -0.011326 -0.076042056 -0.08760742 -0.03216304
000060 00 b8 19 bc 45 a0 a9 3d 90 0f 3d 3c e0 46 ce 3b
       -0.009382248 0.08282522 0.011539355 0.00629507
000070 20 ae 31 bd a5 99 92 3d 49 e7 a5 3d b6 cf 1d 3d
       -0.04337895 0.071582116 0.08100755 0.038528167
000080 ce 19 35 3d 81 a1 bf 3d bb 96 af bd a0 bf 4d 3b
       0.044214062 0.09356976 -0.085736714 0.0031394735
000090 ad 6c c7 3d 58 a9 0f bc 89 fd a2 3d 00 d6 dd 3b
       0.09737525 -0.008768402 0.07958514 0.0067698956
0000a0 8e fc 70 3d 00 e0 fe 38 50 57 18 3c c0 ae 98 bc
       0.058834605 0.00012153387 0.009298161 -0.018638015
0000b0 e6 d3 6c 3d ed e5 68 bd 44 00 e0 3c 9d af 3c bd
       0.05781927 -0.0568599 0.027343877 -0.046065915
0000c0 e5 7a c8 bd c0 73 21 bb 78 2d 97 bd cf b5 b3 bd
       -0.09789065 -0.0024635643 -0.07381719 -0.087749116
0000d0 d6 59 47 3d 5d c5 c7 bd 30 56 64 3c 7a e3 4a 3d
       0.04866966 -0.09754441 0.013936564 0.049533345
0000e0 a8 98 36 3c 38 b8 98 bd 44 43 80 bd de 8b 88 bd
       0.0111447945 -0.07457012 -0.0626283 -0.066673025
0000f0 d8 ab 12 bc a1 a2 89 3d a0 5e b7 bc 06 53 56 3d
       -0.008952104 0.06720472 -0.022383988 0.05232527
000100 06 91 79 3d 93 dc 23 bd da d4 6a 3d 32 3a 15 3d
       0.06092932 -0.040005278 0.057331897 0.036432452
000110 4c 71 c8 3c 10 97 55 3c 9e 73 68 3d b2 5a 36 3d
       0.024468087 0.013036504 0.056750886 0.044520088
000120 1f 6d b3 3d 5d 10 5a bd a1 1c b6 3d 64 5d d5 3c
       0.087610476 -0.05323826 0.08892179 0.026045509
000130 80 48 e3 ba c8 61 8f bd d0 1b aa 3b 26 e2 78 3d
       -0.0017340332 -0.07001072 0.005191304 0.060762547
000140 b8 fd 8f bd 48 6a b6 bd 82 c8 78 3d 31 6d a7 3d
       -0.07030815 -0.0890699 0.060738094 0.081751235
000150 bb d0 94 3d 92 a2 3f 3d e2 c9 04 3d b4 6b ad bc
       0.07266375 0.0467859 0.032419093 -0.02116952
000160 c0 4e 8a bc 57 3d 5a bd 98 cf 1f 3c 10 20 96 bd
       -0.016883254 -0.053281154 0.009754084 -0.07330334
000170 c9 c4 a5 3d 98 d3 25 3c 1d 5b 23 bd 20 62 df bc
       0.080941744 0.010121249 -0.039881814 -0.02726847
000180 36 c2 91 bd d0 7e e2 bb 98 1a 56 3c 00 9a 1d bb
       -0.07117121 -0.00691209 0.013067864 -0.002404809
000190 bb a5 9e 3d 33 fd 95 3d 6d a8 98 3d 33 a2 bb bd
       0.07746454 0.073236845 0.07454 -0.091617964
0001a0 66 b7 12 3d eb 43 8b 3d 75 e2 9f 3d d6 da 11 3d
       0.035819434 0.06800064 0.07806865 0.03560909
0001b0 f2 8b 40 3d 50 b8 3e 3c cb 68 92 bd 12 60 23 3d
       0.047008462 0.011640623 -0.07148894 0.03988654
0001c0 69 a3 c6 3d 90 68 1b 3c 7a 41 10 bd 70 18 1b bc
       0.09699137 0.009485379 -0.035218693 -0.009466276
0001d0 48 6b 8f 3c 0a ca 9a bd b0 06 33 bc 72 15 b5 bd
       0.01750721 -0.07558067 -0.010926887 -0.08841981
0001e0 50 37 fb 3b 68 36 be 3c e0 0b f4 3b 40 e8 83 bc
       0.007666506 0.023219302 0.0074477047 -0.016101956
0001f0 3b 4c 98 3d 93 da 6b bd c2 31 18 3d f0 c7 a7 bd
       0.07436415 -0.057581495 0.037156828 -0.08192432
000200 22 b6 73 3d 39 a9 c8 3d 6c ae 98 3c 28 97 9d bc
       0.059499867 0.09797902 0.018637858 -0.019237116
000210 14 f4 bd 3c b4 5b fb bc c8 20 c5 3c a9 c7 8f 3d
       0.023187675 -0.030683376 0.024063483 0.07020504
000220 68 6f 95 bc 00 6e 53 3c 74 6c b6 3c cd 05 85 3d
       -0.0182416 0.012904644 0.022268511 0.06495247
000230 cd e1 ba 3d fd eb 38 bd 1e b5 70 3d 34 ab d2 3c
       0.09125099 -0.04514693 0.058766477 0.025716402
000240 73 2d b7 bd 11 05 c9 3d 40 52 78 3c 14 44 c6 bc
       -0.089442156 0.098154195 0.015156329 -0.024202384
000250 e0 34 d2 bc a2 76 27 3d 6e 41 3d 3d 2a 1c 34 3d
       -0.025659978 0.04088462 0.046204977 0.04397217
000260 dc 57 0f bd 30 d1 a1 3b 6e ad 9c bd 40 ae 45 bc
       -0.0349959 0.004938267 -0.076502666 -0.01206547
000270 d4 47 81 3c ed 19 91 3d 56 fe 55 3d 2c bd c3 3c
       0.01578132 0.07085023 0.052244507 0.023893915
000280 f2 fe 1a 3d 1b 28 c0 3d 92 23 33 3d 19 45 8f 3d
       0.03784079 0.093826495 0.043735094 0.06995601
000290 58 9c 94 bc 9a 6d 09 3d 1a 8a 62 bd 5e 91 7d 3d
       -0.018140957 0.03355179 -0.055307485 0.06190621
0002a0 ac 85 fd 3c f8 1d 8e bc 88 e0 bf bc 77 b3 b9 3d
       0.030947529 -0.017348275 -0.023422495 0.09067433
0002b0 f8 05 b4 bc 83 24 ab 3d e6 31 18 3d a2 ef 36 3d
       -0.021975502 0.083565734 0.03715696 0.044662125
0002c0 d8 68 44 3c c8 8d 84 3c 56 fd 7c 3d ce df 95 bd
       0.011987887 0.016180888 0.061765037 -0.07318078
0002d0 a0 b7 bb 3b d0 99 20 3c 00 08 5c 3b 25 f4 c5 bd
       0.005728677 0.009802297 0.0033574104 -0.096657075
0002e0 4c 7d e6 bc 06 ff 0c 3d 9b 17 bd bd 1a 61 4a 3d
       -0.028135918 0.034422897 -0.09233018 0.04940901
0002f0 44 2a fd 3c bd d7 af bd b3 73 ba 3d 83 a2 c7 bd
       0.030903943 -0.08586071 0.09104099 -0.097477935
000300 e9 ce 9c 3d c1 53 82 3d d0 75 92 bb 17 f8 54 bd
       0.076566525 0.06363631 -0.0044696108 -0.05199441
000310 77 e0 b1 3d 08 1d dd bc c0 11 0c 3c 70 a5 25 bc
       0.086853914 -0.026991382 0.008549154 -0.010110244
000320 82 e4 c2 bd 20 4a fa 3b 78 69 80 bd 0c 5e f7 3c
       -0.09516241 0.007638231 -0.062701166 0.030196212
000330 44 31 f6 3c 0d 9e 9f bd 40 dd 6b bb ef b9 c5 bd
       0.030052789 -0.07793818 -0.003599003 -0.09654605
000340 cd 9f 9c bd 1e 41 90 bd c8 72 a0 3c ca 8b 97 bd
       -0.07647667 -0.0704367 0.019585982 -0.073997095
000350 6c f8 f5 bc db cf a2 bd a9 be b6 3d 07 25 85 3d
       -0.030025683 -0.079498015 0.08923084 0.06501203
000360 8c 2e d8 3c 93 af 1d bd 42 cb 2e 3d 82 d7 4b 3d
       0.026389383 -0.03849752 0.04267431 0.04976607
000370 26 d1 85 bd be 35 75 3d 75 72 b8 3d 75 80 bf 3d
       -0.065340325 0.059865706 0.09006206 0.09350673
000380 d9 1d 8a 3d e5 a6 bc bd 82 22 96 bd 80 60 0c bd
       0.06743974 -0.0921152 -0.073308006 -0.034271717
000390 98 f9 82 bd 97 81 8d 3d 27 19 b5 bd 82 a2 8c bd
       -0.063952625 0.06909483 -0.08842688 -0.068669334
0003a0 3b 7b b5 bd 72 4c 1b 3d 22 5f 23 3d a2 02 5e 3d
       -0.08861395 0.0379147 0.039885648 0.05420173
0003b0 8d af 9b 3d cd 01 64 bd c3 94 a5 3d d2 fb 72 3d
       0.07601843 -0.05566578 0.08085015 0.059322186
0003c0 be fc 88 bd 80 51 57 3c 80 25 86 bc 14 71 be bc
       -0.06688832 0.01314199 -0.016375303 -0.02324728
0003d0 0b 84 9e 3d 1d d6 7f bd a0 19 8f bb da 30 1a 3d
       0.07740029 -0.062460054 -0.0043670684 0.037644245
0003e0 1e ec 4b 3d 97 0d 1c bd e7 8a 59 bd fb 09 93 bd
       0.049785726 -0.038098898 -0.053110983 -0.07179638
0003f0 8a d3 64 3d c0 ef 3f 3c e8 21 0f 3c 70 c9 74 bc
       0.055865802 0.011714876 0.008736111 -0.014940605

layers.2.weight f4 [256]
000000 00 00 80 3f 00 00 80 3f 00 00 80 3f 00 00 80 3f
       1.0 1.0 1.0 1.0
000010 00 00 80 3f 00 00 80 3f 00 00 80 3f 00 00 80 3f
       1.0 1.0 1.0 1.0
000020 00 00 80 3f 00 00 80 3f 00 00 80 3f 00 00 80 3f
       1.0 1.0 1.0 1.0
000030 00 00 80 3f 00 00 80 3f 00 00 80 3f 00 00 80 3f
       1.0 1.0 1.0 1.0
000040 00 00 80 3f 00 00 80 3f 00 00 80 3f 00 00 80 3f
       1.0 1.0 1.0 1.0
000050 00 00 80 3f 00 00 80 3f 00 00 80 3f 00 00 80 3f
       1.0 1.0 1.0 1.0
000060 00 00 80 3f 00 00 80 3f 00 00 80 3f 00 00 80 3f
       1.0 1.0 1.0 1.0
000070 00 00 80 3f 00 00 80 3f 00 00 80 3f 00 00 80 3f
       1.0 1.0 1.0 1.0
000080 00 00 80 3f 00 00 80 3f 00 00 80 3f 00 00 80 3f
       1.0 1.0 1.0 1.0
000090 00 00 80 3f 00 00 80 3f 00 00 80 3f 00 00 80 3f
       1.0 1.0 1.0 1.0
0000a0 00 00 80 3f 00 00 80 3f 00 00 80 3f 00 00 80 3f
       1.0 1.0 1.0 1.0
0000b0 00 00 80 3f 00 00 80 3f 00 00 80 3f 00 00 80 3f
       1.0 1.0 1.0 1.0
0000c0 00 00 80 3f 00 00 80 3f 00 00 80 3f 00 00 80 3f
       1.0 1.0 1.0 1.0
0000d0 00 00 80 3f 00 00 80 3f 00 00 80 3f 00 00 80 3f
       1.0 1.0 1.0 1.0
0000e0 00 00 80 3f 00 00 80 3f 00 00 80 3f 00 00 80 3f
       1.0 1.0 1.0 1.0
0000f0 00 00 80 3f 00 00 80 3f 00 00 80 3f 00 00 80 3f
       1.0 1.0 1.0 1.0
000100 00 00 80 3f 00 00 80 3f 00 00 80 3f 00 00 80 3f
       1.0 1.0 1.0 1.0
000110 00 00 80 3f 00 00 80 3f 00 00 80 3f 00 00 80 3f
       1.0 1.0 1.0 1.0
000120 00 00 80 3f 00 00 80 3f 00 00 80 3f 00 00 80 3f
       1.0 1.0 1.0 1.0
000130 00 00 80 3f 00 00 80 3f 00 00 80 3f 00 00 80 3f
       1.0 1.0 1.0 1.0
000140 00 00 80 3f 00 00 80 3f 00 00 80 3f 00 00 80 3f
       1.0 1.0 1.0 1.0
000150 00 00 80 3f 00 00 80 3f 00 00 80 3f 00 00 80 3f
       1.0 1.0 1.0 1.0
000160 00 00 80 3f 00 00 80 3f 00 00 80 3f 00 00 80 3f
       1.0 1.0 1.0 1.0
000170 00 00 80 3f 00 00 80 3f 00 00 80 3f 00 00 80 3f
       1.0 1.0 1.0 1.0
000180 00 00 80 3f 00 00 80 3f 00 00 80 3f 00 00 80 3f
       1.0 1.0 1.0 1.0
000190 00 00 80 3f 00 00 80 3f 00 00 80 3f 00 00 80 3f
       1.0 1.0 1.0 1.0
0001a0 00 00 80 3f 00 00 80 3f 00 00 80 3f 00 00 80 3f
       1.0 1.0 1.0 1.0
0001b0 00 00 80 3f 00 00 80 3f 00 00 80 3f 00 00 80 3f
       1.0 1.0 1.0 1.0
0001c0 00 00 80 3f 00 00 80 3f 00 00 80 3f 00 00 80 3f
       1.0 1.0 1.0 1.0
0001d0 00 00 80 3f 00 00 80 3f 00 00 80 3f 00 00 80 3f
       1.0 1.0 1.0 1.0
0001e0 00 00 80 3f 00 00 80 3f 00 00 80 3f 00 00 80 3f
       1.0 1.0 1.0 1.0
0001f0 00 00 80 3f 00 00 80 3f 00 00 80 3f 00 00 80 3f
       1.0 1.0 1.0 1.0
000200 00 00 80 3f 00 00 80 3f 00 00 80 3f 00 00 80 3f
       1.0 1.0 1.0 1.0
000210 00 00 80 3f 00 00 80 3f 00 00 80 3f 00 00 80 3f
       1.0 1.0 1.0 1.0
000220 00 00 80 3f 00 00 80 3f 00 00 80 3f 00 00 80 3f
       1.0 1.0 1.0 1.0
000230 00 00 80 3f 00 00 80 3f 00 00 80 3f 00 00 80 3f
       1.0 1.0 1.0 1.0
000240 00 00 80 3f 00 00 80 3f 00 00 80 3f 00 00 80 3f
       1.0 1.0 1.0 1.0
000250 00 00 80 3f 00 00 80 3f 00 00 80 3f 00 00 80 3f
       1.0 1.0 1.0 1.0
000260 00 00 80 3f 00 00 80 3f 00 00 80 3f 00 00 80 3f
       1.0 1.0 1.0 1.0
000270 00 00 80 3f 00 00 80 3f 00 00 80 3f 00 00 80 3f
       1.0 1.0 1.0 1.0
000280 00 00 80 3f 00 00 80 3f 00 00 80 3f 00 00 80 3f
       1.0 1.0 1.0 1.0
000290 00 00 80 3f 00 00 80 3f 00 00 80 3f 00 00 80 3f
       1.0 1.0 1.0 1.0
0002a0 00 00 80 3f 00 00 80 3f 00 00 80 3f 00 00 80 3f
       1.0 1.0 1.0 1.0
0002b0 00 00 80 3f 00 00 80 3f 00 00 80 3f 00 00 80 3f
       1.0 1.0 1.0 1.0
0002c0 00 00 80 3f 00 00 80 3f 00 00 80 3f 00 00 80 3f
       1.0 1.0 1.0 1.0
0002d0 00 00 80 3f 00 00 80 3f 00 00 80 3f 00 00 80 3f
       1.0 1.0 1.0 1.0
0002e0 00 00 80 3f 00 00 80 3f 00 00 80 3f 00 00 80 3f
       1.0 1.0 1.0 1.0
0002f0 00 00 80 3f 00 00 80 3f 00 00 80 3f 00 00 80 3f
       1.0 1.0 1.0 1.0
000300 00 00 80 3f 00 00 80 3f 00 00 80 3f 00 00 80 3f
       1.0 1.0 1.0 1.0
000310 00 00 80 3f 00 00 80 3f 00 00 80 3f 00 00 80 3f
       1.0 1.0 1.0 1.0
000320 00 00 80 3f 00 00 80 3f 00 00 80 3f 00 00 80 3f
       1.0 1.0 1.0 1.0
000330 00 00 80 3f 00 00 80 3f 00 00 80 3f 00 00 80 3f
       1.0 1.0 1.0 1.0
000340 00 00 80 3f 00 00 80 3f 00 00 80 3f 00 00 80 3f
       1.0 1.0 1.0 1.0
000350 00 00 80 3f 00 00 80 3f 00 00 80 3f 00 00 80 3f
       1.0 1.0 1.0 1.0
000360 00 00 80 3f 00 00 80 3f 00 00 80 3f 00 00 80 3f
       1.0 1.0 1.0 1.0
000370 00 00 80 3f 00 00 80 3f 00 00 80 3f 00 00 80 3f
       1.0 1.0 1.0 1.0
000380 00 00 80 3f 00 00 80 3f 00 00 80 3f 00 00 80 3f
       1.0 1.0 1.0 1.0
000390 00 00 80 3f 00 00 80 3f 00 00 80 3f 00 00 80 3f
       1.0 1.0 1.0 1.0
0003a0 00 00 80 3f 00 00 80 3f 00 00 80 3f 00 00 80 3f
       1.0 1.0 1.0 1.0
0003b0 00 00 80 3f 00 00 80 3f 00 00 80 3f 00 00 80 3f
       1.0 1.0 1.0 1.0
0003c0 00 00 80 3f 00 00 80 3f 00 00 80 3f 00 00 80 3f
       1.0 1.0 1.0 1.0
0003d0 00 00 80 3f 00 00 80 3f 00 00 80 3f 00 00 80 3f
       1.0 1.0 1.0 1.0
0003e0 00 00 80 3f 00 00 80 3f 00 00 80 3f 00 00 80 3f
       1.0 1.0 1.0 1.0
0003f0 00 00 80 3f 00 00 80 3f 00 00 80 3f 00 00 80 3f
       1.0 1.0 1.0 1.0

layers.2.bias f4 [256]
000000 00 00 00 00 00 00 00 00 00 00 00 00 00 00 00 00
       0.0 0.0 0.0 0.0
000010 00 00 00 00 00 00 00 00 00 00 00 00 00 00 00 00
       0.0 0.0 0.0 0.0
000020 00 00 00 00 00 00 00 00 00 00 00 00 00 00 00 00
       0.0 0.0 0.0 0.0
000030 00 00 00 00 00 00 00 00 00 00 00 00 00 00 00 00
       0.0 0.0 0.0 0.0
000040 00 00 00 00 00 00 00 00 00 00 00 00 00 00 00 00
       0.0 0.0 0.0 0.0
000050 00 00 00 00 00 00 00 00 00 00 00 00 00 00 00 00
       0.0 0.0 0.0 0.0
000060 00 00 00 00 00 00 00 00 00 00 00 00 00 00 00 00
       0.0 0.0 0.0 0.0
000070 00 00 00 00 00 00 00 00 00 00 00 00 00 00 00 00
       0.0 0.0 0.0 0.0
000080 00 00 00 00 00 00 00 00 00 00 00 00 00 00 00 00
       0.0 0.0 0.0 0.0
000090 00 00 00 00 00 00 00 00 00 00 00 00 00 00 00 00
       0.0 0.0 0.0 0.0
0000a0 00 00 00 00 00 00 00 00 00 00 00 00 00 00 00 00
       0.0 0.0 0.0 0.0
0000b0 00 00 00 00 00 00 00 00 00 00 00 00 00 00 00 00
       0.0 0.0 0.0 0.0
0000c0 00 00 00 00 00 00 00 00 00 00 00 00 00 00 00 00
       0.0 0.0 0.0 0.0
0000d0 00 00 00 00 00 00 00 00 00 00 00 00 00 00 00 00
       0.0 0.0 0.0 0.0
0000e0 00 00 00 00 00 00 00 00 00 00 00 00 00 00 00 00
       0.0 0.0 0.0 0.0
0000f0 00 00 00 00 00 00 00 00 00 00 00 00 00 00 00 00
       0.0 0.0 0.0 0.0
000100 00 00 00 00 00 00 00 00 00 00 00 00 00 00 00 00
       0.0 0.0 0.0 0.0
000110 00 00 00 00 00 00 00 00 00 00 00 00 00 00 00 00
       0.0 0.0 0.0 0.0
000120 00 00 00 00 00 00 00 00 00 00 00 00 00 00 00 00
       0.0 0.0 0.0 0.0
000130 00 00 00 00 00 00 00 00 00 00 00 00 00 00 00 00
       0.0 0.0 0.0 0.0
000140 00 00 00 00 00 00 00 00 00 00 00 00 00 00 00 00
       0.0 0.0 0.0 0.0
000150 00 00 00 00 00 00 00 00 00 00 00 00 00 00 00 00
       0.0 0.0 0.0 0.0
000160 00 00 00 00 00 00 00 00 00 00 00 00 00 00 00 00
       0.0 0.0 0.0 0.0
000170 00 00 00 00 00 00 00 00 00 00 00 00 00 00 00 00
       0.0 0.0 0.0 0.0
000180 00 00 00 00 00 00 00 00 00 00 00 00 00 00 00 00
       0.0 0.0 0.0 0.0
000190 00 00 00 00 00 00 00 00 00 00 00 00 00 00 00 00
       0.0 0.0 0.0 0.0
0001a0 00 00 00 00 00 00 00 00 00 00 00 00 00 00 00 00
       0.0 0.0 0.0 0.0
0001b0 00 00 00 00 00 00 00 00 00 00 00 00 00 00 00 00
       0.0 0.0 0.0 0.0
0001c0 00 00 00 00 00 00 00 00 00 00 00 00 00 00 00 00
       0.0 0.0 0.0 0.0
0001d0 00 00 00 00 00 00 00 00 00 00 00 00 00 00 00 00
       0.0 0.0 0.0 0.0
0001e0 00 00 00 00 00 00 00 00 00 00 00 00 00 00 00 00
       0.0 0.0 0.0 0.0
0001f0 00 00 00 00 00 00 00 00 00 00 00 00 00 00 00 00
       0.0 0.0 0.0 0.0
000200 00 00 00 00 00 00 00 00 00 00 00 00 00 00 00 00
       0.0 0.0 0.0 0.0
000210 00 00 00 00 00 00 00 00 00 00 00 00 00 00 00 00
       0.0 0.0 0.0 0.0
000220 00 00 00 00 00 00 00 00 00 00 00 00 00 00 00 00
       0.0 0.0 0.0 0.0
000230 00 00 00 00 00 00 00 00 00 00 00 00 00 00 00 00
       0.0 0.0 0.0 0.0
000240 00 00 00 00 00 00 00 00 00 00 00 00 00 00 00 00
       0.0 0.0 0.0 0.0
000250 00 00 00 00 00 00 00 00 00 00 00 00 00 00 00 00
       0.0 0.0 0.0 0.0
000260 00 00 00 00 00 00 00 00 00 00 00 00 00 00 00 00
       0.0 0.0 0.0 0.0
000270 00 00 00 00 00 00 00 00 00 00 00 00 00 00 00 00
       0.0 0.0 0.0 0.0
000280 00 00 00 00 00 00 00 00 00 00 00 00 00 00 00 00
       0.0 0.0 0.0 0.0
000290 00 00 00 00 00 00 00 00 00 00 00 00 00 00 00 00
       0.0 0.0 0.0 0.0
0002a0 00 00 00 00 00 00 00 00 00 00 00 00 00 00 00 00
       0.0 0.0 0.0 0.0
0002b0 00 00 00 00 00 00 00 00 00 00 00 00 00 00 00 00
       0.0 0.0 0.0 0.0
0002c0 00 00 00 00 00 00 00 00 00 00 00 00 00 00 00 00
       0.0 0.0 0.0 0.0
0002d0 00 00 00 00 00 00 00 00 00 00 00 00 00 00 00 00
       0.0 0.0 0.0 0.0
0002e0 00 00 00 00 00 00 00 00 00 00 00 00 00 00 00 00
       0.0 0.0 0.0 0.0
0002f0 00 00 00 00 00 00 00 00 00 00 00 00 00 00 00 00
       0.0 0.0 0.0 0.0
000300 00 00 00 00 00 00 00 00 00 00 00 00 00 00 00 00
       0.0 0.0 0.0 0.0
000310 00 00 00 00 00 00 00 00 00 00 00 00 00 00 00 00
       0.0 0.0 0.0 0.0
000320 00 00 00 00 00 00 00 00 00 00 00 00 00 00 00 00
       0.0 0.0 0.0 0.0
000330 00 00 00 00 00 00 00 00 00 00 00 00 00 00 00 00
       0.0 0.0 0.0 0.0
000340 00 00 00 00 00 00 00 00 00 00 00 00 00 00 00 00
       0.0 0.0 0.0 0.0
000350 00 00 00 00 00 00 00 00 00 00 00 00 00 00 00 00
       0.0 0.0 0.0 0.0
000360 00 00 00 00 00 00 00 00 00 00 00 00 00 00 00 00
       0.0 0.0 0.0 0.0
000370 00 00 00 00 00 00 00 00 00 00 00 00 00 00 00 00
       0.0 0.0 0.0 0.0
000380 00 00 00 00 00 00 00 00 00 00 00 00 00 00 00 00
       0.0 0.0 0.0 0.0
000390 00 00 00 00 00 00 00 00 00 00 00 00 00 00 00 00
       0.0 0.0 0.0 0.0
0003a0 00 00 00 00 00 00 00 00 00 00 00 00 00 00 00 00
       0.0 0.0 0.0 0.0
0003b0 00 00 00 00 00 00 00 00 00 00 00 00 00 00 00 00
       0.0 0.0 0.0 0.0
0003c0 00 00 00 00 00 00 00 00 00 00 00 00 00 00 00 00
       0.0 0.0 0.0 0.0
0003d0 00 00 00 00 00 00 00 00 00 00 00 00 00 00 00 00
       0.0 0.0 0.0 0.0
0003e0 00 00 00 00 00 00 00 00 00 00 00 00 00 00 00 00
       0.0 0.0 0.0 0.0
0003f0 00 00 00 00 00 00 00 00 00 00 00 00 00 00 00 00
       0.0 0.0 0.0 0.0
