model_params/train_ddpg_1606029107_10_actor.pth (torch, 158207 bytes, 16 tensors)

layers.0.weight f4 [128, 2]
0.012043978 0.018515242 0.0021129097 0.002426538 0.017829895 -0.0006704193 0.017798815 0.009797538
-0.004611869 -0.006452682 0.007558866 -0.0013946694 0.0011910825 0.012689786 -0.0131293135 -0.0020634178
0.008326042 0.005087493 0.0041738087 0.0048516295 0.009810816 0.0021903296 0.0061185407 -0.0077208206
0.016039893 -0.0052162074 0.0020504273 0.010529625 -0.009953963 0.005975841 0.0012311903 0.0001228178
0.014576339 -0.02211007 -0.00812394 -0.0035128351 0.0006698697 -0.008293993 0.004696799 0.000934772
-0.00049610296 -0.0047483305 0.012694855 -0.0008855462 0.0018245132 0.0052373908 -0.0009114345 0.0042051044
0.005806608 0.016944747 -0.021326644 -0.0027171473 -0.0075647687 -0.0010505574 0.00823026 0.015497891
0.014483338 0.002793315 0.009003201 0.0007565123 0.007580747 0.0035794096 -0.0076110116 -0.01414709
0.0014210365 0.0017464691 -0.009039008 -0.0021961606 -0.01290373 0.014502264 -0.007477565 0.004958196
0.011024378 0.014922286 -0.0011850739 0.0041671325 -0.00930264 -0.011081147 0.00077639375 -0.0043603885
0.012335605 -0.00049608626 0.01827288 0.0034630813 -0.015280724 -0.016855594 0.016030729 0.011191691
-0.0014596437 0.003143756 0.004307115 0.0043947226 0.014883664 -0.018853543 0.0012700115 0.011847066
-0.00038253443 0.0064530023 -0.0046535144 0.008877515 -0.009387851 0.004940514 -0.013843819 -0.015098875
0.006221223 -0.0022950284 -0.0076142508 -0.0056057726 0.010613286 0.0035387366 -0.00802426 0.0026279457
-0.002180675 -0.0027883884 0.0021364677 0.010151093 0.0022212546 0.003978639 -0.004824625 0.0014496552
0.0059941798 -0.0080810515 -0.0020630534 -0.0035535474 0.004640417 0.01103469 -0.013794963 -0.00029148642
0.013167239 0.00947611 -0.006235121 -0.0091555 0.0042078933 0.0024430568 0.0028768068 0.0013847068
0.03008654 -0.009052509 -0.0074006575 0.013777744 0.0026034522 0.006807119 0.0001753682 -0.006069208
0.013619921 0.002124131 -0.0031636518 0.0129470015 -0.00827996 -0.021585023 -0.012067812 -0.0024425855
0.00026567598 0.004103996 -0.014922032 0.01336097 0.0037371842 -4.4769356e-05 -0.006203563 -0.0021875047
0.005621936 0.015725994 0.0065100845 -0.00048400904 -0.009657123 -0.010844032 -0.00057598605 0.010802637
0.00034334345 0.0027753115 -0.004262299 -0.009767434 0.00909374 -0.008556909 0.0067723887 -0.00848752
0.022889039 -0.015227784 -0.014422877 -0.0013545017 -0.005938268 0.0021326072 0.00878453 0.0056057572
-0.010562567 0.0003288212 0.013905482 -0.007772232 -0.009819494 0.011866878 -0.00790234 0.00019227713
0.014860383 -0.015812844 -0.012248157 0.012714618 -0.008903705 -0.016583784 -0.012598459 -0.0016635057
0.018423188 -0.0154567985 0.0048027025 0.005546129 -0.005012197 -0.0066154944 0.0018619607 -3.2000655e-05
0.0041071675 0.008437672 -0.0017704911 0.0018132455 -8.023172e-06 0.013064317 -0.011344574 -0.0030954191
0.025036745 0.0024773157 0.0074769044 0.005452229 -0.002557893 0.010301711 0.007022262 0.0038609176
0.008633011 -0.0076676914 0.008555359 -0.004677055 -0.021510966 -0.0015218684 0.00095072546 -0.021907987
-0.014843998 0.0018675261 -0.017073406 0.0039617685 0.0016749708 -0.0019012298 0.0023307665 0.0127037605
-0.004661352 -0.005274673 0.008828458 0.004421018 0.0026088739 -0.008372464 0.0037026706 -0.010407115
0.01272346 0.016700182 -0.0085541485 0.0148181105 -0.0042643873 -0.016838212 -0.010132548 -0.0022773356
00000000: 1b54 453c 47ad 973c be78 0a3b 8d06 1f3b
00000010: 0010 923c 14bf 2fba d2ce 913c da85 203c
00000020: 291f 97bb 0571 d3bb 5db0 f73b 57cd b6ba
00000030: 191e 9c3a d2e8 4f3c 551c 57bc 683a 07bb
00000040: f469 083c fcb4 a63b 72c4 883b 6bfa 9e3b
00000050: 8bbd 203c a28b 0f3b 0a7e c83b f0fe fcbb
00000060: 1866 833c b8ec aabb 7660 063b 7384 2c3c
00000070: f215 23bc fdd0 c33b e45f a13a a7c8 0039
00000080: 99d1 6e3c 2d20 b5bc 461a 05bc 9837 66bb
00000090: 329a 2f3a 87e3 07bc 9be7 993b 7d0b 753a
000000a0: e80c 02ba e297 9bbb 15fe 4f3c 0024 68ba
000000b0: 8124 ef3a 6b9e ab3b 55ed 6eba f9ca 893b
000000c0: 5c45 be3b b6cf 8a3c 37b5 aebc 2b12 32bb
000000d0: e1e1 f7bb dbb2 89ba 36d8 063c deea 7d3c
000000e0: 864b 6d3c 0d10 373b 2982 133c ae50 463a
000000f0: ea67 f83b 8794 6a3b cb65 f9bb 32c9 67bc
00000100: 1342 ba3a c7e9 e43a 5918 14bc 76ed 0fbb
00000110: 2b6a 53bc e79a 6d3c 5d06 f5bb 5d78 a23b
00000120: 989f 343c 9b7c 743c 7b54 9bba 718c 883b
00000130: 1a6a 18bc b38d 35bc e786 4b3a 97e1 8ebb
00000140: 471b 4a3c c90b 02ba 02b1 953c ddf4 623b
00000150: 005c 7abc be14 8abc e052 833c 5b5d 373c
00000160: 8451 bfba 7907 4e3b b322 8d3b 9b01 903b
00000170: 9dda 733c bf72 9abc 8476 a63a 321a 423c
00000180: e78e c8b9 b573 d33b 827c 98bb ff72 113c
00000190: 80cf 19bc 09e4 a13b 2fd1 62bc 4661 77bc
000001a0: 67db cb3b 3068 16bb f780 f9bb a1b0 b7bb
000001b0: 59e3 2d3c 26ea 673b 3078 03bc 9d39 2c3b
000001c0: a8e9 0ebb 65bd 36bb fb03 0c3b c550 263c
000001d0: 7892 113b 3e5f 823b e317 9ebb 5b02 be3a
000001e0: d36a c43b 6366 04bc 4b34 07bb a2e2 68bb
000001f0: a40e 983b d8ca 343c 4504 62bc a5d2 98b9
00000200: 67bb 573c b041 1b3c fc4f ccbb f300 16bc
00000210: 5ee2 893b b11b 203b cf88 3c3b 0d7f b53a
00000220: 0c78 f63c fa50 14bc 3781 f2bb 0cbc 613c
00000230: ae9e 2a3b 410e df3b 0be3 3739 35e0 c6bb
00000240: 1726 5f3c 0135 0b3b 4555 4fbb a91f 543c
00000250: aba8 07bc 13d3 b0bc 12b8 45bc c913 20bb
00000260: 6d4a 8b39 d07a 863b 8a7b 74bc f8e7 5a3c
00000270: 8ceb 743b bbc6 3bb8 4247 cbbb 3d5c 0fbb
00000280: 3838 b83b cdd3 803c 8c52 d53b 98c2 fdb9
00000290: e938 1ebc 2bab 31bc c5fd 16ba 8bfd 303c
000002a0: c702 b439 00e2 353b c1aa 8bbb 9607 20bc
000002b0: e9fd 143c 4732 0cbc eaea dd3b 3d0f 0bbc
000002c0: cb81 bb3c f57d 79bc ee4d 6cbc 8989 b1ba
000002d0: cd95 c2bb 36c3 0b3b fdec 0f3c 80b0 b73b
000002e0: 9e0e 2dbc a265 ac39 d2d3 633c 35ae febb
000002f0: f1e1 20bc 4b6d 423c d178 01bc 009e 4939
00000300: f778 733c f089 81bc 7eac 48bc f950 503c
00000310: d8e0 11bc b7da 87bc c469 4ebc fd09 daba
00000320: 3aec 963c 833e 7dbc fd5f 9d3b 4dbc b53b
00000330: 5b3d a4bb cac6 d8bb 090d f43a 7138 06b8
00000340: 6b95 863b 293e 0a3c d30f e8ba 6caa ed3a
00000350: 439b 06b7 b80b 563c 98de 39bc 84dc 4abb
00000360: dc19 cd3c 765a 223b d200 f53b 9da8 b23b
00000370: 53a2 27bb 82c8 283c 011b e63b 7307 7d3b
00000380: 7971 0d3c 4241 fbbb c72b 0c3c fb41 99bb
00000390: c437 b0bc 6e79 c7ba 1b3a 793a 6178 b3bc
000003a0: 3d34 73bc c7c7 f43a 87dd 8bbc b9d1 813b
000003b0: b28a db3a b032 f9ba c6bf 183b 6f23 503c
000003c0: 41be 98bb 2ad7 acbb 3da5 103c 30de 903b
000003d0: a4f9 2a3b a92c 09bc 81a8 723b 9b82 2abc
000003e0: 0f76 503c d2ce 883c b326 0cbc a9c7 723c
000003f0: 46bc 8bbb 4af0 89bc fd02 26bc 5a3f 15bb

layers.0.bias f4 [128]
0.042006336 0.09333313 0.018949188 -0.020633832 -0.043539654 -0.08343333 0.020464063 -0.054316867
0.015095927 -0.012553081 -0.0955925 0.02426593 -0.09959532 -0.06999852 0.06342306 -0.025685683
0.018996194 -0.04240314 0.09052088 0.014243506 0.017074585 -0.088590026 -0.091807544 0.041465946
0.05852107 0.058965586 0.026673876 -0.08317198 0.087783776 0.06869347 -0.072489165 -0.0074054003
-0.041856814 -0.0059196204 0.009430841 0.015990414 0.06514201 -0.08008838 -0.029399648 -0.047502052
-0.007639155 -0.06865342 0.036115803 -0.048144378 -0.035098538 -0.06914439 -0.0949757 -0.001892671
-0.030379154 -0.08896486 0.08911484 -0.013383843 0.00826434 0.08064135 0.06152887 -0.081949696
-0.024430946 -0.053064764 -0.066036075 0.08949322 -0.07487835 0.0017707124 -0.06069684 -0.044428684
-0.020500556 0.08052125 -0.023793861 -0.098952666 0.04420442 -0.030812994 0.08108563 0.011486389
0.005242601 -0.014845036 -0.007409692 0.042076983 0.079820134 0.08438244 0.03912378 -0.07106201
0.009007052 -0.006515071 -0.060291123 -0.0074990243 -0.0340963 0.034529246 -0.098568134 -0.08766099
0.073468424 -0.026637748 -0.027963556 0.08852913 0.0040606037 -0.020339116 -0.074427925 0.04900167
-0.088589884 -0.038156547 0.08658359 -0.08894666 -0.04809878 0.037777238 -0.055310905 0.09361384
-0.051251855 -0.09072723 -0.052195072 -0.036649823 -0.08820087 -0.07176204 -0.09165253 0.009154543
0.0852781 0.08632041 -0.069925405 -0.020800158 -0.094582856 -0.008497499 0.0108618885 -0.0039949417
0.09351549 -0.06544456 -0.09174617 0.0075690523 0.01013384 0.061761998 0.066088 -0.006167099
00000000: d60e 2c3d 7125 bf3d 543b 9b3c 4808 a9bc
00000010: a356 32bd 18df aabd 40a4 a73c 5d7b 5ebd
00000020: e854 773c 70ab 4dbc 00c6 c3bd 58c9 c63c
00000030: a2f8 cbbd 625b 8fbd f3e3 813d c86a d2bc
00000040: e89d 9b3c eaae 2dbd 0363 b93d 985d 693c
00000050: 00e0 8b3c b06e b5bd 9805 bcbd 32d8 293d
00000060: cab3 6f3d e685 713d 2c83 da3c 1256 aabd
00000070: fbc7 b33d 29af 8c3d 3375 94bd 00a9 f2bb
00000080: 0d72 2bbd 60f9 c1bb d083 1a3c 54fe 823c
00000090: 2d69 853d 6005 a4bd 88d7 f0bc 8391 42bd
000000a0: e051 fabb 2a9a 8cbd 2aee 133d 0a33 45bd
000000b0: 7cc3 0fbd 939b 8dbd 9f82 c2bd 8013 f8ba
000000c0: b4dd f8bc 3533 b6bd d781 b63d e847 5bbc
000000d0: 2867 073c 4b27 a53d b205 7c3d 3ed5 a7bd
000000e0: 6823 c8bc 705a 59bd ec3d 87bd 3948 b73d
000000f0: d259 99bd 4017 e83a 409d 78bd dafa 35bd
00000100: c8f0 a7bc 53e8 a43d 58eb c2bc b2a7 cabd
00000110: b20f 353d 886b fcbc 3910 a63d 6831 3c3c
00000120: 20ca ab3b 9838 73bc 00cd f2bb ea58 2c3d
00000130: bd78 a33d b3d0 ac3d 4240 203d f688 91bd
00000140: 5092 133c 607c d5bb d3f3 76bd 60ba f5bb
00000150: 90a8 0bbd 8a6e 0d3d 17de c9bd 9b87 b3bd
00000160: 9d76 963d 6837 dabc d413 e5bc c34e b53d
00000170: d00e 853b 389e a6bc ab6d 98bd fab5 483d
00000180: 9d6e b5bd 0a4a 1cbd bd52 b13d ab29 b6bd
00000190: 3a03 45bd 4ebc 1a3d b08d 62bd 9db8 bf3d
000001a0: 77ed 51bd 33cf b9bd 80ca 55bd 201e 16bd
000001b0: a8a2 b4bd faf7 92bd 52b4 bbbd f0fc 153c
000001c0: 49a6 ae3d c1c8 b03d 0d35 8fbd 1865 aabc
000001d0: a8b4 c1bd 1839 0bbc 10f6 313c 00e8 82bb
000001e0: 0d85 bf3d cc07 86bd 6ae5 bbbd d005 f83b
000001f0: 6808 263c 26fa 7c3d 2559 873d 6015 cabb

layers.2.weight f4 [128]
1.0 1.0 1.0 1.0 1.0 1.0 1.0 1.0
1.0 1.0 1.0 1.0 1.0 1.0 1.0 1.0
1.0 1.0 1.0 1.0 1.0 1.0 1.0 1.0
1.0 1.0 1.0 1.0 1.0 1.0 1.0 1.0
1.0 1.0 1.0 1.0 1.0 1.0 1.0 1.0
1.0 1.0 1.0 1.0 1.0 1.0 1.0 1.0
1.0 1.0 1.0 1.0 1.0 1.0 1.0 1.0
1.0 1.0 1.0 1.0 1.0 1.0 1.0 1.0
1.0 1.0 1.0 1.0 1.0 1.0 1.0 1.0
1.0 1.0 1.0 1.0 1.0 1.0 1.0 1.0
1.0 1.0 1.0 1.0 1.0 1.0 1.0 1.0
1.0 1.0 1.0 1.0 1.0 1.0 1.0 1.0
1.0 1.0 1.0 1.0 1.0 1.0 1.0 1.0
1.0 1.0 1.0 1.0 1.0 1.0 1.0 1.0
1.0 1.0 1.0 1.0 1.0 1.0 1.0 1.0
1.0 1.0 1.0 1.0 1.0 1.0 1.0 1.0
00000000: 0000 803f 0000 803f 0000 803f 0000 803f
00000010: 0000 803f 0000 803f 0000 803f 0000 803f
00000020: 0000 803f 0000 803f 0000 803f 0000 803f
00000030: 0000 803f 0000 803f 0000 803f 0000 803f
00000040: 0000 803f 0000 803f 0000 803f 0000 803f
00000050: 0000 803f 0000 803f 0000 803f 0000 803f
00000060: 0000 803f 0000 803f 0000 803f 0000 803f
00000070: 0000 803f 0000 803f 0000 803f 0000 803f
00000080: 0000 803f 0000 803f 0000 803f 0000 803f
00000090: 0000 803f 0000 803f 0000 803f 0000 803f
000000a0: 0000 803f 0000 803f 0000 803f 0000 803f
000000b0: 0000 803f 0000 803f 0000 803f 0000 803f
000000c0: 0000 803f 0000 803f 0000 803f 0000 803f
000000d0: 0000 803f 0000 803f 0000 803f 0000 803f
000000e0: 0000 803f 0000 803f 0000 803f 0000 803f
000000f0: 0000 803f 0000 803f 0000 803f 0000 803f
00000100: 0000 803f 0000 803f 0000 803f 0000 803f
00000110: 0000 803f 0000 803f 0000 803f 0000 803f
00000120: 0000 803f 0000 803f 0000 803f 0000 803f
00000130: 0000 803f 0000 803f 0000 803f 0000 803f
00000140: 0000 803f 0000 803f 0000 803f 0000 803f
00000150: 0000 803f 0000 803f 0000 803f 0000 803f
00000160: 0000 803f 0000 803f 0000 803f 0000 803f
00000170: 0000 803f 0000 803f 0000 803f 0000 803f
00000180: 0000 803f 0000 803f 0000 803f 0000 803f
00000190: 0000 803f 0000 803f 0000 803f 0000 803f
000001a0: 0000 803f 0000 803f 0000 803f 0000 803f
000001b0: 0000 803f 0000 803f 0000 803f 0000 803f
000001c0: 0000 803f 0000 803f 0000 803f 0000 803f
000001d0: 0000 803f 0000 803f 0000 803f 0000 803f
000001e0: 0000 803f 0000 803f 0000 803f 0000 803f
000001f0: 0000 803f 0000 803f 0000 803f 0000 803f

layers.2.bias f4 [128]
0.0 0.0 0.0 0.0 0.0 0.0 0.0 0.0
0.0 0.0 0.0 0.0 0.0 0.0 0.0 0.0
0.0 0.0 0.0 0.0 0.0 0.0 0.0 0.0
0.0 0.0 0.0 0.0 0.0 0.0 0.0 0.0
0.0 0.0 0.0 0.0 0.0 0.0 0.0 0.0
0.0 0.0 0.0 0.0 0.0 0.0 0.0 0.0
0.0 0.0 0.0 0.0 0.0 0.0 0.0 0.0
0.0 0.0 0.0 0.0 0.0 0.0 0.0 0.0
0.0 0.0 0.0 0.0 0.0 0.0 0.0 0.0
0.0 0.0 0.0 0.0 0.0 0.0 0.0 0.0
0.0 0.0 0.0 0.0 0.0 0.0 0.0 0.0
0.0 0.0 0.0 0.0 0.0 0.0 0.0 0.0
0.0 0.0 0.0 0.0 0.0 0.0 0.0 0.0
0.0 0.0 0.0 0.0 0.0 0.0 0.0 0.0
0.0 0.0 0.0 0.0 0.0 0.0 0.0 0.0
0.0 0.0 0.0 0.0 0.0 0.0 0.0 0.0
00000000: 0000 0000 0000 0000 0000 0000 0000 0000
00000010: 0000 0000 0000 0000 0000 0000 0000 0000
00000020: 0000 0000 0000 0000 0000 0000 0000 0000
00000030: 0000 0000 0000 0000 0000 0000 0000 0000
00000040: 0000 0000 0000 0000 0000 0000 0000 0000
00000050: 0000 0000 0000 0000 0000 0000 0000 0000
00000060: 0000 0000 0000 0000 0000 0000 0000 0000
00000070: 0000 0000 0000 0000 0000 0000 0000 0000
00000080: 0000 0000 0000 0000 0000 0000 0000 0000
00000090: 0000 0000 0000 0000 0000 0000 0000 0000
000000a0: 0000 0000 0000 0000 0000 0000 0000 0000
000000b0: 0000 0000 0000 0000 0000 0000 0000 0000
000000c0: 0000 0000 0000 0000 0000 0000 0000 0000
000000d0: 0000 0000 0000 0000 0000 0000 0000 0000
000000e0: 0000 0000 0000 0000 0000 0000 0000 0000
000000f0: 0000 0000 0000 0000 0000 0000 0000 0000
00000100: 0000 0000 0000 0000 0000 0000 0000 0000
00000110: 0000 0000 0000 0000 0000 0000 0000 0000
00000120: 0000 0000 0000 0000 0000 0000 0000 0000
00000130: 0000 0000 0000 0000 0000 0000 0000 0000
00000140: 0000 0000 0000 0000 0000 0000 0000 0000
00000150: 0000 0000 0000 0000 0000 0000 0000 0000
00000160: 0000 0000 0000 0000 0000 0000 0000 0000
00000170: 0000 0000 0000 0000 0000 0000 0000 0000
00000180: 0000 0000 0000 0000 0000 0000 0000 0000
00000190: 0000 0000 0000 0000 0000 0000 0000 0000
000001a0: 0000 0000 0000 0000 0000 0000 0000 0000
000001b0: 0000 0000 0000 0000 0000 0000 0000 0000
000001c0: 0000 0000 0000 0000 0000 0000 0000 0000
000001d0: 0000 0000 0000 0000 0000 0000 0000 0000
000001e0: 0000 0000 0000 0000 0000 0000 0000 0000
000001f0: 0000 0000 0000 0000 0000 0000 0000 0000

layers.2.running_mean f4 [128]
0.0 0.0 0.0 0.0 0.0 0.0 0.0 0.0
0.0 0.0 0.0 0.0 0.0 0.0 0.0 0.0
0.0 0.0 0.0 0.0 0.0 0.0 0.0 0.0
0.0 0.0 0.0 0.0 0.0 0.0 0.0 0.0
0.0 0.0 0.0 0.0 0.0 0.0 0.0 0.0
0.0 0.0 0.0 0.0 0.0 0.0 0.0 0.0
0.0 0.0 0.0 0.0 0.0 0.0 0.0 0.0
0.0 0.0 0.0 0.0 0.0 0.0 0.0 0.0
0.0 0.0 0.0 0.0 0.0 0.0 0.0 0.0
0.0 0.0 0.0 0.0 0.0 0.0 0.0 0.0
0.0 0.0 0.0 0.0 0.0 0.0 0.0 0.0
0.0 0.0 0.0 0.0 0.0 0.0 0.0 0.0
0.0 0.0 0.0 0.0 0.0 0.0 0.0 0.0
0.0 0.0 0.0 0.0 0.0 0.0 0.0 0.0
0.0 0.0 0.0 0.0 0.0 0.0 0.0 0.0
0.0 0.0 0.0 0.0 0.0 0.0 0.0 0.0
00000000: 0000 0000 0000 0000 0000 0000 0000 0000
00000010: 0000 0000 0000 0000 0000 0000 0000 0000
00000020: 0000 0000 0000 0000 0000 0000 0000 0000
00000030: 0000 0000 0000 0000 0000 0000 0000 0000
00000040: 0000 0000 0000 0000 0000 0000 0000 0000
00000050: 0000 0000 0000 0000 0000 0000 0000 0000
00000060: 0000 0000 0000 0000 0000 0000 0000 0000
00000070: 0000 0000 0000 0000 0000 0000 0000 0000
00000080: 0000 0000 0000 0000 0000 0000 0000 0000
00000090: 0000 0000 0000 0000 0000 0000 0000 0000
000000a0: 0000 0000 0000 0000 0000 0000 0000 0000
000000b0: 0000 0000 0000 0000 0000 0000 0000 0000
000000c0: 0000 0000 0000 0000 0000 0000 0000 0000
000000d0: 0000 0000 0000 0000 0000 0000 0000 0000
000000e0: 0000 0000 0000 0000 0000 0000 0000 0000
000000f0: 0000 0000 0000 0000 0000 0000 0000 0000
00000100: 0000 0000 0000 0000 0000 0000 0000 0000
00000110: 0000 0000 0000 0000 0000 0000 0000 0000
00000120: 0000 0000 0000 0000 0000 0000 0000 0000
00000130: 0000 0000 0000 0000 0000 0000 0000 0000
00000140: 0000 0000 0000 0000 0000 0000 0000 0000
00000150: 0000 0000 0000 0000 0000 0000 0000 0000
00000160: 0000 0000 0000 0000 0000 0000 0000 0000
00000170: 0000 0000 0000 0000 0000 0000 0000 0000
00000180: 0000 0000 0000 0000 0000 0000 0000 0000
00000190: 0000 0000 0000 0000 0000 0000 0000 0000
000001a0: 0000 0000 0000 0000 0000 0000 0000 0000
000001b0: 0000 0000 0000 0000 0000 0000 0000 0000
000001c0: 0000 0000 0000 0000 0000 0000 0000 0000
000001d0: 0000 0000 0000 0000 0000 0000 0000 0000
000001e0: 0000 0000 0000 0000 0000 0000 0000 0000
000001f0: 0000 0000 0000 0000 0000 0000 0000 0000

layers.2.running_var f4 [128]
1.0 1.0 1.0 1.0 1.0 1.0 1.0 1.0
1.0 1.0 1.0 1.0 1.0 1.0 1.0 1.0
1.0 1.0 1.0 1.0 1.0 1.0 1.0 1.0
1.0 1.0 1.0 1.0 1.0 1.0 1.0 1.0
1.0 1.0 1.0 1.0 1.0 1.0 1.0 1.0
1.0 1.0 1.0 1.0 1.0 1.0 1.0 1.0
1.0 1.0 1.0 1.0 1.0 1.0 1.0 1.0
1.0 1.0 1.0 1.0 1.0 1.0 1.0 1.0
1.0 1.0 1.0 1.0 1.0 1.0 1.0 1.0
1.0 1.0 1.0 1.0 1.0 1.0 1.0 1.0
1.0 1.0 1.0 1.0 1.0 1.0 1.0 1.0
1.0 1.0 1.0 1.0 1.0 1.0 1.0 1.0
1.0 1.0 1.0 1.0 1.0 1.0 1.0 1.0
1.0 1.0 1.0 1.0 1.0 1.0 1.0 1.0
1.0 1.0 1.0 1.0 1.0 1.0 1.0 1.0
1.0 1.0 1.0 1.0 1.0 1.0 1.0 1.0
00000000: 0000 803f 0000 803f 0000 803f 0000 803f
00000010: 0000 803f 0000 803f 0000 803f 0000 803f
00000020: 0000 803f 0000 803f 0000 803f 0000 803f
00000030: 0000 803f 0000 803f 0000 803f 0000 803f
00000040: 0000 803f 0000 803f 0000 803f 0000 803f
00000050: 0000 803f 0000 803f 0000 803f 0000 803f
00000060: 0000 803f 0000 803f 0000 803f 0000 803f
00000070: 0000 803f 0000 803f 0000 803f 0000 803f
00000080: 0000 803f 0000 803f 0000 803f 0000 803f
00000090: 0000 803f 0000 803f 0000 803f 0000 803f
000000a0: 0000 803f 0000 803f 0000 803f 0000 803f
000000b0: 0000 803f 0000 803f 0000 803f 0000 803f
000000c0: 0000 803f 0000 803f 0000 803f 0000 803f
000000d0: 0000 803f 0000 803f 0000 803f 0000 803f
000000e0: 0000 803f 0000 803f 0000 803f 0000 803f
000000f0: 0000 803f 0000 803f 0000 803f 0000 803f
00000100: 0000 803f 0000 803f 0000 803f 0000 803f
00000110: 0000 803f 0000 803f 0000 803f 0000 803f
00000120: 0000 803f 0000 803f 0000 803f 0000 803f
00000130: 0000 803f 0000 803f 0000 803f 0000 803f
00000140: 0000 803f 0000 803f 0000 803f 0000 803f
00000150: 0000 803f 0000 803f 0000 803f 0000 803f
00000160: 0000 803f 0000 803f 0000 803f 0000 803f
00000170: 0000 803f 0000 803f 0000 803f 0000 803f
00000180: 0000 803f 0000 803f 0000 803f 0000 803f
00000190: 0000 803f 0000 803f 0000 803f 0000 803f
000001a0: 0000 803f 0000 803f 0000 803f 0000 803f
000001b0: 0000 803f 0000 803f 0000 803f 0000 803f
000001c0: 0000 803f 0000 803f 0000 803f 0000 803f
000001d0: 0000 803f 0000 803f 0000 803f 0000 803f
000001e0: 0000 803f 0000 803f 0000 803f 0000 803f
000001f0: 0000 803f 0000 803f 0000 803f 0000 803f

layers.3.weight f4 [128, 128]
-0.0082898205 -0.0077360454 0.027711518 -0.009175124 -0.010521332 -0.007142568 0.015768409 0.0076066107
-0.01783817 0.018896732 -0.00071241986 0.00028650204 0.0053417794 -0.0018523913 0.010747328 -0.018130863
-0.007440782 -0.0016299662 -0.001159588 0.013565602 -0.006811291 0.0023011565 0.0074106986 0.010525407
-0.00096065423 -0.007396682 -0.006380745 -0.0021249924 -0.009092588 0.009737574 -0.0015054762 0.0057905945
-0.0036944125 0.0027884142 0.017873222 0.008141664 0.005324532 -0.007427889 -0.015496116 -0.009044719
-0.004541363 -0.014244354 -0.009406499 0.0129430685 -0.0027942578 0.020060135 -0.012648868 0.0047511873
0.0017696414 -0.0016094209 -0.008466785 -0.004826824 -0.006480882 -0.013861935 -0.009198236 0.00433072
0.0036787065 0.003640521 0.0015923748 0.00040978246 0.019177968 -0.006805209 0.032028254 -0.0045686807
-0.0031047359 -0.006782471 -0.0014087949 0.003472969 -0.0034913498 -0.0123387 0.0034318229 0.01769044
0.0098172 0.015095974 -0.0038557355 -0.006768483 0.0031252122 -0.00047692363 -0.007067091 -0.0005819159
0.0157033 0.0035019042 0.0042880676 -0.016188918 -0.00721516 0.0003147537 0.0038544028 -0.00196003
0.013381171 -0.0040814923 0.0024456955 -0.006613106 -0.0061242124 0.010063438 0.0011133461 0.015217289
-0.0047320956 -0.00071292225 -0.011911044 0.009149332 0.0027818058 -0.010469642 -0.014103338 -0.014661253
-0.0029955774 -0.0017470057 0.012049658 0.0025112855 -0.008727556 -0.0027519383 -0.011755709 -0.005750517
0.00959911 0.01004871 -0.0061221602 0.0003811744 0.002195223 0.0069314037 0.008952338 -0.016184913
-0.024801383 0.017778413 0.002490612 -0.005762556 0.005645951 0.0017941645 0.01502717 -0.003596847
-0.003361233 -0.010785865 0.0013401529 -0.015001459 0.0046012867 0.00044980168 0.013232245 0.0060957693
-0.011883902 0.009060103 0.015332237 -0.009274615 -0.00011062328 -0.003266719 0.0041510304 -0.009280158
0.012237645 -0.009713529 -0.016523175 -0.009562337 -0.006638127 0.0076305857 -0.011019385 -0.006205764
0.00031134565 0.008117563 -0.006397425 0.0037009679 -0.0061417287 -0.014430625 -0.022229971 0.018694405
-0.004876737 0.006498912 0.010533739 -0.008821565 -0.017356673 0.028715177 0.0044385307 -0.008807953
-0.0014578924 -0.0002859162 0.0024909498 0.0050917487 0.0068251747 0.007889662 -0.0024729623 0.006709434
0.008173665 0.0066924244 0.0021360125 0.0048838174 0.0031630876 -0.0063310927 0.005431931 0.0061842245
0.0034342785 0.012914425 0.0050879004 0.0019020545 0.0016712239 -0.016556324 0.020082673 0.002687759
-0.00424506 -0.005867945 0.00036349046 0.00022006674 -0.011519073 -0.009390853 0.01390172 -0.011303533
-0.011521924 0.002657406 0.012133245 0.024141597 0.008495242 0.0071002194 -0.006130471 0.0016445952
-0.013323077 0.011971297 -0.00048287012 -0.0051280367 -0.005051226 0.016202485 -0.0040141987 0.015858268
-0.0007060499 -0.0010937682 -0.011908996 0.006644337 -0.0056512957 -0.00069694384 -0.016570859 -0.008978682
0.0026365719 0.008558144 -0.0034342106 0.004471619 0.0012860973 0.0032560746 -0.007876662 -0.0058446047
-0.004196078 0.0144344205 -5.2037733e-05 -0.02458352 -0.0009457085 -0.014176178 0.0016674002 -0.003050747
0.0019179068 0.009729168 -0.019009918 0.006312049 -0.001452651 -0.0048495135 -0.012629893 -0.0030533571
0.005488409 0.0030351304 0.0022096438 -0.00048526764 0.010099983 -0.017752102 -0.0021712086 -0.0060464405
00000000: 07d2 07bc a77e fdbb 4403 e33c 4253 16bc
00000010: aa61 2cbc 340c eabb c02c 813c e040 f93b
00000020: 5b21 92bc 52cd 9a3c b0c1 3aba a735 9639
00000030: 180a af3b f0cb f2ba 9015 303c 2d87 94bc
00000040: ced1 f3bb 97a4 d5ba 51fd 97ba 4242 5e3c
00000050: 4031 dfbb 00cf 163b 72d5 f23b c272 2c3c
00000060: 6ad4 7bba de5f f2bb 9215 d1bb 7543 0bbb
00000070: 14f9 14bc 588a 1f3c 6653 c5ba 07bf bd3b
00000080: f51d 72bb d4bd 363b dd6a 923c 9d64 053c
00000090: 6979 ae3b a665 f3bb 6ce3 7dbc 4d30 14bc
000000a0: b7cf 94bb 2761 69bc b71d 1abc 2a0f 543c
000000b0: de1f 37bb 2755 a43c 333d 4fbc d9af 9b3b
000000c0: 50f3 e73a 34f3 d2ba 45b8 0abc 562a 9ebb
000000d0: 945d d4bb 2b1d 63bc 33b4 16bc b6e8 8d3b
000000e0: 7416 713b cf95 6e3b 3bb7 d03a 12d8 d639
000000f0: 1d1b 9d3c 3bfe debb 0f30 033d dfb4 95bb
00000100: d378 4bbb 7e3f debb 50a7 b8ba c09a 633b
00000110: 21cf 64bb 4228 4abc 6fe8 603b 8beb 903c
00000120: 52d8 203c 1b55 773c 82b0 7cbb 27ca ddbb
00000130: 5cd0 4c3b 9b0b fab9 0e93 e7bb b78b 18ba
00000140: 35a4 803c 3480 653b eb82 8c3b 9f9e 84bc
00000150: 266d ecbb 8705 a539 269a 7c3b d973 00bb
00000160: b33c 5b3c 0abe 85bb f647 203b c1b2 d8bb
00000170: 9ead c8bb 1ee1 243c b2ed 913a f051 793c
00000180: b20f 9bbb 67e3 3aba 8a26 43bc 14e7 153c
00000190: f54e 363b dc88 2bbc b011 67bc c135 70bc
000001a0: 7351 44bb c9fb e4ba ee6b 453c 6194 243b
000001b0: 06fe 0ebc dd59 34bb 049b 40bc d56e bcbb
000001c0: 9645 1d3c 58a3 243c 679c c8bb 5dd8 c739
000001d0: bbdd 0f3b d420 e33b d4ac 123c 3996 84bc
000001e0: 452c cbbc 09a4 913c 8939 233b d3d3 bcbb
000001f0: ab01 b93b 2c2a eb3a 8534 763c 14b9 6bbb
00000200: 2248 5cbb 32b7 30bc 12a8 af3a aec8 75bc
00000210: 64c6 963b 5cd3 eb39 0fcc 583c 05bf c73b
00000220: b3b4 42bc d470 143c 1034 7b3c 8ef4 17bc
00000230: 6cfe e7b8 7316 56bb 5e05 883b ce0b 18bc
00000240: 6780 483c 7e25 1fbc 9c5b 87bc 59ab 1cbc
00000250: a584 d9bb fe09 fa3b a78a 34bc b959 cbbb
00000260: 1b3c a339 87ff 043c 7ea1 d1bb f08b 723b
00000270: 8e40 c9bb 6e6e 6cbc a11b b6bc 0225 993c
00000280: 09cd 9fbb d3f4 d43b b495 2c3c 5388 10bc
00000290: 952f 8ebc 173c eb3c 1871 913b 3c4f 10bc
000002a0: c016 bfba 06e7 95b9 343f 233b afd8 a63b
000002b0: b7a5 df3b a443 013c 6c11 22bb d0da db3b
000002c0: d6ea 053c 204c db3b 58fc 0b3b 6e08 a03b
000002d0: ce4b 4f3b 0e75 cfbb 57fe b13b 09a5 ca3b
000002e0: a211 613b 0697 533c 67b8 a63b 5c4e f93a
000002f0: f80c db3a 21a1 87bc 6b84 a43c 1d25 303b
00000300: 251a 8bbb e447 c0bb dd92 be39 b7c1 6639
00000310: 7eba 3cbc 18dc 19bc 0ac4 633c 7432 39bc
00000320: 74c6 3cbc e027 2e3b 85ca 463c 99c4 c53c
00000330: a12f 0b3c f5a8 e83b 1ee2 c8bb 758f d73a
00000340: 0949 5abc 4223 443c bb29 fdb9 1709 a8bb
00000350: c184 a5bb 13bb 843c 8a89 83bb 33e9 813c
00000360: 3516 39ba c55c 8fba f31d 43bc bdb8 d93b
00000370: 812e b9bb 1cb3 36ba 9cbf 87bc 521b 13bc
00000380: 56ca 2c3b 7537 0c3c 7e10 61bb a986 923b
00000390: 4492 a83a de63 553b 1d0d 01bc 1984 bfbb
000003a0: 417f 89bb 597e 6c3c 1743 5ab8 6163 c9bc
000003b0: 6ce9 77ba 3343 68bc ab8c da3a 0bef 47bb
000003c0: 4662 fb3a 1767 1f3c b0ba 9bbc 4ed5 ce3b
000003d0: e166 beba abe8 9ebb 9ced 4ebc d51a 48bb
000003e0: 1dd8 b33b 0ae9 463b accf 103b 856b feb9
000003f0: 667a 253c db6c 91bc d64a 0ebb 3821 c6bb

layers.3.bias f4 [128]
-0.09855924 0.01893691 -0.024587527 -0.06874296 -0.057783928 0.037587605 0.08176529 0.062484957
0.038585536 0.093087606 0.054951705 -0.08142601 0.070698254 -0.00010855496 0.057853766 0.07031006
-0.021136008 -0.026101947 -0.003363952 -0.084804825 -0.09352378 0.04983934 -0.050801255 -0.0059581995
-0.070493 0.03106714 -0.08756454 0.0035616606 0.0013941377 -0.08896716 0.06943876 -0.029280305
0.067838185 -0.019553162 0.083970495 0.054445468 0.059882395 0.08855007 0.099533 -0.0933254
-0.0293857 -0.017096564 -0.07838843 -0.06986846 0.017122552 0.08205298 -0.029862747 0.050181307
-0.02189 0.059738703 -0.09146764 0.08833227 -0.0072032213 0.023651741 -0.008718513 0.077990316
-0.058428753 -0.0643667 -0.012552798 -0.03959742 -0.07660858 0.025804527 -0.04308666 0.080132
-0.07362435 0.0070282817 0.022675708 -0.002565898 -0.029873416 0.06749006 0.07328416 0.01659523
-0.019879818 0.072117396 0.0906504 0.059707873 -0.058822703 -0.026855752 -0.020561099 0.060251854
0.08837939 0.06251388 -0.08656223 -0.071027756 -0.07798691 -0.052591097 0.015285596 -0.01986356
-0.059081104 0.08938176 -0.014166474 -0.09269502 -0.000890933 0.008299552 0.010589719 -0.009679951
0.0254196 0.082416736 0.09235225 0.011493996 -0.019158974 0.05566547 -0.024824701 0.056487583
-0.001470387 0.06619776 0.053169303 -0.090659164 -0.087366395 -0.04035876 -0.01243864 0.07440836
0.035599284 -0.050108638 -0.09608489 0.08856077 -0.021309592 -0.04917562 -0.022649504 0.043012686
-0.063868746 0.005908549 0.055671133 0.019409344 0.09200213 -0.0058584586 -0.0951363 0.055565424
00000000: 6dd9 c9bd 9421 9b3c c86b c9bc 1cc9 8cbd
00000010: d7ae 6cbd 76f5 193d 8f74 a73d 3af0 7f3d
00000020: de0b 1e3d b7a4 be3d 0a15 613d aec2 a6bd
00000030: 3fca 903d 00a8 e3b8 12f8 6c3d b9fe 8f3d
00000040: 6c25 adbc c0d3 d5bc c075 5cbb 27ae adbd
00000050: 6589 bfbd 5624 4c3d fa14 50bd 003d c3bb
00000060: a25e 90bd 8480 fe3c 0a55 b3bd c06a 693b
00000070: 80bb b63a 6a34 b6bd e935 8e3d 40dd efbc
00000080: bfee 8a3d f42d a0bc b9f8 ab3d 3602 5f3d
00000090: 3e47 753d bd59 b53d f5d7 cb3d 6321 bfbd
000000a0: 48ba f0bc 180e 8cbc 1d8a a0bd 3217 8fbd
000000b0: 9844 8c3c 650b a83d b8a2 f4bc ea8a 4d3d
000000c0: a852 b3bc 92b0 743d 6353 bbbd 8de7 b43d
000000d0: 0009 ecbb 4cc1 c13c 18d8 0ebc 63b9 9f3d
000000e0: fd52 6fbd b0d2 83bd 40aa 4dbc e730 22bd
000000f0: f6e4 9cbd 0464 d33c a37b 30bd 3f1c a43d
00000100: 5dc8 96bd 804d e63b 68c2 b93c a028 28bb
00000110: 18b9 f4bc 3b38 8a3d 0116 963d b8f2 873c
00000120: 00db a2bc 49b2 933d eba6 b93d 3e90 743d
00000130: 13f0 70bd 9800 dcbc c06f a8bc a6ca 763d
00000140: 4100 b53d 4707 803d 8a47 b1bd 0077 91bd
00000150: 9ab7 9fbd c369 57bd 7070 7a3c e8b8 a2bc
00000160: 07ff 71bd c90d b73d 801a 68bc e3d6 bdbd
00000170: 808d 69ba d8fa 073c 8080 2d3c a898 1ebc
00000180: c43c d03c 1bca a83d 2d23 bd3d 5051 3c3c
00000190: 48f3 9cbc 7a01 643d 2c5d cbbc 865f 673d
000001a0: 00ba c0ba b192 873d 0ec8 593d 83ab b9bd
000001b0: 27ed b2bd 3a4f 25bd 70cb 4bbc 6963 983d
000001c0: 8ed0 113d b73e 4dbd 28c8 c4bd 595f b53d
000001d0: 7491 aebc 606c 49bd 748b b9bc 122e 303d
000001e0: 9ecd 82bd 809c c13b 6a07 643d 5800 9f3c
000001f0: 9d6b bc3d 50f8 bfbb d2d6 c2bd 9298 633d

layers.6.weight f4 [64, 128]
-0.009612104 0.011701897 -0.010460253 -0.012979832 -0.0067274324 0.0040245554 0.007749466 -0.0040650503
-0.02488934 -0.006743841 0.014303226 -0.00745158 -0.006761437 0.008179447 0.005924564 -0.00018927215
-0.008650696 0.006836431 -0.013211362 -0.00020564813 0.02091144 0.0053891996 -0.002899799 -0.006318018
-0.0062242425 0.0015042174 0.0012502804 -0.0015093186 0.016251976 0.00703955 -0.0026322533 -0.012113192
0.0051151407 -0.016709523 0.013967069 -0.0087111415 0.006303743 0.00957168 2.1939428e-05 -0.007888155
-0.013313827 -0.0003435742 -0.011398375 0.005781657 0.0067196647 -0.0130372485 -0.0149285905 0.00050114415
-3.002906e-05 0.0017649629 -0.0029497065 -0.004179352 0.0094202915 0.014524154 0.017400226 0.012922491
-0.0028547645 2.0425536e-05 0.008782789 0.0052072434 -0.008719324 -0.011324619 0.0006717422 -0.0045488356
-0.019074293 0.0054792026 0.014965493 -0.009018016 -0.008897753 -0.0135017885 0.0033975104 0.00013288499
0.008770244 -0.0074059325 -0.0004493215 -0.0069113555 -0.0108193895 0.004610695 -0.0013684487 -0.009780725
0.00042591477 0.02691762 0.004629421 -0.0013854771 -0.025329892 -0.0014041247 -0.00020956823 -0.011849448
-0.006306909 0.0034055116 -0.0117450375 -0.0005679304 0.008240438 -0.0026035341 -0.0074675176 0.008122868
-0.0031913535 -0.0036541256 0.0031940846 -0.010228715 -0.005684528 -0.010656632 0.005295585 -0.0043217856
-0.003181829 0.0018692466 0.012723482 0.004700257 0.00028275352 -0.0018089007 0.014903078 0.00260811
-0.011316921 -0.015755981 0.003985374 0.0069908383 0.0035304278 -0.017249912 0.012491611 0.009146006
0.0014208579 -0.009392804 -0.00080637616 0.012777355 0.009806243 -0.016877264 0.0005776632 -0.019579884
0.010275304 0.019388268 0.009902264 0.018742453 0.003312799 -0.012171853 -0.002033944 0.008658365
-0.012626703 0.00226745 -0.016306765 -0.017955756 -0.0040727635 0.008240829 0.001952141 -0.0023685358
-0.0042793453 0.017753383 -0.0079195695 -0.00609081 0.0033698434 0.0057776943 -0.010049492 0.0004541134
-0.00847952 0.015717087 0.011245619 0.005017849 -0.0044669574 0.0036891724 0.0068511185 0.01494965
-0.008558608 -0.01563086 -0.005268048 0.0031414153 -0.00062362995 -0.017809842 0.014209666 0.009908689
-0.0030733203 0.004939228 0.0025413749 -0.0008908804 0.0008656686 0.0032757488 0.0020787164 0.007774034
-0.007814264 0.015784897 0.002858902 -0.014113559 0.008573675 0.0023172568 -0.02025012 0.0056052636
-0.00024834706 -0.0028206059 0.015069341 -0.011367896 -0.0011511545 0.0037580421 -0.0018570254 0.0045446106
-0.013607497 0.008194097 0.00086854515 -0.006760047 -0.0034182763 0.022487583 0.005419549 0.007925273
-0.015375538 0.0063144034 -0.005521428 -0.016734611 -0.0023773047 -0.01710272 -0.010919248 0.000983263
-0.0030088865 0.004736723 -0.0024235856 -0.011695079 0.01030058 0.013340007 0.0060033957 0.0023293735
0.0034104048 0.011464619 0.00089127454 0.002293602 0.008505157 -0.0013281887 0.0033191452 0.00262113
0.0051894826 -0.015117145 -0.026953302 0.0014640046 0.0037147729 -0.0053556594 -0.008378339 0.021418974
-0.0055587166 -0.006416779 0.01098818 -0.0030804416 -0.013196536 -0.010876567 0.0044242973 0.02052879
-0.010195796 -0.009677266 -0.0023630876 -0.022181634 0.014347434 -0.010746042 0.00092876545 -0.0044844155
0.0001747202 0.002030042 0.014899268 0.010700441 0.004266211 0.003452896 0.011244035 0.0072807376
00000000: 167c 1dbc 50b9 3f3c 7b61 2bbc 5ca9 54bc
00000010: cb71 dcbb 6be0 833b 3cef fd3b 1d34 85bb
00000020: bbe4 cbbc 70fb dcbb 1458 6a3c 622c f4bb
00000030: 0b8f ddbb 1603 063c d822 c23b 5b77 46b9
00000040: a6bb 0dbc 2404 e03b 7874 58bc 40a3 57b9
00000050: 784e ab3c e297 b03b 8e0a 3ebb 6007 cfbb
00000060: bbf4 cbbb 2929 c53a 73e0 a33a 54d4 c5ba
00000070: dd22 853c 07ac e63b e281 2cbb 6976 46bc
00000080: e99c a73b 69e2 88bc 22d6 643c 2db9 0ebc
00000090: a18f ce3b 89d2 1c3c 900a b837 523d 01bc
000000a0: 3d22 5abc c021 b4b9 40c0 3abc 0e74 bd3b
000000b0: a230 dc3b 2f9a 55bc 0c97 74bc 375f 033a
000000c0: eae6 fbb7 5456 e73a dd4f 41bb f2f2 88bb
000000d0: 9157 1a3c b8f6 6d3c eb8a 8e3c dbb8 533c
000000e0: 0017 3bbb 8157 ab37 b0e5 0f3c 86a1 aa3b
000000f0: 7fdb 0ebc e58a 39bc db17 303a 660e 95bb
00000100: b141 9cbc e28a b33b d431 753c 4dc0 13bc
00000110: e2c7 11bc 9b36 5dbc c4a8 5e3b 0b57 0b39
00000120: 12b1 0f3c 77ad f2bb e992 ebb9 a778 e2bb
00000130: cf43 31bc 5015 973b 855d b3ba 563f 20bc
00000140: 504d df39 5782 dc3c 66b2 973b e698 b5ba
00000150: a280 cfbc 9b0a b8ba 8bbf 5bb9 3024 42bc
00000160: 30aa cebb 012f 5f3b 426e 40bc 2ae1 14ba
00000170: e702 073c 0ea0 2abb 14b2 f4bb c715 053c
00000180: 0726 51bb 0e7a 6fbb d953 513b 5796 27bc
00000190: 4745 babb 2799 2ebc 9686 ad3b c49d 8dbb
000001a0: 3b86 50bb 8201 f53a 2776 503c 9d04 9a3b
000001b0: 893e 9439 a318 edba 0a2c 743c d3ec 2a3b
000001c0: 9b6a 39bc b012 81bc bd97 823b 6713 e53b
000001d0: c05e 673b b04f 8dbc 9da9 4c3c 21d9 153c
000001e0: 143c ba3a 46e4 19bc fd62 53ba 1c58 513c
000001f0: 5daa 203c 3042 8abc 526e 173a fe65 a0bc
00000200: c059 283c 25d4 9e3c 1b3d 223c c689 993c
00000210: 8b1b 593b 746c 47bc eb4b 05bb d1db 0d3c
00000220: 3be0 4ebc 8099 143b c495 85bc f317 93bc
00000230: d174 85bb 8b04 073c fcde ff3a 7039 1bbb
00000240: c039 8cbb 8b6f 913c 15c1 01bc 6b95 c7bb
00000250: 97d8 5c3b d052 bd3b a0a6 24bc 1216 ee39
00000260: afed 0abc 1fc1 803c 8b3f 383c c56c a43b
00000270: 8e5f 92bb 0bc6 713b 597f e03b 60ef 743c
00000280: 6739 0cbc 4a0c 80bc 979f acbb 34e0 4d3b
00000290: 197b 23ba f2e5 91bc a9cf 683c 0e58 223c
000002a0: c269 49bb 3fd9 a13b 328d 263b f989 69ba
000002b0: 09ee 623a f2ad 563b 133b 083b 53bd fe3b
000002c0: 6607 00bc 544f 813c 6b5c 3b3b 8f3c 67bc
000002d0: 9978 0c3c 1edd 173b 94e3 a5bc 5cac b73b
000002e0: 9434 82b9 ead9 38bb 66e5 763c 6940 3abc
000002f0: 56e2 96ba 7c49 763b 6f67 f3ba f5ea 943b
00000300: fbf1 5ebc 8940 063c 14af 633a 6283 ddbb
00000310: 2905 60bb e137 b83c 7996 b13b 01d9 013c
00000320: aee9 7bbc 0ee9 ce3b 18ed b4bb 0617 89bc
00000330: 8ecc 1bbb 011b 8cbc a5e6 32bc d5e0 803a
00000340: bd30 45bb 8336 9b3b 05d5 1ebb b79c 3fbc
00000350: c4c3 283c 0b90 5a3c 22b8 c43b 67a8 183b
00000360: 1981 5f3b 19d6 3b3c 6ca4 693a 4250 163b
00000370: 3759 0b3c 9e16 aeba 0486 593b 44c7 2b3b
00000380: 890c aa3b e7ad 77bc 2ccd dcbc d8e3 bf3a
00000390: 8c73 733b 877e afbb 4d45 09bc d876 af3c
000003a0: e525 b6bb d843 d2bb c407 343c 3ce1 49bb
000003b0: 4936 58bc a133 32bc b2f9 903b fe2b a83c
000003c0: 450c 27bc 658d 1ebc 08de 1abb 42b6 b5bc
000003d0: 8011 6b3c 2b10 30bc 6578 733a 01f2 92bb
000003e0: 1935 3739 740a 053b 0f1c 743c e750 2f3c
000003f0: 92cb 8b3b fb49 623b e738 383c 4193 ee3b

layers.6.bias f4 [64]
0.08449384 0.0643552 -0.080931164 -0.09647715 -9.5926225e-05 0.09339776 0.051748537 0.012172006
-0.0066189915 -0.06047621 -0.0742022 -0.07502953 -0.037587143 -0.0066927224 -0.057478677 0.055956252
0.04334215 0.0683325 -0.027042136 0.035893627 0.013355181 -0.021780826 0.06291885 -0.0018307939
0.048631527 0.09152094 -0.046358954 0.026352458 -0.06684767 0.03448742 -0.025741711 -0.041863024
-0.07570831 -0.09563805 0.038951136 0.061202817 -0.078366295 -0.07719598 0.08088053 0.026520856
0.032268412 -0.073280215 -0.019802913 0.011310436 0.099004336 -0.08085458 -0.017780088 -0.0055645853
0.007950917 0.0126554 -0.03448256 -0.05732702 0.074592404 0.06634051 0.09688065 0.036985673
-0.09842519 0.018738464 -0.04499922 -0.070846304 0.067479946 0.09164264 0.04430387 0.08507835
00000000: 1b0b ad3d a9cc 833d 3dbf a5bd d095 c5bd
00000010: 002c c9b8 5347 bf3d 46f6 533d 186d 473c
00000020: 20e4 d8bb e7b5 77bd 53f7 97bd 15a9 99bd
00000030: faf4 19bd a04e dbbb c36e 6bbd 6232 653d
00000040: 8a87 313d e9f1 8b3d 7887 ddbc 3205 133d
00000050: b0cf 5a3c b46d b2bc 99db 803d 40f7 efba
00000060: da31 473d 556f bb3d e3e2 3dbd 1ce1 d73c
00000070: 6ee7 88bd ae42 0d3d 48e0 d2bc 9078 2bbd
00000080: f50c 9bbd e2dd c3bd 3a8b 1f3d ceaf 7a3d
00000090: 827e a0bd ed18 9ebd b1a4 a53d 4442 d93c
000000a0: e22b 043d f013 96bd b839 a2bc 684f 393c
000000b0: c9c2 ca3d 1697 a5bd 8ca7 91bc 2057 b6bb
000000c0: 9044 023c 9858 4f3c 963d 0dbd bdcf 6abd
000000d0: e7c3 983d 89dd 873d 5d69 c63d 4a7e 173d
000000e0: 2593 c9bd 6881 993c 1a51 38bd de17 91bd
000000f0: ed32 8a3d 23af bb3d fa77 353d 8f3d ae3d

layers.8.weight f4 [64]
1.0 1.0 1.0 1.0 1.0 1.0 1.0 1.0
1.0 1.0 1.0 1.0 1.0 1.0 1.0 1.0
1.0 1.0 1.0 1.0 1.0 1.0 1.0 1.0
1.0 1.0 1.0 1.0 1.0 1.0 1.0 1.0
1.0 1.0 1.0 1.0 1.0 1.0 1.0 1.0
1.0 1.0 1.0 1.0 1.0 1.0 1.0 1.0
1.0 1.0 1.0 1.0 1.0 1.0 1.0 1.0
1.0 1.0 1.0 1.0 1.0 1.0 1.0 1.0
00000000: 0000 803f 0000 803f 0000 803f 0000 803f
00000010: 0000 803f 0000 803f 0000 803f 0000 803f
00000020: 0000 803f 0000 803f 0000 803f 0000 803f
00000030: 0000 803f 0000 803f 0000 803f 0000 803f
00000040: 0000 803f 0000 803f 0000 803f 0000 803f
00000050: 0000 803f 0000 803f 0000 803f 0000 803f
00000060: 0000 803f 0000 803f 0000 803f 0000 803f
00000070: 0000 803f 0000 803f 0000 803f 0000 803f
00000080: 0000 803f 0000 803f 0000 803f 0000 803f
00000090: 0000 803f 0000 803f 0000 803f 0000 803f
000000a0: 0000 803f 0000 803f 0000 803f 0000 803f
000000b0: 0000 803f 0000 803f 0000 803f 0000 803f
000000c0: 0000 803f 0000 803f 0000 803f 0000 803f
000000d0: 0000 803f 0000 803f 0000 803f 0000 803f
000000e0: 0000 803f 0000 803f 0000 803f 0000 803f
000000f0: 0000 803f 0000 803f 0000 803f 0000 803f

layers.8.bias f4 [64]
0.0 0.0 0.0 0.0 0.0 0.0 0.0 0.0
0.0 0.0 0.0 0.0 0.0 0.0 0.0 0.0
0.0 0.0 0.0 0.0 0.0 0.0 0.0 0.0
0.0 0.0 0.0 0.0 0.0 0.0 0.0 0.0
0.0 0.0 0.0 0.0 0.0 0.0 0.0 0.0
0.0 0.0 0.0 0.0 0.0 0.0 0.0 0.0
0.0 0.0 0.0 0.0 0.0 0.0 0.0 0.0
0.0 0.0 0.0 0.0 0.0 0.0 0.0 0.0
00000000: 0000 0000 0000 0000 0000 0000 0000 0000
00000010: 0000 0000 0000 0000 0000 0000 0000 0000
00000020: 0000 0000 0000 0000 0000 0000 0000 0000
00000030: 0000 0000 0000 0000 0000 0000 0000 0000
00000040: 0000 0000 0000 0000 0000 0000 0000 0000
00000050: 0000 0000 0000 0000 0000 0000 0000 0000
00000060: 0000 0000 0000 0000 0000 0000 0000 0000
00000070: 0000 0000 0000 0000 0000 0000 0000 0000
00000080: 0000 0000 0000 0000 0000 0000 0000 0000
00000090: 0000 0000 0000 0000 0000 0000 0000 0000
000000a0: 0000 0000 0000 0000 0000 0000 0000 0000
000000b0: 0000 0000 0000 0000 0000 0000 0000 0000
000000c0: 0000 0000 0000 0000 0000 0000 0000 0000
000000d0: 0000 0000 0000 0000 0000 0000 0000 0000
000000e0: 0000 0000 0000 0000 0000 0000 0000 0000
000000f0: 0000 0000 0000 0000 0000 0000 0000 0000

layers.8.running_mean f4 [64]
0.0 0.0 0.0 0.0 0.0 0.0 0.0 0.0
0.0 0.0 0.0 0.0 0.0 0.0 0.0 0.0
0.0 0.0 0.0 0.0 0.0 0.0 0.0 0.0
0.0 0.0 0.0 0.0 0.0 0.0 0.0 0.0
0.0 0.0 0.0 0.0 0.0 0.0 0.0 0.0
0.0 0.0 0.0 0.0 0.0 0.0 0.0 0.0
0.0 0.0 0.0 0.0 0.0 0.0 0.0 0.0
0.0 0.0 0.0 0.0 0.0 0.0 0.0 0.0
00000000: 0000 0000 0000 0000 0000 0000 0000 0000
00000010: 0000 0000 0000 0000 0000 0000 0000 0000
00000020: 0000 0000 0000 0000 0000 0000 0000 0000
00000030: 0000 0000 0000 0000 0000 0000 0000 0000
00000040: 0000 0000 0000 0000 0000 0000 0000 0000
00000050: 0000 0000 0000 0000 0000 0000 0000 0000
00000060: 0000 0000 0000 0000 0000 0000 0000 0000
00000070: 0000 0000 0000 0000 0000 0000 0000 0000
00000080: 0000 0000 0000 0000 0000 0000 0000 0000
00000090: 0000 0000 0000 0000 0000 0000 0000 0000
000000a0: 0000 0000 0000 0000 0000 0000 0000 0000
000000b0: 0000 0000 0000 0000 0000 0000 0000 0000
000000c0: 0000 0000 0000 0000 0000 0000 0000 0000
000000d0: 0000 0000 0000 0000 0000 0000 0000 0000
000000e0: 0000 0000 0000 0000 0000 0000 0000 0000
000000f0: 0000 0000 0000 0000 0000 0000 0000 0000

layers.8.running_var f4 [64]
1.0 1.0 1.0 1.0 1.0 1.0 1.0 1.0
1.0 1.0 1.0 1.0 1.0 1.0 1.0 1.0
1.0 1.0 1.0 1.0 1.0 1.0 1.0 1.0
1.0 1.0 1.0 1.0 1.0 1.0 1.0 1.0
1.0 1.0 1.0 1.0 1.0 1.0 1.0 1.0
1.0 1.0 1.0 1.0 1.0 1.0 1.0 1.0
1.0 1.0 1.0 1.0 1.0 1.0 1.0 1.0
1.0 1.0 1.0 1.0 1.0 1.0 1.0 1.0
00000000: 0000 803f 0000 803f 0000 803f 0000 803f
00000010: 0000 803f 0000 803f 0000 803f 0000 803f
00000020: 0000 803f 0000 803f 0000 803f 0000 803f
00000030: 0000 803f 0000 803f 0000 803f 0000 803f
00000040: 0000 803f 0000 803f 0000 803f 0000 803f
00000050: 0000 803f 0000 803f 0000 803f 0000 803f
00000060: 0000 803f 0000 803f 0000 803f 0000 803f
00000070: 0000 803f 0000 803f 0000 803f 0000 803f
00000080: 0000 803f 0000 803f 0000 803f 0000 803f
00000090: 0000 803f 0000 803f 0000 803f 0000 803f
000000a0: 0000 803f 0000 803f 0000 803f 0000 803f
000000b0: 0000 803f 0000 803f 0000 803f 0000 803f
000000c0: 0000 803f 0000 803f 0000 803f 0000 803f
000000d0: 0000 803f 0000 803f 0000 803f 0000 803f
000000e0: 0000 803f 0000 803f 0000 803f 0000 803f
000000f0: 0000 803f 0000 803f 0000 803f 0000 803f

out.weight f4 [187, 64]
0.081760794 0.06890945 0.041042313 0.071767405 -0.07364184 0.011085764 0.053202942 -0.114464805
0.012188837 -0.02164191 -0.10443638 0.052980468 -0.10148735 -0.03058049 0.026665166 -0.02031131
-0.05486341 -0.09209715 -0.049766913 0.10507342 0.056644723 -0.08395478 -0.026259497 -0.093540505
0.11527395 -0.019034117 -0.04017262 0.081363454 -0.08873977 -0.0739212 -0.09690213 -0.12236427
-0.061395317 -0.119083166 0.0008292198 -0.00013019145 -0.097339734 -0.035744548 -0.081695765 -0.023749322
-0.021270394 -0.014387175 0.104937285 0.08762616 0.0020847917 -0.044902727 0.068194956 0.05899389
0.026831925 0.04430288 0.02606839 -0.02125083 0.11799753 0.11379509 0.08605896 -0.037338838
0.012500346 0.09445436 -0.045699 -0.019833937 0.017114058 -0.027891472 -0.12439941 0.05431576
0.098685116 0.017134339 -0.042712957 -0.115726486 -0.08419791 0.009686112 0.019522145 -0.061708942
-0.0007277578 0.0007787943 0.09709707 0.0306281 -0.051464826 0.018137544 0.08184442 -0.12319076
-0.07641946 -0.04524052 -0.04816979 0.12306173 0.0044695735 0.011979669 -0.09453884 -0.008139566
0.10426356 -0.082418025 -0.08273585 0.007427871 -0.05076112 0.0020578355 0.024976924 0.09973997
0.017755017 -0.0061619133 -0.102401346 -0.042762816 0.078868344 0.021577075 0.10664435 0.0576739
0.11259198 0.030024737 -0.072439745 0.115801185 0.07547763 0.11914447 0.08357942 -0.11860338
-0.051455766 0.09681524 0.060308516 0.051298067 -0.03924589 0.11370127 0.0057863593 0.00442636
-0.09263161 0.10221313 0.08278969 -0.064447105 0.09219912 -0.12230392 -0.074767575 0.09449983
0.11827263 0.050754085 -0.08971842 0.11832619 0.12082401 -0.024949908 -0.086112574 -0.0234534
0.06694695 -0.08814487 -0.048474416 0.06807327 0.058158174 0.061403155 -0.12390773 0.012073353
0.12484375 -0.0059789717 -0.043466568 0.032747865 0.05259469 0.06045793 0.11880493 -0.081954226
-0.015879735 -0.017775819 0.035787165 0.09018646 0.02149275 0.07714175 0.09110449 -0.053949878
0.08599426 -0.05282612 -0.09133139 -0.08746822 0.033449933 -0.08168432 0.024850443 -0.0931249
0.12295219 -0.030878663 0.08945736 -0.09555675 0.06771347 0.045002118 -0.076692745 0.028913528
0.08932924 -0.032131284 -0.033831134 -0.061724782 -0.120991126 0.09111908 0.020494238 0.04956287
0.03523165 0.11972919 0.02342838 0.044645265 -0.025560737 0.12393549 0.06685242 0.090184644
0.08103827 0.07470949 0.1148143 0.09670597 -0.023233756 -0.04925932 0.085884824 0.08252323
-0.07571128 0.079654664 -0.10284126 0.05282204 0.020077914 0.05227761 0.083343655 -0.07074912
-0.07005128 0.01945825 0.10050364 -0.11275099 -0.0074637234 -0.013794199 -0.057849318 0.09047182
0.08073141 -0.099838495 -0.10127585 0.061837196 -0.08781083 -0.11350478 0.115088046 -0.038599655
-0.10702129 0.05253391 0.11110221 0.05432667 0.08041215 0.052196264 -0.087697685 -0.064115465
-0.037190765 0.03071326 -0.100659534 0.054518282 -0.124256626 -0.009230629 0.025191844 -0.009689435
0.123102635 0.07844266 -0.1023618 -0.0216178 0.111258656 -0.11392151 -0.11618629 0.07667369
0.051310405 0.057106003 0.10299282 -0.122972384 0.07293622 -0.09872401 0.02575396 -0.08111444
00000000: 3472 a73d 6620 8d3d fc1b 283d cafa 923d
00000010: 88d1 96bd 10a1 353c 54eb 593d 866c eabd
00000020: b0b3 473c 604a b1bc bee2 d5bd 0c02 593d
00000030: 9ad8 cfbd f083 fabc e870 da3c e863 a6bc
00000040: 74b8 60bd 6e9d bcbd 64d8 4bbd bc30 d73d
00000050: 4c04 683d 7cf0 abbd 281e d7bc 2a92 bfbd
00000060: c014 ec3d 70ed 9bbc 0c8c 24bd e2a1 a63d
00000070: 32bd b5bd 0064 97bd a074 c6bd 1e9a fabd
00000080: a879 7bbd e0e1 f3bd 0060 593a 0084 08b9
00000090: 0e5a c7bd e068 12bd 1c50 a7bd f08d c2bc
000000a0: 403f aebc 30b8 6bbc 5ce9 d63d 5875 b33d
000000b0: 00a1 083b eceb 37bd cca9 8b3d 94a3 713d
000000c0: a0ce db3c f076 353d 608d d53c 3816 aebc
000000d0: b0a8 f13d 660d e93d ae3f b03d 9cf0 18bd
000000e0: 40ce 4c3c 4a71 c13d e02e 3bbd c87a a2bc
000000f0: c832 8c3c a87c e4bc 1ec5 febd 347a 5e3d
00000100: 6c1b ca3d 505d 8c3c c8f3 2ebd 0202 edbd
00000110: f46f acbd 80b2 1e3c e8ec 9f3c 84c2 7cbd
00000120: 00c7 3eba 0028 4c3a d4da c63d c8e7 fa3c
00000130: c8cc 52bd 3095 943c 0c9e a73d 704b fcbd
00000140: ce81 9cbd 204e 39bd b04d 45bd ca07 fc3d
00000150: 8075 923b 6046 443c 949d c1bd d05b 05bc
00000160: 2288 d53d c8ca a8bd 6a71 a9bd 8065 f33b
00000170: e4ea 4fbd c0dc 063b 689c cc3c 7844 cc3d
00000180: f872 913c e0e9 c9bb ccb7 d1bd 1028 2fbd
00000190: ba85 a13d 68c2 b03c 5a68 da3d 783b 6c3d
000001a0: a096 e63d 70f6 f53c 4a5b 94bd 2c29 ed3d
000001b0: 0494 9a3d 0402 f43d b02b ab3d 54e6 f2bd
000001c0: 48c3 52bd 1247 c63d 1006 773d ec1d 523d
000001d0: 4cc0 20bd 36dc e83d 809b bd3b 000b 913b
000001e0: a4b5 bdbd 1e55 d13d a48d a93d d8fc 83bd
000001f0: e4d2 bc3d 7a7a fabd be1f 99bd 2089 c13d
00000200: ec38 f23d 84e3 4f3d 4abe b7bd 0055 f23d
00000210: 9472 f73d c063 ccbc ca5b b0bd 5821 c0bc
00000220: 7c1b 893d 4c85 b4bd 1c8d 46bd 006a 8b3d
00000230: 4437 6e3d e081 7b3d 56c3 fdbd 50cf 453c
00000240: 14ae ff3d 40eb c3bb 000a 32bd a022 063d
00000250: 886d 573d bca2 773d 0050 f33d 9ed7 a7bd
00000260: 3816 82bc 989e 91bc 9095 123d aeb3 b83d
00000270: 9011 b03c 7efc 9d3d fe94 ba3d 8cfa 5cbd
00000280: c21d b03d 3460 58bd f40b bbbd 8a22 b3bd
00000290: cc02 093d 1c4a a7bd 2893 cb3c 44b8 bebd
000002a0: 5cce fb3d 40f5 fcbc 6c35 b73d 42b3 c3bd
000002b0: 5cad 8a3d 2454 383d 1611 9dbd 10dc ec3c
000002c0: 40f2 b63d 189c 03bd 8492 0abd 20d3 7cbd
000002d0: 32ca f7bd a49c ba3d 88e3 a73c 7002 4b3d
000002e0: 104f 103d 9434 f53d e0ec bf3c f4dd 363d
000002f0: c064 d1bc e4d1 fd3d ece9 883d bab2 b83d
00000300: 64f7 a53d 4a01 993d c223 eb3d c80d c63d
00000310: b854 bebc 24c4 49bd 62e4 af3d f001 a93d
00000320: 840e 9bbd fc21 a33d 709e d2bd ec5b 583d
00000330: 707a a43c 0c21 563d 14b0 aa3d eae4 90bd
00000340: 0c77 8fbd e866 9f3c dad4 cd3d fee9 e6bd
00000350: 4092 f4bb 1001 62bc 68f3 6cbd 4a49 b93d
00000360: 8256 a53d 2078 ccbd b669 cfbd 0049 7d3d
00000370: 2ad6 b3bd 3275 e8bd 48b3 eb3d ac1a 1ebd
00000380: fa2d dbbd cc2d 573d 8e89 e33d a485 5e3d
00000390: 20af a43d c0cb 553d d89a b3bd f84e 83bd
000003a0: 5855 18bd 609a fb3c 9626 cebd 904e 5f3d
000003b0: 427a febd 103c 17bc 205f ce3c 70c0 1ebc
000003c0: 3c1d fc3d 8ca6 a03d 10a3 d1bd d017 b1bc
000003d0: 94db e33d ae4f e9bd 14f3 edbd 1807 9d3d
000003e0: dc2a 523d fce7 693d e6ed d23d f2d8 fbbd
000003f0: 965f 953d d02f cabd f8f9 d23c 541f a6bd
