model_params/train_ddpg_1606028850_15_actor.pth (torch, 158207 bytes, 16 tensors)

layers.0.weight f4 [128, 2]
00000000: 4723 a8bb 65f4 ebbb 41cc d13a aecb c2ba
00000010: ef8c 043b 9896 28bc 8f4a 1abc 5f8f 9b3a
00000020: f3b5 473c 374d a43c 64bf a23c 8eb3 4dbc
00000030: d59a 883c c1fe 6bba a743 fdba 9ed0 6a3c
00000040: 7259 a53c 0994 1a3b 23d3 823a 4c0b cfb9
00000050: 139e aebb 98d9 8cbc ebb8 fd3a 84a4 523c
00000060: 3622 96b9 a02d 8bbb f50b beb9 47c7 30bc
00000070: be91 7abc 9f65 013c 2dff ac3a 45c3 00bc
00000080: 22f4 b5ba d374 8b3c cd6f 36b9 96ec 28ba
00000090: 2a86 a43b 9daa c63c dc80 ac3a db0e 393c
000000a0: c214 afbc 57b1 bdbb 7233 0a3c f00e 423c
000000b0: 3b40 693c 84e5 12b8 2f22 bf3c 8bfc 8c3c
000000c0: 8b8d a53a e565 b43c 6e05 93bc 2bab 073c
000000d0: 90d9 63b9 c19f 7dbc 38f8 0c38 8943 6abb
000000e0: 0420 ad3b e197 46ba a987 82bb ee6a 3cbc
000000f0: 13d4 833c ed4a acbc 5b5b 1abb b43e db3c
00000100: 65db fabb 9dac e53a ee69 38bc 8434 9fba
00000110: 4aed 13bc 6bce 19bc 3c11 363c 8c2c 20bb
00000120: de87 e73b 3de2 c0bb 1953 963a bb82 0fbd
00000130: 90c6 8e3c f5dc 39bc 2a21 f2ba 9361 303c
00000140: 14dd e2bb 0162 873c 5bf8 733c 384d 723b
00000150: 8e8b dc3b f477 c53a eedf 27bb 6f60 01bc
00000160: 150e dabb ee11 0bbc 0cf0 7bbc d70f 7e3c
00000170: cf01 c7bb 2d27 203c aad0 0dbc 7731 443b
00000180: 19a2 1abc 947e 0a3c d423 92bb 4080 8039
00000190: 7220 963c e4f4 42bb 2a5e 3ebc 5c46 4d3b
000001a0: 5372 dabb a6e9 15bc 1481 22bc 7d3b be3b
000001b0: cb73 f8bb 59fb 1f3c e9a6 86bc 8339 84ba
000001c0: 1b4c 9bbb 3874 84bc 20ae 0f3c 5eb4 f9bb
000001d0: 846b 4cbb c0f6 8f3c 6cf8 693b a31e 7a3b
000001e0: 895c 983a 3c10 2bbb b697 93bc 1903 2bbc
000001f0: f47a 753c fad4 10bc 5dce f33b 8b72 313c
00000200: 9da0 693c 4c13 923c 6463 213b 948c 8c3b
00000210: 37e0 ae3a 26d4 7cbc 406a abba 7525 3c3b
00000220: 9ccd bfbb 8a4a d73b a2c5 463c 39a3 48bb
00000230: cf68 0c3c 18c6 a2bb 8c9f db3b aabf 64bb
00000240: 491c 503b 727e 4e3c 8e86 99bb f8ce e33b
00000250: b4ad d83b 146a 82bb 7460 6dbc 05c4 edbb
00000260: 896d a5bc abf0 723b f8e4 973b c9da 68bc
00000270: a109 673c cca5 03bb 1ed3 63bc 520d 653c
00000280: 9ce4 213a d036 843b b29d bcbb 0908 a03c
00000290: f762 6b3c 323d 553c 30f5 4cbb 4dba 0dbc
000002a0: 214d 4d3b 57e6 563c 01b9 67bc 4e7f 8d3c
000002b0: d0f3 133c 29cd d1bb ce12 5b3b 8940 35bc
000002c0: c98d 283b 8aa1 0dbb 6073 a5ba 60cf cc3b
000002d0: a286 883b 878f f43b 642a e2bb 511e 1dbc
000002e0: d709 8c3b f551 bf3b 0b8d c6bb 23ce eabb
000002f0: 6f4c 7bbb c447 8aba 4110 73bb 2e9c 0cbc
00000300: afe4 3c3c eb36 72bb 989f 973c e3a5 0bbc
00000310: 55b2 4c3b a80d 19bc 5d59 afbb 5d08 fabb
00000320: f2a1 d5bb 58e3 0a3a 578b 25bb d078 0a3b
00000330: 781c b5b9 bc10 01bc 1dbc 80bc 65b9 c43b
00000340: 0020 4abc 909c 503c 3d6d febb 3d15 07bc
00000350: 8921 f2bb 41af 0ebc 66c1 1e3c c6f0 38b9
00000360: 850e 96bc 7d4a 64ba ea51 e33b a0fa 6bbb
00000370: 24c9 123c 6dd0 48bb 7426 36bc d060 af3a
00000380: 8cb6 013c 6064 7a3a 2790 063c 02a5 f2bb
00000390: 6526 bb3c 0290 dc3b 37eb e83b d994 c0bb
000003a0: eb2c 7c3c e67b 023b 7386 86ba 3530 973a
000003b0: 524a 753c 1024 4bba 0935 a0bb 796e ffbb
000003c0: 6583 4ebc 75b6 4c3c 7ef0 2cbc e40d 05bc
000003d0: 620b a1bc 64c4 1fbb 4401 3d3c 7042 78ba
000003e0: fc3a 6fbc 0767 c83b 860d 82bb 663a babb
000003f0: e048 d1bb d320 533b aa12 523b f805 b2bb
-0.0051311585 -0.007200765 0.0016006307 -0.0014861727 0.0020225605 -0.010289811 -0.00941719 0.001186829
0.012189376 0.02005635 0.019866653 -0.012555016 0.016675392 -0.00090025 -0.001932253 0.014331965
0.020184252 0.002358677 0.0009981137 -0.00039490534 -0.0053289025 -0.0171936 0.0019357478 0.012856606
-0.0002863572 -0.0042473823 -0.00036248533 -0.010789699 -0.015293537 0.0078977635 0.0013198607 -0.007859056
-0.0013881961 0.01702348 -0.00017398522 -0.00064439455 0.0050208764 0.024251277 0.0013160962 0.011295046
-0.021372203 -0.005788963 0.008435117 0.011844382 0.014236505 -3.5022866e-05 0.02333173 0.017210266
0.0012630684 0.022021243 -0.017946925 0.008280556 -0.00021729455 -0.015479983 3.3609773e-05 -0.003574582
0.0052833576 -0.00075757323 -0.003983457 -0.011500103 0.016092336 -0.021031821 -0.0023552987 0.026763298
-0.0076555484 0.0017522756 -0.011255724 -0.0012146388 -0.009028742 -0.009387593 0.011112507 -0.0024440615
0.007065757 -0.0058863447 0.0011468857 -0.035036784 0.017428666 -0.011344184 -0.0018473018 0.010765451
-0.006923327 0.016526224 0.0148907555 0.0036972295 0.0067305034 0.0015065656 -0.002561565 -0.007896527
-0.0066545107 -0.0084881615 -0.015377056 0.015506706 -0.0060732136 0.009774965 -0.008655706 0.002993671
-0.009438061 0.00845303 -0.0044598375 0.00024509616 0.018326018 -0.0029748017 -0.01161913 0.0031322455
-0.0066664605 -0.009149944 -0.00991847 0.0058054314 -0.007582163 0.009764516 -0.01643701 -0.0010087941
-0.004739297 -0.016168699 0.008769542 -0.0076203784 -0.0031192014 0.017573714 0.003570105 0.0038165234
0.0011624257 -0.0026102206 -0.018016677 -0.01043775 0.014982928 -0.00883984 0.007440372 0.010830532
0.014259485 0.017831467 0.0024625892 0.004289219 0.0013341968 -0.0154314395 -0.001307793 0.002870885
-0.005853368 0.006570165 0.01213208 -0.0030614866 0.00856991 -0.0049674623 0.006702369 -0.003490428
0.003175514 0.012603389 -0.0046852296 0.006952163 0.006612504 -0.0039799307 -0.014488328 -0.0072560334
-0.020193832 0.0037069719 0.0046354495 -0.014212319 0.014101417 -0.0020087836 -0.013905315 0.013980227
0.0006175728 0.0040348545 -0.0057561034 0.019535081 0.014366857 0.013015078 -0.0031274073 -0.008650375
0.003132649 0.013116441 -0.014143229 0.017272618 0.009030297 -0.006402631 0.0033427957 -0.01106275
0.0025719276 -0.0021611177 -0.0012622885 0.006250307 0.00416644 0.007463399 -0.006902026 -0.0095897475
0.004273634 0.0058386275 -0.006059294 -0.0071656867 -0.0038345119 -0.0010549952 -0.0037088546 -0.008582158
0.011529132 -0.0036959003 0.018508717 -0.008523437 0.0031234224 -0.009341635 -0.005351229 -0.0076303915
-0.0065195495 0.0005298159 -0.0025260055 0.0021129139 -0.0003454422 -0.007877525 -0.0157147 0.006003546
-0.012336731 0.01273264 -0.007764487 -0.00824481 -0.0073892516 -0.008708776 0.0096896645 -0.00017637303
-0.01831747 -0.00087086094 0.006937255 -0.0036007538 0.0089590885 -0.003064181 -0.011117566 0.0013380293
0.007917058 0.00095517 0.00821308 -0.0074049244 0.022845456 0.0067310343 0.007108118 -0.005877119
0.015391569 0.0019910275 -0.0010263458 0.0011534753 0.014971333 -0.0007749209 -0.004889135 -0.007795152
-0.012604569 0.012494673 -0.010555385 -0.008120988 -0.019658748 -0.0024378533 0.011535946 -0.0009470349
-0.014601465 0.0061157974 -0.0039688973 -0.005683231 -0.006386861 0.003221561 0.0032054582 -0.0054328404

layers.0.bias f4 [128]
00000000: c009 acbc e3c2 a53d 1382 c53d c08b 123b
00000010: 765e 2d3d b4c0 e93c 408f 38bd a008 f1bb
00000020: 8045 afba 278d 22bd e199 863d 7df2 96bd
00000030: a5b2 a33d ae48 363d 6099 15bb 8014 eb3b
00000040: de75 423d f216 383d b86a c53c 9d0c a2bd
00000050: c12e 943d a61c 8ebd 88b8 cb3c 202d 933b
00000060: cf31 a13d 625d a1bd e031 85bd 209a c23c
00000070: 20a9 cbbc 5fd5 b5bd 60da f1bc 97ef 74bd
00000080: 1d73 5fbd e0cc fbbb 2368 cabd 408e 9bbc
00000090: b6b2 013d 2422 f53c f3f8 af3d ebe7 94bd
000000a0: 511b 853d b850 d3bc 4099 27bb 1476 18bd
000000b0: 2d93 bdbd 47a6 9c3d 2c5a 80bc d4d7 11bd
000000c0: 46c9 2b3d f36a 30bd 001e a1bc c02e 7fbc
000000d0: 7abc 793d c160 833d 0063 27ba 2936 aa3d
000000e0: d0a3 693c 72d4 353d 22bf 013d b8d1 c9bd
000000f0: 2174 9e3d 2b84 a33d cb40 c8bd 82b1 0b3d
00000100: 9be8 b13d 9722 25bd 6d53 8d3d 4149 8c3d
00000110: 2782 cbbd 288c 4ebc f517 9a3d fb14 b6bd
00000120: de70 453d b726 72bd 60fd 2b3b 00da f5bb
00000130: e21a 84bd 0d8d b9bd b018 5ebc 4999 aa3d
00000140: 57e6 51bd 6317 a2bd b687 733d 705f 243c
00000150: f2b8 203d 8d9b afbd b00f 59bd 7804 983c
00000160: aac7 603d d3a8 78bd 62b4 4f3d d437 f83c
00000170: 600d 9a3b 20a6 42bd 80c3 b2bc 08f1 b43c
00000180: acc1 13bd 7ba4 ae3d 105a 34bd 2d1c 67bd
00000190: 7461 d5bc 68c9 60bc 6ac6 7d3d 01db c83d
000001a0: 6063 6fbb 2cf4 cfbc 0237 7a3d ca88 1fbd
000001b0: be7d 4b3d e0df f0bc b58e 88bd d97f 8c3d
000001c0: 6cba ac3c bb11 c5bd 80b5 c7bc cd74 9e3d
000001d0: 3dc5 94bd dd72 c9bd a27e 303d 827e 93bd
000001e0: e8c2 e8bc 7750 813d 007b 51bc 5c3a e03c
000001f0: 4028 453c 259d cabd c7f7 b83d 3aa8 87bd
-0.021000743 0.08093812 0.0964395 0.002236113 0.042326413 0.02853427 -0.04505849 -0.0073557645
-0.0013372153 -0.039685395 0.06572319 -0.0737047 0.07993058 0.044502907 -0.0022827014 0.0071740746
0.04747569 0.044943757 0.024098739 -0.07912562 0.0723548 -0.06939058 0.024868265 0.0044914633
0.07870828 -0.078791395 -0.065036535 0.023755133 -0.024860919 -0.08878588 -0.029523075 -0.059798803
-0.05455314 -0.007684335 -0.09883144 -0.018988729 0.031664573 0.029923506 0.08592405 -0.07270797
0.06499351 -0.025795326 -0.0025573522 -0.037221983 -0.09256587 0.076489024 -0.015667997 -0.03560622
0.041939996 -0.043070745 -0.019667625 -0.015575111 0.06097076 0.06414939 -0.00063852966 0.083111115
0.014260247 0.044392057 0.03167642 -0.09854454 0.077369936 0.079841934 -0.09777983 0.03410483
0.08686944 -0.04031619 0.06900678 0.068499096 -0.09936934 -0.012606658 0.07524101 -0.088907205
0.04820334 -0.059118953 0.0026243553 -0.0075027943 -0.0645044 -0.090601064 -0.013555691 0.08330018
-0.05124506 -0.07914617 0.059455596 0.01003252 0.039238878 -0.08574591 -0.052993476 0.018556818
0.054877914 -0.06070788 0.050709136 0.030300058 0.0047013015 -0.04752171 -0.021821737 0.022087589
-0.03607337 0.08527466 -0.044031203 -0.056423355 -0.026047446 -0.013719894 0.0619568 0.09807397
-0.0036527738 -0.025384985 0.061087616 -0.03894881 0.049680464 -0.029403627 -0.06667844 0.068603225
0.021084987 -0.096225224 -0.024378538 0.07737122 -0.07264183 -0.098363616 0.043089516 -0.07201864
-0.028413251 0.063141756 -0.012785673 0.027371578 0.012033522 -0.09893254 0.09031635 -0.066238835

layers.2.weight f4 [128]
00000000: 0000 803f 0000 803f 0000 803f 0000 803f
00000010: 0000 803f 0000 803f 0000 803f 0000 803f
00000020: 0000 803f 0000 803f 0000 803f 0000 803f
00000030: 0000 803f 0000 803f 0000 803f 0000 803f
00000040: 0000 803f 0000 803f 0000 803f 0000 803f
00000050: 0000 803f 0000 803f 0000 803f 0000 803f
00000060: 0000 803f 0000 803f 0000 803f 0000 803f
00000070: 0000 803f 0000 803f 0000 803f 0000 803f
00000080: 0000 803f 0000 803f 0000 803f 0000 803f
00000090: 0000 803f 0000 803f 0000 803f 0000 803f
000000a0: 0000 803f 0000 803f 0000 803f 0000 803f
000000b0: 0000 803f 0000 803f 0000 803f 0000 803f
000000c0: 0000 803f 0000 803f 0000 803f 0000 803f
000000d0: 0000 803f 0000 803f 0000 803f 0000 803f
000000e0: 0000 803f 0000 803f 0000 803f 0000 803f
000000f0: 0000 803f 0000 803f 0000 803f 0000 803f
00000100: 0000 803f 0000 803f 0000 803f 0000 803f
00000110: 0000 803f 0000 803f 0000 803f 0000 803f
00000120: 0000 803f 0000 803f 0000 803f 0000 803f
00000130: 0000 803f 0000 803f 0000 803f 0000 803f
00000140: 0000 803f 0000 803f 0000 803f 0000 803f
00000150: 0000 803f 0000 803f 0000 803f 0000 803f
00000160: 0000 803f 0000 803f 0000 803f 0000 803f
00000170: 0000 803f 0000 803f 0000 803f 0000 803f
00000180: 0000 803f 0000 803f 0000 803f 0000 803f
00000190: 0000 803f 0000 803f 0000 803f 0000 803f
000001a0: 0000 803f 0000 803f 0000 803f 0000 803f
000001b0: 0000 803f 0000 803f 0000 803f 0000 803f
000001c0: 0000 803f 0000 803f 0000 803f 0000 803f
000001d0: 0000 803f 0000 803f 0000 803f 0000 803f
000001e0: 0000 803f 0000 803f 0000 803f 0000 803f
000001f0: 0000 803f 0000 803f 0000 803f 0000 803f
1.0 1.0 1.0 1.0 1.0 1.0 1.0 1.0
1.0 1.0 1.0 1.0 1.0 1.0 1.0 1.0
1.0 1.0 1.0 1.0 1.0 1.0 1.0 1.0
1.0 1.0 1.0 1.0 1.0 1.0 1.0 1.0
1.0 1.0 1.0 1.0 1.0 1.0 1.0 1.0
1.0 1.0 1.0 1.0 1.0 1.0 1.0 1.0
1.0 1.0 1.0 1.0 1.0 1.0 1.0 1.0
1.0 1.0 1.0 1.0 1.0 1.0 1.0 1.0
1.0 1.0 1.0 1.0 1.0 1.0 1.0 1.0
1.0 1.0 1.0 1.0 1.0 1.0 1.0 1.0
1.0 1.0 1.0 1.0 1.0 1.0 1.0 1.0
1.0 1.0 1.0 1.0 1.0 1.0 1.0 1.0
1.0 1.0 1.0 1.0 1.0 1.0 1.0 1.0
1.0 1.0 1.0 1.0 1.0 1.0 1.0 1.0
1.0 1.0 1.0 1.0 1.0 1.0 1.0 1.0
1.0 1.0 1.0 1.0 1.0 1.0 1.0 1.0

layers.2.bias f4 [128]
00000000: 0000 0000 0000 0000 0000 0000 0000 0000
00000010: 0000 0000 0000 0000 0000 0000 0000 0000
00000020: 0000 0000 0000 0000 0000 0000 0000 0000
00000030: 0000 0000 0000 0000 0000 0000 0000 0000
00000040: 0000 0000 0000 0000 0000 0000 0000 0000
00000050: 0000 0000 0000 0000 0000 0000 0000 0000
00000060: 0000 0000 0000 0000 0000 0000 0000 0000
00000070: 0000 0000 0000 0000 0000 0000 0000 0000
00000080: 0000 0000 0000 0000 0000 0000 0000 0000
00000090: 0000 0000 0000 0000 0000 0000 0000 0000
000000a0: 0000 0000 0000 0000 0000 0000 0000 0000
000000b0: 0000 0000 0000 0000 0000 0000 0000 0000
000000c0: 0000 0000 0000 0000 0000 0000 0000 0000
000000d0: 0000 0000 0000 0000 0000 0000 0000 0000
000000e0: 0000 0000 0000 0000 0000 0000 0000 0000
000000f0: 0000 0000 0000 0000 0000 0000 0000 0000
00000100: 0000 0000 0000 0000 0000 0000 0000 0000
00000110: 0000 0000 0000 0000 0000 0000 0000 0000
00000120: 0000 0000 0000 0000 0000 0000 0000 0000
00000130: 0000 0000 0000 0000 0000 0000 0000 0000
00000140: 0000 0000 0000 0000 0000 0000 0000 0000
00000150: 0000 0000 0000 0000 0000 0000 0000 0000
00000160: 0000 0000 0000 0000 0000 0000 0000 0000
00000170: 0000 0000 0000 0000 0000 0000 0000 0000
00000180: 0000 0000 0000 0000 0000 0000 0000 0000
00000190: 0000 0000 0000 0000 0000 0000 0000 0000
000001a0: 0000 0000 0000 0000 0000 0000 0000 0000
000001b0: 0000 0000 0000 0000 0000 0000 0000 0000
000001c0: 0000 0000 0000 0000 0000 0000 0000 0000
000001d0: 0000 0000 0000 0000 0000 0000 0000 0000
000001e0: 0000 0000 0000 0000 0000 0000 0000 0000
000001f0: 0000 0000 0000 0000 0000 0000 0000 0000
0.0 0.0 0.0 0.0 0.0 0.0 0.0 0.0
0.0 0.0 0.0 0.0 0.0 0.0 0.0 0.0
0.0 0.0 0.0 0.0 0.0 0.0 0.0 0.0
0.0 0.0 0.0 0.0 0.0 0.0 0.0 0.0
0.0 0.0 0.0 0.0 0.0 0.0 0.0 0.0
0.0 0.0 0.0 0.0 0.0 0.0 0.0 0.0
0.0 0.0 0.0 0.0 0.0 0.0 0.0 0.0
0.0 0.0 0.0 0.0 0.0 0.0 0.0 0.0
0.0 0.0 0.0 0.0 0.0 0.0 0.0 0.0
0.0 0.0 0.0 0.0 0.0 0.0 0.0 0.0
0.0 0.0 0.0 0.0 0.0 0.0 0.0 0.0
0.0 0.0 0.0 0.0 0.0 0.0 0.0 0.0
0.0 0.0 0.0 0.0 0.0 0.0 0.0 0.0
0.0 0.0 0.0 0.0 0.0 0.0 0.0 0.0
0.0 0.0 0.0 0.0 0.0 0.0 0.0 0.0
0.0 0.0 0.0 0.0 0.0 0.0 0.0 0.0

layers.2.running_mean f4 [128]
00000000: 0000 0000 0000 0000 0000 0000 0000 0000
00000010: 0000 0000 0000 0000 0000 0000 0000 0000
00000020: 0000 0000 0000 0000 0000 0000 0000 0000
00000030: 0000 0000 0000 0000 0000 0000 0000 0000
00000040: 0000 0000 0000 0000 0000 0000 0000 0000
00000050: 0000 0000 0000 0000 0000 0000 0000 0000
00000060: 0000 0000 0000 0000 0000 0000 0000 0000
00000070: 0000 0000 0000 0000 0000 0000 0000 0000
00000080: 0000 0000 0000 0000 0000 0000 0000 0000
00000090: 0000 0000 0000 0000 0000 0000 0000 0000
000000a0: 0000 0000 0000 0000 0000 0000 0000 0000
000000b0: 0000 0000 0000 0000 0000 0000 0000 0000
000000c0: 0000 0000 0000 0000 0000 0000 0000 0000
000000d0: 0000 0000 0000 0000 0000 0000 0000 0000
000000e0: 0000 0000 0000 0000 0000 0000 0000 0000
000000f0: 0000 0000 0000 0000 0000 0000 0000 0000
00000100: 0000 0000 0000 0000 0000 0000 0000 0000
00000110: 0000 0000 0000 0000 0000 0000 0000 0000
00000120: 0000 0000 0000 0000 0000 0000 0000 0000
00000130: 0000 0000 0000 0000 0000 0000 0000 0000
00000140: 0000 0000 0000 0000 0000 0000 0000 0000
00000150: 0000 0000 0000 0000 0000 0000 0000 0000
00000160: 0000 0000 0000 0000 0000 0000 0000 0000
00000170: 0000 0000 0000 0000 0000 0000 0000 0000
00000180: 0000 0000 0000 0000 0000 0000 0000 0000
00000190: 0000 0000 0000 0000 0000 0000 0000 0000
000001a0: 0000 0000 0000 0000 0000 0000 0000 0000
000001b0: 0000 0000 0000 0000 0000 0000 0000 0000
000001c0: 0000 0000 0000 0000 0000 0000 0000 0000
000001d0: 0000 0000 0000 0000 0000 0000 0000 0000
000001e0: 0000 0000 0000 0000 0000 0000 0000 0000
000001f0: 0000 0000 0000 0000 0000 0000 0000 0000
0.0 0.0 0.0 0.0 0.0 0.0 0.0 0.0
0.0 0.0 0.0 0.0 0.0 0.0 0.0 0.0
0.0 0.0 0.0 0.0 0.0 0.0 0.0 0.0
0.0 0.0 0.0 0.0 0.0 0.0 0.0 0.0
0.0 0.0 0.0 0.0 0.0 0.0 0.0 0.0
0.0 0.0 0.0 0.0 0.0 0.0 0.0 0.0
0.0 0.0 0.0 0.0 0.0 0.0 0.0 0.0
0.0 0.0 0.0 0.0 0.0 0.0 0.0 0.0
0.0 0.0 0.0 0.0 0.0 0.0 0.0 0.0
0.0 0.0 0.0 0.0 0.0 0.0 0.0 0.0
0.0 0.0 0.0 0.0 0.0 0.0 0.0 0.0
0.0 0.0 0.0 0.0 0.0 0.0 0.0 0.0
0.0 0.0 0.0 0.0 0.0 0.0 0.0 0.0
0.0 0.0 0.0 0.0 0.0 0.0 0.0 0.0
0.0 0.0 0.0 0.0 0.0 0.0 0.0 0.0
0.0 0.0 0.0 0.0 0.0 0.0 0.0 0.0

layers.2.running_var f4 [128]
00000000: 0000 803f 0000 803f 0000 803f 0000 803f
00000010: 0000 803f 0000 803f 0000 803f 0000 803f
00000020: 0000 803f 0000 803f 0000 803f 0000 803f
00000030: 0000 803f 0000 803f 0000 803f 0000 803f
00000040: 0000 803f 0000 803f 0000 803f 0000 803f
00000050: 0000 803f 0000 803f 0000 803f 0000 803f
00000060: 0000 803f 0000 803f 0000 803f 0000 803f
00000070: 0000 803f 0000 803f 0000 803f 0000 803f
00000080: 0000 803f 0000 803f 0000 803f 0000 803f
00000090: 0000 803f 0000 803f 0000 803f 0000 803f
000000a0: 0000 803f 0000 803f 0000 803f 0000 803f
000000b0: 0000 803f 0000 803f 0000 803f 0000 803f
000000c0: 0000 803f 0000 803f 0000 803f 0000 803f
000000d0: 0000 803f 0000 803f 0000 803f 0000 803f
000000e0: 0000 803f 0000 803f 0000 803f 0000 803f
000000f0: 0000 803f 0000 803f 0000 803f 0000 803f
00000100: 0000 803f 0000 803f 0000 803f 0000 803f
00000110: 0000 803f 0000 803f 0000 803f 0000 803f
00000120: 0000 803f 0000 803f 0000 803f 0000 803f
00000130: 0000 803f 0000 803f 0000 803f 0000 803f
00000140: 0000 803f 0000 803f 0000 803f 0000 803f
00000150: 0000 803f 0000 803f 0000 803f 0000 803f
00000160: 0000 803f 0000 803f 0000 803f 0000 803f
00000170: 0000 803f 0000 803f 0000 803f 0000 803f
00000180: 0000 803f 0000 803f 0000 803f 0000 803f
00000190: 0000 803f 0000 803f 0000 803f 0000 803f
000001a0: 0000 803f 0000 803f 0000 803f 0000 803f
000001b0: 0000 803f 0000 803f 0000 803f 0000 803f
000001c0: 0000 803f 0000 803f 0000 803f 0000 803f
000001d0: 0000 803f 0000 803f 0000 803f 0000 803f
000001e0: 0000 803f 0000 803f 0000 803f 0000 803f
000001f0: 0000 803f 0000 803f 0000 803f 0000 803f
1.0 1.0 1.0 1.0 1.0 1.0 1.0 1.0
1.0 1.0 1.0 1.0 1.0 1.0 1.0 1.0
1.0 1.0 1.0 1.0 1.0 1.0 1.0 1.0
1.0 1.0 1.0 1.0 1.0 1.0 1.0 1.0
1.0 1.0 1.0 1.0 1.0 1.0 1.0 1.0
1.0 1.0 1.0 1.0 1.0 1.0 1.0 1.0
1.0 1.0 1.0 1.0 1.0 1.0 1.0 1.0
1.0 1.0 1.0 1.0 1.0 1.0 1.0 1.0
1.0 1.0 1.0 1.0 1.0 1.0 1.0 1.0
1.0 1.0 1.0 1.0 1.0 1.0 1.0 1.0
1.0 1.0 1.0 1.0 1.0 1.0 1.0 1.0
1.0 1.0 1.0 1.0 1.0 1.0 1.0 1.0
1.0 1.0 1.0 1.0 1.0 1.0 1.0 1.0
1.0 1.0 1.0 1.0 1.0 1.0 1.0 1.0
1.0 1.0 1.0 1.0 1.0 1.0 1.0 1.0
1.0 1.0 1.0 1.0 1.0 1.0 1.0 1.0

layers.3.weight f4 [128, 128]
00000000: 3d1b 6a3c e767 25bc 9222 dabc 642d b53b
00000010: 603a 0f3a c734 9dbc 5546 f4bb 01b1 053c
00000020: 1eb8 ad39 d792 7f3c 85ea 463b b73f a4bb
00000030: 9d9e 0fbb 5442 2c3c 8027 bf3b 785d aebb
00000040: b850 5d3a 8764 673c c5e3 1f3c 9d25 173c
00000050: 8dbc a2bb eed7 e3bb e579 053a b992 b6bc
00000060: d47a 30ba 6ef5 693b d449 18bb 984b 96bb
00000070: 5922 9e3c 7316 013c 482e 873b 6e92 ed3b
00000080: 35d9 c5bb 51df 0f3c b77b 2cbc 61b1 c33b
00000090: d2b9 633a a691 2f3c f450 33ba aeea de3c
000000a0: 8dd3 87bc a09c 063b 4d4a cc3a 3864 c9bb
000000b0: 4db1 993b 94b2 d3ba 7d23 5e3b 177f 9f3b
000000c0: 4ed0 51bb 5e3b eb39 c3ab 11bc fc90 db39
000000d0: 6b28 243c 7bf0 44bb a670 ab3b 68f1 9f3b
000000e0: 199d 9a3b 9834 0b39 4cb4 9a3b 37bb cd3a
000000f0: 0977 93bc d6af 11bc 4adc 8c3b 200d 5d3c
00000100: 2a95 393b 442b 043c 7cca fabb 0c81 ecbb
00000110: 2e6e 673a be90 9d3c 354a c33a 8042 b03a
00000120: 30f0 e8bb 66a1 3c3c 8757 7d3c 0b0a 033c
00000130: 6b9f e33a 1865 963b 1589 7cbb 7413 50bc
00000140: 55e6 74bb 142c 1a3b 056d 503a 7bb0 ba3a
00000150: b165 12bc 7e9d e33b c664 33bb 679b 403b
00000160: 89e4 723c 0ed4 8f3c db48 aebb a87d 0a3b
00000170: 7e7f b93b 8266 8a3c 2902 553c 6cc9 dfbb
00000180: 491c 38bc 6225 76bc 1fa4 123c cf3d b53b
00000190: 195f 883c c698 5dba e933 1bbb e235 43bc
000001a0: ee1e 01bb fb4f 84bb f9aa 0fbb 5078 1e3c
000001b0: ef8a c0bb 42be fd3b 4fce 8bba 30a1 0cbc
000001c0: c248 2bbc 99e2 c0ba 4d3d 09ba b2c8 6c3b
000001d0: 7b80 f3bb 4764 33bc d5a6 66bc c9cc 913b
000001e0: 196b acbb d7ff 963a d53b 233c 88e7 15bc
000001f0: fdf6 28bb 69c2 f839 c564 eaba c92e 953c
00000200: 302f 58bb f4e8 e63a 289d 163c 878e d33b
00000210: f057 6c3c 9957 73ba cb9c 333c 7411 b2bb
00000220: c1d0 6b3a 36b4 073c 8aa3 59bc b39c c1bb
00000230: d8c3 ea3b 46df 1f3b 1c14 a23b dccf 263a
00000240: 6bf3 db3b cc40 71bb 9730 683b 74e9 153c
00000250: 4c3c dfbb a66a 523c 8be1 7fbc 10a7 d83b
00000260: fd10 96bc 8d37 8eb7 1e46 a93c fcb5 083c
00000270: 1b9e 2bbb 4252 763c a5e6 aabb a6a5 3c3c
00000280: 3301 4cbc 98a5 b03c 1e0c dd3c 592c 013b
00000290: 5b4b 4cbb 720f c93c 7711 83bc b9d8 8d3b
000002a0: 1013 b539 4014 343c f2b5 8aba c448 dcb7
000002b0: 603b cabb 47e4 113c dbaf 5c3c 2565 7dbc
000002c0: 18b7 3dbc 6ac5 a73c 4b60 933b cb36 02bc
000002d0: 58b7 183c b5e9 67bc d846 283c 6ec4 b439
000002e0: 25ea 36bc 3b80 07bc e1df 7a3b e92f 86bc
000002f0: 2434 2e3b 4600 04bb 9552 ff3b b96e d03a
00000300: b23d 483a 1454 813c 44c4 83ba 7af6 11bc
00000310: cf57 0abc 70c0 4e3c 4e1e 983b 36c3 1db9
00000320: c1a7 51bb 7472 123c d005 9b3c 8d24 ae3b
00000330: 3491 3c3b 1d6d 71bc aecd 6fbc 04cd 0139
00000340: 4231 9abc 2fe7 e83b 06b7 b1bb 7860 a93b
00000350: a6de 5d3b 7bc4 c43b 214d 17bc 0886 8639
00000360: 6ca4 5d3b 6d38 a63b e6f2 83bb 6046 a43c
00000370: f94b 8c3b 756a 1bbc 4e1c cf3b 5068 31bb
00000380: b3b3 40bc 830b 04bc 53b8 58bc 2291 d0bb
00000390: f8da feba 3d88 173c 3d76 91bb e617 023c
000003a0: 92c0 10bb 2692 6a3b 06fd 00bb d3bc c23a
000003b0: 0aec fd3b 3d1c a2bb 7770 88bb 8f3e 8b3b
000003c0: 62d5 123c cdc2 093c 9b86 3d3c 6984 acbb
000003d0: 858d 4fbc dbfe bdbb 8a6f cc3a 0602 d63a
000003e0: 0b9f 753c 00e5 d439 c7db 4b3c 5c45 c2ba
000003f0: 6c7d 1dbc 40df 023c 7c2f 76bc d577 0c3c
0.014288721 -0.010095573 -0.026627813 0.0055290926 0.00054637156 -0.019190205 -0.0074546733 0.008159877
0.0003313431 0.015598974 0.0030352187 -0.005012478 -0.002191461 0.010513861 0.005833566 -0.005321201
0.0008442509 0.014123089 0.009758894 0.009225276 -0.0049663247 -0.006953231 0.0005091711 -0.02228676
-0.000673217 0.0035699266 -0.0023237364 -0.004586648 0.019303488 0.0078788875 0.00412539 0.007250122
-0.006037856 0.00878127 -0.010527543 0.005972073 0.0008687052 0.010715878 -0.0006840371 0.027211513
-0.016580367 0.0020540133 0.0015586108 -0.00614598 0.0046903254 -0.0016151243 0.0033895664 0.004867445
-0.0032015028 0.00044866925 -0.008891049 0.00041878957 0.010019402 -0.0030050564 0.0052319346 0.004881073
0.0047184345 0.00013275666 0.0047212 0.0015696053 -0.018001096 -0.00889202 0.0042987214 0.013491899
0.0028317668 0.008066956 -0.0076535325 -0.007217532 0.0008828369 0.019234058 0.0014899435 0.0013447553
-0.0071087107 0.01151309 0.015462763 0.007998 0.0017366236 0.004589688 -0.0038533856 -0.0126999505
-0.0037368734 0.0023524808 0.00079508155 0.0014243269 -0.008935378 0.0069462648 -0.0027373298 0.0029389502
0.014824995 0.01755717 -0.0053187436 0.0021132026 0.00566095 0.016894583 0.013001003 -0.0068294313
-0.011237212 -0.015023561 0.008950262 0.00553105 0.016646909 -0.0008453246 -0.0023682064 -0.011914702
-0.0019702273 -0.0040378547 -0.0021921976 0.009672239 -0.005875937 0.0077436278 -0.0010666343 -0.008583352
-0.0104543585 -0.0014715969 -0.000523527 0.0036130366 -0.0074310875 -0.010949201 -0.014077862 0.004449461
-0.0052617905 0.0011520338 0.009962996 -0.00914944 -0.0025781982 0.00047447093 -0.0017882815 0.018210785
-0.003298711 0.0017617033 0.009192742 0.0064561996 0.014425263 -0.00092827674 0.010962675 -0.0054342095
0.00089956453 0.008282712 -0.01328362 -0.0059085726 0.0071644597 0.0024394556 0.004946245 0.0006363371
0.0067123673 -0.0036812304 0.0035429352 0.009149898 -0.006812608 0.01284281 -0.0156177385 0.0066117123
-0.018318648 -1.6953587e-05 0.020663317 0.00834417 -0.0026186767 0.01503426 -0.0052154833 0.011514103
-0.012451458 0.021563336 0.026983317 0.001971027 -0.0031172845 0.024543498 -0.015999539 0.004328814
0.00034537213 0.010991156 -0.0010582788 -2.6259928e-05 -0.006171629 0.008904523 0.013469662 -0.015466009
-0.0115792975 0.020479877 0.004497563 -0.007947634 0.009321056 -0.014154841 0.010270797 0.00034478627
-0.011164223 -0.008270319 0.0038280415 -0.016380267 0.0026581371 -0.0020141765 0.007791827 0.0015902139
0.0007638588 0.015787162 -0.0010052999 -0.008908862 -0.008443787 0.012619123 0.0046422845 -0.00015045409
-0.0031990858 0.008938421 0.01892367 0.005314416 0.0028773071 -0.014735487 -0.01463644 0.00012378773
-0.018822316 0.0071076374 -0.0054234294 0.0051689707 0.0033854633 0.0060048676 -0.009234698 0.00025658333
0.0033819927 0.0050726444 -0.0040267585 0.020053089 0.0042815176 -0.009485831 0.006320513 -0.0027070232
-0.011761594 -0.008059385 -0.01322754 -0.0063649574 -0.001944392 0.00924879 -0.004439144 0.007940268
-0.0022087437 0.0035792678 -0.0019682064 0.0014857299 0.0077490853 -0.004947214 -0.0041637975 0.004249401
0.008962007 0.0084082605 0.011567737 -0.005264808 -0.012668018 -0.0057982034 0.0015597206 0.0016327507
0.014991532 0.0004060641 0.012442536 -0.0014821696 -0.009612422 0.007987797 -0.01502597 0.008573492

layers.3.bias f4 [128]
00000000: b2cb 683d 1a5d b2bd 644e e33c b4dd df3c
00000010: a4a2 e43c 56cd 90bd c491 e23c 9735 c4bd
00000020: 608d 7ebd 9eed 573d 3f01 9e3d 00d3 a63b
00000030: 7a7b 50bd d73b ae3d 9365 963d 959d b5bd
00000040: 80f3 a33b e3f8 3bbd 986a 19bc 8816 bcbd
00000050: 12a7 96bd 69c8 a03d 73fc 76bd d018 18bd
00000060: 2e54 203d aab7 96bd 2822 713c 006d c7bb
00000070: d7b8 c9bd 9866 173c 9115 b63d 1b5c 9cbd
00000080: 971a a23d 8049 5abd 9354 823d d762 64bd
00000090: 8981 c53d 1018 31bd d267 023d 2c4d f4bc
000000a0: 3a41 b2bd ddc8 22bd dae0 433d 60e1 9fbb
000000b0: 7d06 2dbd cd3e 37bd 116d 8b3d eafa 373d
000000c0: c250 223d 18ee 243c de78 8dbd a050 a1bb
000000d0: 4e95 a0bd 30c5 b3bd 10d2 453c 3286 463d
000000e0: 3eaa 533d 3077 dabb c641 a4bd 5beb bc3d
000000f0: 504e bd3b a4fb e03c 27de b13d 54d5 e4bc
00000100: c2a1 243d 84cb e53c 4048 0d3c 3d71 95bd
00000110: 0032 28bd 41f8 813d 4207 3a3d 9351 cc3d
00000120: 5dcf 4fbd 133c 72bd 9228 783d f6e1 073d
00000130: 1037 0c3c f4e9 c73c d543 cbbd d885 933c
00000140: d2f3 3b3d f3af 92bd b8a9 83bc 40c3 fcba
00000150: 9331 bd3d c79e 923d 784a b23c 30f2 683c
00000160: d8f2 023c f040 6dbd e896 c9bd bfcf 8a3d
00000170: 082a b0bd a2b6 383d 1742 823d 9666 16bd
00000180: 7a69 17bd 4109 883d bb59 c73d 7492 d03c
00000190: 778d c9bd ad83 933d 5698 8bbd 3617 00bd
000001a0: 55d4 84bd bfa6 a93d c0d8 4ebd 9453 94bc
000001b0: 8e5c 7e3d 9f5a cabd ea50 7e3d 5069 173c
000001c0: 8729 57bd f099 013c 1454 b63c f37f b03d
000001d0: 75da 87bd 8eea 93bd 8f45 973d 50be 6abd
000001e0: 439e ab3d 588c ccbd b2e5 443d 4f4a c13d
000001f0: 9ac9 c4bd ae01 94bd 324b 6c3d 032a 9c3d
0.056834884 -0.08709164 0.02774734 0.027327396 0.027909584 -0.07070415 0.027657397 -0.09580534
-0.062146544 0.052716844 0.077150814 0.005091071 -0.050899006 0.08507507 0.073435925 -0.08867947
0.0050033927 -0.045891654 -0.009363793 -0.09183985 -0.07356085 0.07850725 -0.060299348 -0.037133038
0.03914278 -0.0735925 0.014717616 -0.006085992 -0.098497085 0.009240769 0.08890832 -0.07634755
0.07915228 -0.05329275 0.063637875 -0.055758324 0.096438475 -0.04323584 0.031837292 -0.029821955
-0.08703847 -0.03974234 0.047821857 -0.0048791617 -0.042242516 -0.044737626 0.06807912 0.044917025
0.039627798 0.010066532 -0.06907819 -0.0049229413 -0.078409776 -0.08777845 0.012074009 0.048467822
0.051676027 -0.0066670403 -0.08020358 0.09224578 0.005777158 0.027463742 0.0868495 -0.027933754
0.040193327 0.028051145 0.008623183 -0.07296989 -0.04106331 0.06346179 0.045417078 0.099764965
-0.050734866 -0.059139322 0.060585566 0.033174478 0.00855805 0.02440355 -0.09925047 0.018008158
0.045886822 -0.07162466 -0.01607214 -0.0019284263 0.09237971 0.071591906 0.021764025 0.014217898
0.007992469 -0.057923257 -0.09843236 0.06777906 -0.08601767 0.045096047 0.06360262 -0.036718927
-0.036965825 0.0664239 0.097339116 0.02546046 -0.098414354 0.072028495 -0.06816165 -0.031272136
-0.064858116 0.082837574 -0.050499678 -0.01810626 0.062099986 -0.09880566 0.062088884 0.009241417
-0.052529838 0.007910237 0.022256888 0.086181544 -0.06633464 -0.07222472 0.07386314 -0.057310402
0.083797954 -0.09987706 0.048070617 0.09438001 -0.09608765 -0.07226883 0.0576889 0.076252006

layers.6.weight f4 [64, 128]
00000000: 7475 a3bc 1b15 a2bb fb4f 433b ae99 3e3b
00000010: c9a5 e63c e101 3f3c 7b8d aabb beba 593c
00000020: 54de 17bc 4e84 e3bc 4008 dd3c a91b 4e3a
00000030: 00c1 d8bb b41d 173c d166 003c dd4d 67bb
00000040: d977 ab3b dd90 7b3b 9b12 b53a bbe5 71bc
00000050: 5264 88bb 9627 82bb e7af d9ba 1805 a6ba
00000060: 8ff5 6bbc 47e6 89bb 0b1b 59bc 9de8 803c
00000070: a746 1b39 fb16 0dbc 7f78 9fbc c3a9 fbb8
00000080: f358 aebb 4973 84bc eeaf f13b 945a eabb
00000090: eb22 283a 35c9 38bc 9528 183c fc55 81bc
000000a0: 18e1 133c 77c1 7fbc 563a 13bb 071f 1c3c
000000b0: 4eb8 2f3c eee4 b6bb f334 523b 3c6b ba3b
000000c0: f02b b2bb 8bd9 993c 9ef8 45bc c511 fa3a
000000d0: 0be4 d9bb ee2d adbb f820 453b 6ea0 fe3b
000000e0: 45ec 04bc 67da 84bc 5b01 de3a 4563 eeba
000000f0: 6a3c c13b 5a04 8f3c 78bb a43b 65d3 c2bc
00000100: 81d2 ef3b f22d 063c 10af 42bc 3722 78bb
00000110: 4145 aebb b6cf 98bc bbbf 4b3b 13b0 7fbc
00000120: f086 74bb c6fb 543c ef07 e23b 534e ee39
00000130: c42a 45bb 87a1 c03b 9bd1 d7bb 1dab 82bb
00000140: d163 923c d0d8 a13b ba12 09bc ea16 263c
00000150: 8a99 d23b 920f 0d3a 0d52 8fbb 776a ca3b
00000160: ddd0 e9ba f527 b239 f5f9 9cbb 5640 873b
00000170: b143 16bc a55e 79bb c5cf f53b 5023 b13b
00000180: 862f e63b 26be 833b 07ce 5a3c 577d 42bc
00000190: 2477 0ebc 32b6 c23c b0f2 373c 5ec0 c2bc
000001a0: a689 ff3b 8e93 7abb 58ad 523b a543 cd3b
000001b0: d20c 0f3c 0366 8a3b 45e2 8cbb 7e3a d73a
000001c0: f2ca d3bc 54a8 143c 678f a7bb cb7c c1bb
000001d0: a96b dcba b4c9 bfbb 1f10 933a b434 263c
000001e0: fb01 013b 5e9e aebc 640a 583c 32e8 993b
000001f0: 74f7 323c 9bf7 b6ba fc8e b539 e6f4 e2bb
00000200: f843 c33b a699 63bc 2414 d13a f8b8 b53b
00000210: 5664 10bc 9702 013c 2b15 24bc 36d9 90bc
00000220: e0fe 92bc ef95 52bb 5cc8 e63b e709 a0bb
00000230: 6ea4 a93b 49e4 073c 3939 ae39 c630 4abc
00000240: 41b8 59bc 1dbc c13b 921f 31bc a3c1 01bc
00000250: 7446 c03c 12f1 363c e15d 7dbb f6d7 843c
00000260: ceae 9e3b 8e25 88bc e644 5fb9 5846 bab9
00000270: 58ae 08b9 3dab 16bc 523d 38ba dd3a 57bc
00000280: f2a0 da3b c837 05bc 095a d8ba 7c47 e0bb
00000290: 7b41 6e3a f49c 80bc b767 5ebc 400c b4bc
000002a0: acfe e2bb dd67 22bc a571 aa3b 01dc 173c
000002b0: 56c1 a43b eed3 983c 869b 5a3b 3716 7d3c
000002c0: f2a3 2cbc c0f4 6fbc 3b8e 73bc 5098 9fbc
000002d0: 939b 79bc 89d7 e83b 65b8 6e3c b571 e5bb
000002e0: 653f b2bb 2b0e 8cba 225e 653c e1a2 853b
000002f0: b9b7 a8bc 6143 2a3c 3dd7 e6bb f0fa 98bb
00000300: 2d89 993a 0dec b73b b345 a0ba f0e8 7bba
00000310: 6adb 353c 53a7 5dbc 09ef 82ba 7b8f 0ebc
00000320: 184a 923b 1d89 a3bc dbdf 013c 35a6 d3bb
00000330: b757 32bb 2e50 cbbc 84ce a1bc 2b9e 113c
00000340: 2012 f2bb 7362 663c ce60 3dbc d485 0dbb
00000350: 458d a4bc d862 b03b 4ba4 4abc d504 6bbc
00000360: 8260 1f3c 9909 31bc f9bf 68bb 6b48 4d3c
00000370: 6e33 cf3c 168e 013c dd3c b4bc be72 313c
00000380: 5dd2 89bc 27cb fa3b 2369 743a a053 09bd
00000390: 66cf 883b 19b5 8bba 3996 033c 8c1a 0d3b
000003a0: f21b 573c 0be2 19bb e6f1 a3bb 334a acb9
000003b0: fbdb 9ebb 12c5 293b 0630 7a3b 17ac 5f3b
000003c0: 41d3 ddba bdd2 8e3c aae6 06bc 3700 283c
000003d0: cd16 1c3c f488 173c f5a8 933b 7b82 96b9
000003e0: fb74 a8ba 69fd a6bb 5e70 733a 4740 0d3c
000003f0: 9d98 9fbb c4da 4fbc a10f 323c b251 b83b
-0.019953467 -0.0049463636 0.002980231 0.00290833 0.028155224 0.011658163 -0.005204854 0.013289152
-0.009269316 -0.027773049 0.026981473 0.0007862398 -0.0066148043 0.00922339 0.007837013 -0.0035294213
0.005232793 0.0038385906 0.0013814749 -0.014764245 -0.0041623497 -0.003972004 -0.0016608209 -0.0012666313
-0.014401807 -0.0042083594 -0.013251076 0.015735919 0.00014808272 -0.008611436 -0.019466637 -0.00012000233
-0.005320662 -0.016168253 0.007375709 -0.007151911 0.00064138946 -0.01127844 0.009287019 -0.01578807
0.0090258345 -0.01561009 -0.002246519 0.009528882 0.010725094 -0.0055814898 0.0032075017 0.005689053
-0.0054373667 0.01878049 -0.012083201 0.0019078782 -0.0066494993 -0.0052850163 0.0030079465 0.0077705896
-0.008112972 -0.016217424 0.001693766 -0.0018187544 0.0058970945 0.01745813 0.005027231 -0.023782441
0.007318795 0.008189665 -0.011882558 -0.003786219 -0.0053183143 -0.018653732 0.0031089622 -0.015605944
-0.0037311874 0.012999481 0.0068979184 0.00045453254 -0.0030085305 0.0058786306 -0.006586266 -0.0039876834
0.017869862 0.004939176 -0.008366281 0.010137299 0.0064269947 0.00053810433 -0.004373795 0.0061772424
-0.0017838735 0.00033980576 -0.0047905394 0.0041275425 -0.009171412 -0.0038050797 0.0075015747 0.005405821
0.007024708 0.00402047 0.013354785 -0.011870704 -0.0086953975 0.023768518 0.011227295 -0.023773368
0.0077983914 -0.0038234922 0.0032146778 0.0062641674 0.008731084 0.0042235865 -0.0042994344 0.001642063
-0.025853608 0.009073336 -0.0051135304 -0.005904769 -0.0016816753 -0.0058529023 0.0011220014 0.010144401
0.0019685018 -0.02131575 0.013186071 0.0046968693 0.010923255 -0.001395929 0.00034629542 -0.006926167
0.0059590302 -0.013891613 0.0015951437 0.0055457316 -0.008812984 0.007874153 -0.010014812 -0.0176817
-0.0179438 -0.0032132824 0.0070429277 -0.004883993 0.0051770722 0.0082941735 0.000332305 -0.01234073
-0.013288558 0.0059123174 -0.01081075 -0.007919702 0.023471095 0.011165874 -0.0038660693 0.01621626
0.0048426157 -0.01661947 -0.00021292604 -0.00035529095 -0.00013034919 -0.0091961 -0.00070281804 -0.013136593
0.006672018 -0.008130975 -0.0016506325 -0.006844459 0.0009088737 -0.015699841 -0.013574532 -0.021978498
-0.006927332 -0.009912458 0.0052015358 0.009268762 0.0050279303 0.018655743 0.003335686 0.015447191
-0.0105371345 -0.014645755 -0.014865453 -0.019481808 -0.015234846 0.007105772 0.01457033 -0.0070020803
-0.005439686 -0.0010685375 0.013999494 0.0040782546 -0.020595418 0.010392041 -0.0070447014 -0.004668586
0.0011713855 0.0056128562 -0.0012227803 -0.00096096005 0.011099676 -0.013528663 -0.0009989451 -0.008701201
0.004464399 -0.019962842 0.007926906 -0.0064590224 -0.0027212927 -0.024818506 -0.019751795 0.008887808
-0.0073874146 0.014061558 -0.011558725 -0.002159466 -0.020086894 0.005382877 -0.012368272 -0.014344414
0.009727599 -0.010805511 -0.0035514815 0.012529473 0.025293078 0.007907411 -0.022001678 0.010830579
-0.016823942 0.007653612 0.0009323528 -0.033527017 0.0041751144 -0.001065883 0.008031421 0.0021530716
0.013129221 -0.002348068 -0.005003202 -0.0003286168 -0.004848001 0.0025904817 0.0038175597 0.0034129673
-0.001692392 0.017434472 -0.008233706 0.0102539575 0.0095269205 0.009248961 0.004506225 -0.00028707445
-0.0012852246 -0.005096127 0.00092864584 0.008621282 -0.004870488 -0.012686435 0.010867984 0.005624973

layers.6.bias f4 [64]
00000000: c2b2 c8bd 3016 183c 492b b83d 2265 aabd
00000010: 60d7 de3b e6ae 2a3d a1f4 a93d e0a4 f63b
00000020: cb0b babd db6a c43d 354b a4bd a5ea 8cbd
00000030: b4f3 01bd fdde 75bd 4c0f 16bd bb38 c8bd
00000040: ce7e 373d b094 4fbd 31c3 8c3d 696d 923d
00000050: 0e07 083d 8988 b23d 14d3 a1bc 63af 2fbd
00000060: 97d2 1abd 500f 91bd 6e68 163d 2373 a93d
00000070: 8c65 14bd ac21 f0bc f45e eabc a872 6a3c
00000080: 3ee1 a9bd c0a0 11bb 26c7 623d d03c b1bb
00000090: 81ba a03d a054 b0bc 838b 51bd ea80 403d
000000a0: 66a0 223d 0a78 3fbd 708b 173c b84b 903c
000000b0: c85b b3bc 0a66 1d3d 2d80 6abd bd08 5dbd
000000c0: 22ad 0c3d bb5b 883d 9dbc 27bd a87d e5bc
000000d0: cc76 b3bc 06f0 10bd b2c2 173d 0cb3 973c
000000e0: c407 89bd c0ab 573b 518c a23d a01e debb
000000f0: a775 2abd bf92 bdbd dcd5 12bd 40de 65bd
-0.0979972 0.009282634 0.08992631 -0.08320071 0.006800577 0.041670702 0.082986124 0.007526979
-0.090842806 0.095906936 -0.08022157 -0.068806924 -0.031726554 -0.06002711 -0.036635682 -0.097764455
0.044798665 -0.05067891 0.06873167 0.071497746 0.033209853 0.08717448 -0.01975397 -0.04289187
-0.03779849 -0.07082999 0.036720686 0.08273914 -0.036229655 -0.029312931 -0.02860973 0.014309563
-0.08294915 -0.0022221059 0.055365704 -0.0054088607 0.07848073 -0.021524727 -0.05115844 0.046997942
0.03970375 -0.046745338 0.009249553 0.01761423 -0.02189435 0.03842739 -0.057251144 -0.05396341
0.0343448 0.06658121 -0.04095136 -0.02801402 -0.021907233 -0.035385154 0.03705091 0.018517993
-0.06690934 0.0032908767 0.079369195 -0.006778553 -0.04161611 -0.09256505 -0.035848483 -0.056120157

layers.8.weight f4 [64]
00000000: 0000 803f 0000 803f 0000 803f 0000 803f
00000010: 0000 803f 0000 803f 0000 803f 0000 803f
00000020: 0000 803f 0000 803f 0000 803f 0000 803f
00000030: 0000 803f 0000 803f 0000 803f 0000 803f
00000040: 0000 803f 0000 803f 0000 803f 0000 803f
00000050: 0000 803f 0000 803f 0000 803f 0000 803f
00000060: 0000 803f 0000 803f 0000 803f 0000 803f
00000070: 0000 803f 0000 803f 0000 803f 0000 803f
00000080: 0000 803f 0000 803f 0000 803f 0000 803f
00000090: 0000 803f 0000 803f 0000 803f 0000 803f
000000a0: 0000 803f 0000 803f 0000 803f 0000 803f
000000b0: 0000 803f 0000 803f 0000 803f 0000 803f
000000c0: 0000 803f 0000 803f 0000 803f 0000 803f
000000d0: 0000 803f 0000 803f 0000 803f 0000 803f
000000e0: 0000 803f 0000 803f 0000 803f 0000 803f
000000f0: 0000 803f 0000 803f 0000 803f 0000 803f
1.0 1.0 1.0 1.0 1.0 1.0 1.0 1.0
1.0 1.0 1.0 1.0 1.0 1.0 1.0 1.0
1.0 1.0 1.0 1.0 1.0 1.0 1.0 1.0
1.0 1.0 1.0 1.0 1.0 1.0 1.0 1.0
1.0 1.0 1.0 1.0 1.0 1.0 1.0 1.0
1.0 1.0 1.0 1.0 1.0 1.0 1.0 1.0
1.0 1.0 1.0 1.0 1.0 1.0 1.0 1.0
1.0 1.0 1.0 1.0 1.0 1.0 1.0 1.0

layers.8.bias f4 [64]
00000000: 0000 0000 0000 0000 0000 0000 0000 0000
00000010: 0000 0000 0000 0000 0000 0000 0000 0000
00000020: 0000 0000 0000 0000 0000 0000 0000 0000
00000030: 0000 0000 0000 0000 0000 0000 0000 0000
00000040: 0000 0000 0000 0000 0000 0000 0000 0000
00000050: 0000 0000 0000 0000 0000 0000 0000 0000
00000060: 0000 0000 0000 0000 0000 0000 0000 0000
00000070: 0000 0000 0000 0000 0000 0000 0000 0000
00000080: 0000 0000 0000 0000 0000 0000 0000 0000
00000090: 0000 0000 0000 0000 0000 0000 0000 0000
000000a0: 0000 0000 0000 0000 0000 0000 0000 0000
000000b0: 0000 0000 0000 0000 0000 0000 0000 0000
000000c0: 0000 0000 0000 0000 0000 0000 0000 0000
000000d0: 0000 0000 0000 0000 0000 0000 0000 0000
000000e0: 0000 0000 0000 0000 0000 0000 0000 0000
000000f0: 0000 0000 0000 0000 0000 0000 0000 0000
0.0 0.0 0.0 0.0 0.0 0.0 0.0 0.0
0.0 0.0 0.0 0.0 0.0 0.0 0.0 0.0
0.0 0.0 0.0 0.0 0.0 0.0 0.0 0.0
0.0 0.0 0.0 0.0 0.0 0.0 0.0 0.0
0.0 0.0 0.0 0.0 0.0 0.0 0.0 0.0
0.0 0.0 0.0 0.0 0.0 0.0 0.0 0.0
0.0 0.0 0.0 0.0 0.0 0.0 0.0 0.0
0.0 0.0 0.0 0.0 0.0 0.0 0.0 0.0

layers.8.running_mean f4 [64]
00000000: 0000 0000 0000 0000 0000 0000 0000 0000
00000010: 0000 0000 0000 0000 0000 0000 0000 0000
00000020: 0000 0000 0000 0000 0000 0000 0000 0000
00000030: 0000 0000 0000 0000 0000 0000 0000 0000
00000040: 0000 0000 0000 0000 0000 0000 0000 0000
00000050: 0000 0000 0000 0000 0000 0000 0000 0000
00000060: 0000 0000 0000 0000 0000 0000 0000 0000
00000070: 0000 0000 0000 0000 0000 0000 0000 0000
00000080: 0000 0000 0000 0000 0000 0000 0000 0000
00000090: 0000 0000 0000 0000 0000 0000 0000 0000
000000a0: 0000 0000 0000 0000 0000 0000 0000 0000
000000b0: 0000 0000 0000 0000 0000 0000 0000 0000
000000c0: 0000 0000 0000 0000 0000 0000 0000 0000
000000d0: 0000 0000 0000 0000 0000 0000 0000 0000
000000e0: 0000 0000 0000 0000 0000 0000 0000 0000
000000f0: 0000 0000 0000 0000 0000 0000 0000 0000
0.0 0.0 0.0 0.0 0.0 0.0 0.0 0.0
0.0 0.0 0.0 0.0 0.0 0.0 0.0 0.0
0.0 0.0 0.0 0.0 0.0 0.0 0.0 0.0
0.0 0.0 0.0 0.0 0.0 0.0 0.0 0.0
0.0 0.0 0.0 0.0 0.0 0.0 0.0 0.0
0.0 0.0 0.0 0.0 0.0 0.0 0.0 0.0
0.0 0.0 0.0 0.0 0.0 0.0 0.0 0.0
0.0 0.0 0.0 0.0 0.0 0.0 0.0 0.0

layers.8.running_var f4 [64]
00000000: 0000 803f 0000 803f 0000 803f 0000 803f
00000010: 0000 803f 0000 803f 0000 803f 0000 803f
00000020: 0000 803f 0000 803f 0000 803f 0000 803f
00000030: 0000 803f 0000 803f 0000 803f 0000 803f
00000040: 0000 803f 0000 803f 0000 803f 0000 803f
00000050: 0000 803f 0000 803f 0000 803f 0000 803f
00000060: 0000 803f 0000 803f 0000 803f 0000 803f
00000070: 0000 803f 0000 803f 0000 803f 0000 803f
00000080: 0000 803f 0000 803f 0000 803f 0000 803f
00000090: 0000 803f 0000 803f 0000 803f 0000 803f
000000a0: 0000 803f 0000 803f 0000 803f 0000 803f
000000b0: 0000 803f 0000 803f 0000 803f 0000 803f
000000c0: 0000 803f 0000 803f 0000 803f 0000 803f
000000d0: 0000 803f 0000 803f 0000 803f 0000 803f
000000e0: 0000 803f 0000 803f 0000 803f 0000 803f
000000f0: 0000 803f 0000 803f 0000 803f 0000 803f
1.0 1.0 1.0 1.0 1.0 1.0 1.0 1.0
1.0 1.0 1.0 1.0 1.0 1.0 1.0 1.0
1.0 1.0 1.0 1.0 1.0 1.0 1.0 1.0
1.0 1.0 1.0 1.0 1.0 1.0 1.0 1.0
1.0 1.0 1.0 1.0 1.0 1.0 1.0 1.0
1.0 1.0 1.0 1.0 1.0 1.0 1.0 1.0
1.0 1.0 1.0 1.0 1.0 1.0 1.0 1.0
1.0 1.0 1.0 1.0 1.0 1.0 1.0 1.0

out.weight f4 [187, 64]
00000000: fea1 bdbd 6837 8bbc d45c fdbd 70d4 32bd
00000010: 26be f53d cc70 993d 007f 3fbc 9eb4 c73d
00000020: 7a13 b9bd a0e9 903d ccf1 833d c0a6 fc3d
00000030: 60f8 95bc 4846 0b3d 241c 1c3d bcaa c7bd
00000040: a295 f7bd f835 30bd 20fc 323c cca9 84bd
00000050: 621a 863d f63d b63d 9427 de3d d0e4 853c
00000060: 388c 363d 421d da3d 6258 c6bd e808 e7bc
00000070: ce85 963d 5474 e1bd a4b2 14bd 747b 9d3d
00000080: 1a28 ea3d 9438 473d 3413 e13d 081b b7bd
00000090: 90b9 77bd 9a81 ca3d 2cf1 d23d a844 ed3c
000000a0: 5e30 bcbd 94c5 d93d 8c93 cfbd 5437 ebbd
000000b0: a8db cfbc 48e2 e9bd f875 cbbd 684d c93c
000000c0: 3457 ddbd 6c6f 613d 88f6 0cbd 328a f73d
000000d0: 800e e83d 500d f4bd b066 f13c d0d0 dc3d
000000e0: 283c aabd 1cb8 54bd 0061 e7bc 06e1 c13d
000000f0: 408b 523b 4c3f bbbd 00a7 a1ba c463 9cbd
00000100: 9c3e eabd 0ed5 dbbd fc3b 5ebd 44cf 3bbd
00000110: 4c01 c8bd 00ce 80b9 f8ea d3bc d01e dcbc
00000120: acb9 8abd b265 a93d b8eb 94bc 7e1f 97bd
00000130: e8ff 7abd ecb6 e03d a6c5 9e3d e8d0 6fbd
00000140: c023 bbbd b8b6 ce3d 8073 99bd 185b 55bd
00000150: c29e a0bd 38b7 253d 4011 21bb 08d4 b93c
00000160: 0aec d9bd 00b8 ed3d b819 b83c d46e f4bd
00000170: 40f8 1e3b 804c cabd f429 1ebd e003 683c
00000180: 00d8 ab3c c840 ab3d ac5f 603d d011 ac3c
00000190: c82b 923c 6cd1 efbd 9ce4 bebd 4086 a5bb
000001a0: 9049 583c 40d0 583b bc93 773d c6d4 873d
000001b0: d09b 703c 808c 623b 08a4 f0bd 984c 81bd
000001c0: e805 613d 48da 033d d299 b93d 1810 8f3d
000001d0: c805 adbd 709f 18bd 8018 3dbc b887 7f3d
000001e0: 8a9e 83bd ba82 da3d 3235 953d cc31 73bd
000001f0: 90ec 1fbc ca2f a83d a0f5 7d3d 0e7a 873d
00000200: c203 de3d a448 18bd 48fd 92bd 4c91 b53d
00000210: acc5 73bd eebc a83d 14eb 71bd 38e2 99bd
00000220: 4456 35bd 7e0a a7bd b06d 883c b8eb b1bd
00000230: 0a16 c73d 9c03 943d 2041 d8bd a84f ef3c
00000240: d687 a33d 686f b73d ac13 f33d 007f c6ba
00000250: 78c8 c23d 309d 6bbd 908d 413c 08d2 923c
00000260: 2a3a ef3d 848e bb3d 0090 9eba 0ce2 773d
00000270: 9074 fa3d 602e 29bc fe28 d23d b4b5 c1bd
00000280: b83a 81bd f6a1 f0bd 6840 853c 7e59 c3bd
00000290: 9caf d53d 808f e03a 90cc 7fbd e049 393c
000002a0: e0d5 c8bc 58a3 0e3d 2ab8 bebd 30fb babc
000002b0: 5830 1dbd c878 133d ae03 fd3d cefc d83d
000002c0: 00c1 d13d 0c8d 2ebd 006b 47ba 483a e7bd
000002d0: 9c38 9c3d 180e d3bd 1055 e63c f01a 4d3d
000002e0: d05f 213d bcd4 883d 5e8c a9bd 68da 76bd
000002f0: 4280 d73d e8c0 3bbd 70d5 96bd 802d a1bb
00000300: 6452 49bd 421a 933d a0ff f53b 60f0 e43c
00000310: 4884 a7bc 0096 593d f63c 90bd 601b f83c
00000320: 26c5 f13d 10a0 943c a0f7 7bbd 7452 1cbd
00000330: 1cc4 95bd 7c95 a9bd 94fc a23d 140c 0cbd
00000340: aaa9 a2bd acf2 623d 8072 b93a e02f 90bd
00000350: d098 21bc 5278 cabd 60a6 27bd 549c 323d
00000360: 788f 47bd 78a4 fcbd 80f8 6cbb daab d13d
00000370: a8af 433d 0086 38bb 02a3 9e3d f0af 4a3d
00000380: 2492 aa3d 6087 a9bd caba a73d 4422 d73d
00000390: 564d 95bd e08d 223c 3488 5e3d 0acc 903d
000003a0: 183c 58bd 64d6 acbd 00e8 3b3c 7215 803d
000003b0: e019 c63b d6e0 bdbd 1c72 0e3d acae 083d
000003c0: da90 87bd 84d4 2a3d 2076 8f3c 484d d83c
000003d0: e8c9 b0bc 0050 2cba e889 fcbd a05d 553d
000003e0: 5ea7 f23d 7498 76bd 04a1 9ebd fc9c 7dbd
000003f0: 0079 63bc a0c1 7fbc f2e6 c1bd b050 c2bc
-0.09259413 -0.016994193 -0.12371221 -0.043659627 0.119991586 0.074922174 -0.011687994 0.09751247
-0.09036918 0.070758104 0.064426035 0.123364925 -0.018306911 0.034002572 0.038112774 -0.09749362
-0.12089087 -0.04302022 0.010924369 -0.06477699 0.06548001 0.08898537 0.10847393 0.016344458
0.044567317 0.10650112 -0.096848264 -0.028202489 0.0734974 -0.11008516 -0.036303177 0.076895624
0.1143343 0.04863794 0.10989991 -0.08940703 -0.0604797 0.09888001 0.10299906 0.028963402
-0.09188913 0.10633388 -0.10135564 -0.114851624 -0.025373295 -0.11420113 -0.0993461 0.024573043
-0.10807648 0.0550379 -0.034414798 0.120869055 0.11330891 -0.11916602 0.02946791 0.10782015
-0.08312255 -0.051933393 -0.028244495 0.09466748 0.0032126456 -0.09142932 -0.0012333095 -0.07636216
-0.11437723 -0.10733996 -0.054256424 -0.04585196 -0.09765872 -0.00024567544 -0.025868878 -0.026870161
-0.06773695 0.0827135 -0.018178806 -0.073790535 -0.061279207 0.109723896 0.07752542 -0.058548838
-0.09137678 0.100934446 -0.07492733 -0.052088827 -0.07842781 0.040457934 -0.0024576932 0.022684112
-0.10640724 0.11607361 0.022473201 -0.11935201 0.0024256855 -0.098778725 -0.03861423 0.01416108
0.02097702 0.083619654 0.05477874 0.021004587 0.017843142 -0.11709866 -0.093209475 -0.0050514042
0.013201132 0.003308311 0.060443625 0.0663238 0.014685586 0.0034568608 -0.117500365 -0.06313437
0.054937273 0.03219059 0.09062542 0.069854915 -0.08448368 -0.037261426 -0.011541486 0.06238529
-0.06426723 0.10669465 0.07285537 -0.059373662 -0.009760991 0.0821224 0.062001824 0.06615077
0.108405605 -0.03717865 -0.07177216 0.08865604 -0.059514686 0.082391605 -0.05906208 -0.07513851
-0.044271722 -0.08156298 0.016653866 -0.08687538 0.097210005 0.07227251 -0.105592966 0.029212788
0.07984893 0.08956796 0.118689865 -0.001514405 0.09510893 -0.057522953 0.011813536 0.017922416
0.11681016 0.09158042 -0.0012097359 0.06051831 0.12229264 -0.010325998 0.10261725 -0.09458485
-0.06310028 -0.117496416 0.016266063 -0.09538554 0.104338855 0.001713261 -0.062450945 0.011309117
-0.024516046 0.034823745 -0.0931247 -0.022824854 -0.038376182 0.036003858 0.123542175 0.10595094
0.1024189 -0.04261498 -0.0007607192 -0.11290413 0.07627985 -0.103054225 0.028116733 0.050074518
0.039398015 0.06681201 -0.08278726 -0.060266882 0.1052251 -0.045838267 -0.07364929 -0.004918754
-0.04915084 0.07182743 0.0075072795 0.027946651 -0.020448819 0.053121567 -0.070428774 0.03028649
0.11805181 0.01814273 -0.06151545 -0.03816457 -0.073127955 -0.08280465 0.07958332 -0.034191206
-0.07942517 0.05540721 0.0014148504 -0.070403814 -0.0098630935 -0.098862305 -0.040930152 0.043606117
-0.048720807 -0.123360574 -0.003615886 0.10237856 0.04777494 -0.0028156042 0.07745935 0.049484193
0.08328655 -0.08277774 0.08189924 0.105045825 -0.07290141 0.009921521 0.054329112 0.07070167
-0.052791685 -0.08439329 0.011468887 0.0625409 0.006045565 -0.092714 0.034776792 0.033369705
-0.06619425 0.041706577 0.017512381 0.026404038 -0.021580651 -0.00065732 -0.12330991 0.05209124
0.11848329 -0.060203984 -0.07745555 -0.06191729 -0.013883829 -0.015610129 -0.094678774 -0.023720115
