model_params/train_ddpg_1606029107_15_critic.pth (torch, 438735 bytes, 17 tensors)

state_input.weight f4 [128, 2]
000000 22 b9 a8 bb 02 0d 8f 3c 30 8e 9a bc e1 e1 e8 3b
       -0.0051490227 0.017462257 -0.018866628 0.007107005
000010 ce 12 36 3b 39 97 23 bb c5 d5 e8 b9 52 18 8b bc
       0.0027782205 -0.0024961962 -0.0004440976 -0.01697937
000020 f3 47 18 bb 58 1e 45 3b 62 b1 62 bb 90 49 21 3b
       -0.0023236244 0.00300779 -0.0034590592 0.0024610497
000030 7c b1 4b 3a ed 4d 0f 3c b3 10 2e bc bc f5 33 3b
       0.00077702827 0.008746606 -0.010624099 0.0027459702
000040 54 4f 9b bb d8 a2 50 bc 26 44 0c bc 87 63 c2 bb
       -0.0047396813 -0.0127341375 -0.00856117 -0.0059322747
000050 aa 03 6c 3c 24 3d 07 39 74 e0 a0 3b 66 39 dc 3b
       0.01440517 0.0001289738 0.0049095694 0.0067207096
000060 8c 0e 79 3b 2b 4e 84 ba c5 7c b1 3b f6 b7 84 3b
       0.0038003055 -0.0010094097 0.005416485 0.00405025
000070 b8 25 7b bb 0e f6 1f bc e3 1a 77 bc 3e 72 9b bb
       -0.0038322043 -0.009763254 -0.015082094 -0.0047438433
000080 8a 7e 4e 3b 2a 90 7b bc 9d 39 a0 bb 98 c3 7e 3c
       0.0031508529 -0.015354196 -0.0048896805 0.015549563
000090 fd 6b 6e 3b a9 a6 dd bb 3e b7 a9 bb 27 3b 0e 3c
       0.0036380284 -0.006764252 -0.005179315 0.008681095
0000a0 d1 c4 09 bb 1d ff 73 3c 4d 81 b5 bb 07 d9 4a 3c
       -0.0021021853 0.014892367 -0.0055390955 0.012380845
0000b0 a1 47 db ba 80 81 cd 3c 8f 5b 48 bc 63 06 7a 3b
       -0.0016729721 0.025086164 -0.0122288605 0.003815078
0000c0 0e 35 49 bb 43 d4 a1 3b 5d 0a 29 bc df d4 06 bb
       -0.003070179 0.0049386336 -0.010317412 -0.0020573658
0000d0 4d d6 b9 b9 5e dc 62 3b db 24 83 bb c5 1d 63 bb
       -0.00035445616 0.0034616212 -0.0040021962 -0.0034655195
0000e0 8c d5 ea b9 09 5b 37 bb 17 76 50 bc 12 bc 36 3c
       -0.00044791063 -0.0027977845 -0.012723467 0.011153238
0000f0 a1 6d 8e 3a 63 79 7d bc 86 ca 80 ba 09 9b 31 bb
       0.0010866412 -0.015470835 -0.0009825982 -0.0027100465
000100 59 7c 38 b9 92 b6 bd 3b ca 38 4a 3c 1e 67 65 bc
       -0.0001759393 0.0057895863 0.012342641 -0.014001636
000110 03 f2 0b 3c e3 a5 14 bc 7d 71 35 3c 35 84 62 b9
       0.008541587 -0.009072754 0.011074421 -0.0002160229
000120 f0 b7 40 3c 4a bc d5 bb d5 ae 43 3c a9 e9 07 3b
       0.011762604 -0.00652269 0.011943539 0.0020738638
000130 32 df 06 3b 12 07 a1 bc 7e 20 20 3c dc 2b 1a bc
       0.0020579812 -0.019656692 0.009773372 -0.009409871
000140 39 b0 ff bb 86 b7 92 bb 46 47 ee 3b 8f 9d 2e 3a
       -0.00780299 -0.004477444 0.00727168 0.00066610513
000150 32 7a 8d 3b a0 1a 64 3c db fd 13 3c 7b 0a 37 3c
       0.0043175453 0.0139223635 0.009032692 0.011171932
000160 6f 7e 65 3a 03 f5 78 3c c0 aa 96 3a 67 e6 23 bb
       0.0008754497 0.015195134 0.0011494979 -0.0025009157
000170 21 e9 82 bc b3 62 c9 3b 61 eb ab 3b ee 8f 65 3c
       -0.015980305 0.006145799 0.005246565 0.014011366
000180 92 77 79 bb c6 a0 42 3b f5 66 04 3c 73 38 fa 3a
       -0.0038065654 0.002969788 0.0080811875 0.001909031
000190 29 31 04 3c 13 16 9e bc ce 00 f7 bb 65 19 a7 3b
       0.008068361 -0.019297635 -0.0075379377 0.005099463
0001a0 f8 06 6d bc fe 3e 7e bc e6 1b 08 bc 21 67 73 bb
       -0.0144669935 -0.015517948 -0.008307433 -0.0037140327
0001b0 0a b5 b4 3b 8d 33 1c 3b 2e 43 9e bb aa dc 8d bc
       0.0055147456 0.0023834438 -0.004829786 -0.017317135
0001c0 22 19 ac bc c6 52 6d bb dc 6b 5d 3b fe ea 56 bc
       -0.021008078 -0.0036212667 0.0033786213 -0.01311755
0001d0 52 05 c6 ba ab 38 18 bb 76 18 8c 3a 97 41 d3 39
       -0.0015107787 -0.0023227136 0.0010688442 0.00040293924
0001e0 9d 9d 17 3c af a8 13 bc 84 20 30 3b 15 d5 3c bc
       0.0092538865 -0.009012385 0.002687485 -0.011525412
0001f0 bb 62 d6 bb 60 e6 fc bb e9 39 45 3b 25 7d 1a 3c
       -0.0065425313 -0.0077178925 0.0030094332 0.009429251
000200 fb 3f 20 3c e2 99 d8 ba 8c 6a d0 ba c6 c3 a5 bb
       0.009780879 -0.0016525353 -0.0015900894 -0.0050587384
000210 42 44 a4 bb ae 63 98 3c 29 7b b9 bc 0d af 31 bc
       -0.00501302 0.018602218 -0.022641735 -0.010844958
000220 de 99 a3 3a 22 ea 89 3b 90 f4 44 bb d2 4a 88 bb
       0.0012481769 0.004208819 -0.0030052997 -0.00415931
000230 5b b2 15 3a a4 e4 cf 3b f4 38 4e 3c 5d 19 4b bb
       0.0005710476 0.0063443948 0.012586821 -0.003099046
000240 4a a7 93 3a 01 e9 a3 ba 12 3f e4 3a 42 db c5 3c
       0.0011265066 -0.0012505354 0.0017413816 0.024152402
000250 f9 dc e2 3b 3e 05 91 3b ce 1b 97 bb ce ce 38 bb
       0.0069233146 0.0044256737 -0.004611469 -0.0028199437
000260 98 a8 ed 3b 65 6c 2f bb 72 be f8 3b 5d e6 43 3c
       0.007252764 -0.002676749 0.007591062 0.011956778
000270 45 b3 b6 bc 69 b5 c5 3a b7 07 fe 3a 9d 98 19 bc
       -0.02230228 0.0015083972 0.0019380961 -0.009374765
000280 ab 1f 42 3c 06 e3 c4 bb 2b e3 1e 3c 07 ec 08 bc
       0.011848371 -0.0060085086 0.009697716 -0.008357055
000290 90 0d e0 bb 01 3d 39 bc 36 f9 26 bc 98 80 76 3c
       -0.0068375543 -0.011306048 -0.010191252 0.015045308
0002a0 29 c4 c2 3b 74 a0 b1 3b 8c fe 73 3c d0 91 6d bc
       0.0059437943 0.005420739 0.014892232 -0.014500096
0002b0 7c a4 2a bc e5 e6 e1 bb c5 6c de bb 09 a0 c1 3a
       -0.010415193 -0.00689398 -0.0067878687 0.0014772426
0002c0 39 d5 fc 39 ee 83 af 3a 87 9c 2a bc 47 e2 b6 3b
       0.0004822405 0.0013390759 -0.010413296 0.0055811736
0002d0 65 f6 fb 3b 5d 9e 94 bc 18 f8 6f bc 80 1b 47 3c
       0.0076892846 -0.01814192 -0.0146465525 0.012152553
0002e0 0d 14 9b bb f7 f4 80 3c 81 c4 af bb d8 62 49 bb
       -0.004732615 0.015741808 -0.0053640013 -0.0030729081
0002f0 4b 90 1e bc a9 20 58 3c f5 f7 50 bc e9 02 02 bc
       -0.009677957 0.013191381 -0.01275443 -0.007935264
000300 b4 82 e6 3b 8c 2c ed bb f9 7e 00 3b e7 7e c7 bb
       0.007034624 -0.0072379764 0.0019606932 -0.006088126
000310 29 7b 31 bb d3 b2 68 3c eb 95 e3 3a d4 d6 0c bc
       -0.0027081466 0.014202791 0.0017363405 -0.008596141
000320 06 d1 2f ba 05 81 a4 3c 07 b1 a6 3c 59 7a 17 3b
       -0.0006706867 0.020081053 0.020348085 0.0023113696
000330 27 f7 42 3a 5c d9 cb 3b d6 d3 2d 3c 32 23 ac 3b
       0.0007437341 0.0062209796 0.010609588 0.005253219
000340 fc 4f 4b bc 70 f8 82 3b 92 c0 3b bc c0 eb 89 3b
       -0.0124092065 0.003996901 -0.011459487 0.004209012
000350 85 12 da 3a 00 97 c0 3b 64 82 92 bb 3b a5 e8 bb
       0.0016637599 0.0058773756 -0.00447111 -0.007099775
000360 b0 7a 9e 3c a0 e8 9d bb 69 9b 45 3b 60 20 03 bc
       0.019345611 -0.004818991 0.0030152446 -0.008003324
000370 59 5a 1b 3c ca c6 5f bc 67 5a c6 3b b9 c7 45 bc
       0.00948199 -0.013658235 0.0060532573 -0.012071543
000380 41 7e 64 ba 45 7c bd bc 87 7c 94 3b 30 e8 81 3c
       -0.0008716323 -0.023130545 0.0045314464 0.015857786
000390 66 e2 ed 3b 3b c6 7a bc fc a5 6c 3c 07 47 61 3a
       0.007259655 -0.015306051 0.014443871 0.0008593653
0003a0 41 18 a4 bb b7 26 5a 3b 8f 02 a0 3a ba 22 8a bc
       -0.005007774 0.0033287236 0.0012207794 -0.016862262
0003b0 34 85 90 bb 55 93 65 3b 04 2b d5 bb d3 87 6c bc
       -0.0044104103 0.0035030444 -0.006505372 -0.01443668
0003c0 66 44 a7 bb 37 4f 51 bc fa 11 21 3c c2 50 0e bc
       -0.0051045893 -0.012775234 0.009830946 -0.008686246
0003d0 18 dc f6 3b 35 7d 64 ba d2 25 25 bb 5c bf f5 3b
       0.0075335614 -0.0008716167 -0.0025199545 0.0074996185
0003e0 58 d7 75 3c 17 27 44 bc 77 4e 76 ba ee e0 4a bc
       0.015004955 -0.01197221 -0.00093958474 -0.012382729
0003f0 e9 e5 94 3c 1d 54 c0 3b 77 32 0f bb f2 c3 81 3a
       0.018176036 0.005869402 -0.0021850148 0.0009900315

state_input.bias f4 [128]
000000 1a 10 92 bd f7 7f 55 bd 26 43 61 3d f2 d4 4d 3d
       -0.071319774 -0.05212399 0.05499568 0.05025191
000010 18 41 96 bd 24 b5 87 bd b8 6c cd bc 0e a1 73 3d
       -0.073366344 -0.06626347 -0.025076255 0.059479766
000020 4f 14 c2 bd d4 07 fb 3c 4d ef b0 bd 92 80 9b bd
       -0.0947653 0.030643381 -0.08639393 -0.07592882
000030 d9 42 a0 3d 63 e6 b3 3d 6e 86 53 3d c9 ff cb 3d
       0.0782525 0.08784177 0.051641874 0.099608965
000040 88 56 ae bd 50 60 11 3c e0 7d a3 bd 5b 9c 9e 3d
       -0.08512598 0.00887306 -0.07982993 0.07744666
000050 0e 16 ac bd 71 4b be 3d d0 cf 5e 3c cb 18 a2 3d
       -0.08402644 0.09291733 0.013599351 0.07914885
000060 99 83 af 3d 48 49 b8 3c d2 0c 02 3d ac 32 a7 bc
       0.08570022 0.02249588 0.031750508 -0.020409904
000070 9e 8f 61 3d 44 a0 f2 3c b9 fb ca 3d 1d 09 8c 3d
       0.055068605 0.029617436 0.099112935 0.06837676
000080 43 ae 29 bd 00 20 7d 3b 04 5d 12 bd 39 7a c6 3d
       -0.041425955 0.003862381 -0.035733238 0.09691281
000090 69 08 a7 3d 93 be 8c 3d a2 9e 75 3d 7d ea 3d bd
       0.08155901 0.06872287 0.059965737 -0.046366204
0000a0 49 fd bb 3d 2d ef 31 bd 5e 40 a5 bd 8a df 60 bd
       0.0917917 -0.043440986 -0.08068918 -0.054900683
0000b0 aa f7 3a bd 80 8b 23 bd e8 eb 64 bc d2 87 46 3d
       -0.045646347 -0.03992796 -0.01397226 0.048469372
0000c0 68 47 3c bc 18 3e 43 3c dd 97 85 bd 30 b3 57 3c
       -0.011491634 0.01191666 -0.06523106 0.01316528
0000d0 7b ae 9d bd 8d a4 6e bd f8 ea 87 3c 00 3b 5f bc
       -0.07699295 -0.058262397 0.016591534 -0.013624907
0000e0 f0 42 39 bc ad 5d ca 3d 00 5b 26 bc 6c 5a 9d 3c
       -0.011307463 0.098811485 -0.010153532 0.019208156
0000f0 68 47 b9 3c c0 9b 58 bb 3c 4e e2 3c f0 75 60 bc
       0.022617057 -0.0033051819 0.027625196 -0.0136999935
000100 66 a8 85 bd 43 cc 35 bd a2 99 61 3d 9a ff 7f 3d
       -0.0652626 -0.044384252 0.055078156 0.06249962
000110 4f 60 a2 3d d2 c9 14 3d 0a a7 a6 bd fc 1f d4 3c
       0.07928526 0.036325283 -0.08137329 0.025894158
000120 f0 43 51 3c e7 36 a5 3d b1 79 9b 3d 7d 8f 36 bd
       0.012772545 0.080671124 0.0759157 -0.044570435
000130 e8 d6 7d bc e4 b6 14 bd ac 4c 9f 3c f8 89 a4 3c
       -0.015493132 -0.03630723 0.01944574 0.02008532
000140 00 a0 4d 3a d9 59 a1 3d b6 7c 7a 3d bd 59 91 3d
       0.0007843971 0.07878465 0.06115409 0.07097194
000150 00 7a 6a b9 bf 65 8f 3d ce 27 8a bd bd 9e a5 3d
       -0.00022361428 0.070018284 -0.067458734 0.080869175
000160 40 5a 72 3c 2b 24 ab 3d 00 a9 b9 bb b0 46 ea bb
       0.014792025 0.08356508 -0.0056658983 -0.00714954
000170 ea c3 9f bd d2 53 07 3d 81 7b 87 3d cb f0 82 3d
       -0.078010395 0.03303892 0.066153534 0.06393584
000180 84 fa 08 bd 10 13 a3 bd 80 49 5b ba f5 e9 9f bd
       -0.033442035 -0.0796262 -0.00083651394 -0.07808296
000190 00 5b 0c 3b 34 89 ea 3c 6d 05 cb bd a0 84 e7 bc
       0.0021416545 0.028629877 -0.09913144 -0.028261483
0001a0 fe 85 92 bd 0d fb a9 3d 6a df 73 3d 7a 63 19 bd
       -0.07154463 0.08299837 0.059539236 -0.037448384
0001b0 1e 7d 22 3d 30 e6 5b bc c0 09 16 bd 92 d0 1a 3d
       0.039670102 -0.01342158 -0.036630392 0.037796564
0001c0 39 2a a8 3d d4 10 98 bc 1e 86 8d bd f8 b6 fd bc
       0.08211178 -0.018562712 -0.069103464 -0.030971035
0001d0 72 de 08 3d 07 11 2b bd c0 cc 0e 3c 23 d1 c8 bd
       0.033415265 -0.041764285 0.008715808 -0.09805515
0001e0 14 5c d6 3c 2a 3f 7a bd 12 c2 35 3d f7 d4 7e bd
       0.026166953 -0.061095394 0.044374533 -0.062214818
0001f0 03 e9 92 bd 39 9c 8a 3d d0 bd 76 bd 77 4f 4d bd
       -0.0717335 0.06768078 -0.060239613 -0.05012461

action_input.weight f4 [128, 187]
000000 f3 51 7c 3c 37 dd 99 ba 79 d2 ef ba 5b 58 04 3b
       0.015400398 -0.0011738901 -0.0018296979 0.0020194266
000010 42 1d 64 37 95 76 f2 bb 15 f1 f7 ba ea 05 51 ba
       1.3596671e-05 -0.00739939 -0.0018916453 -0.00079735985
000020 44 95 9a 3a 72 70 e2 bb c0 8a 1f bc aa fa ee ba
       0.0011793752 -0.006910377 -0.00973767 -0.0018232663
000030 b9 0b e7 bb ca 0a d0 bb 45 92 e8 bb 5b 8a 30 3a
       -0.007050958 -0.0063489424 -0.007097515 0.0006734484
000040 f4 c3 2d 3c fd 7b 26 bb d0 7e 5b 3c b4 64 99 bb
       0.010605801 -0.0025403493 0.013396934 -0.004681194
000050 d2 ed 72 bb 69 bb 9e bb 6f 68 65 3c 6e 38 41 bc
       -0.0037068021 -0.0048441184 0.01400195 -0.011793239
000060 16 97 2c ba 4a 0d 8b bc 9d b7 e1 3b 8a ec b5 3c
       -0.0006583793 -0.01697411 0.0068883435 0.022207517
000070 9f 97 92 bc cd e6 4a bc 79 59 5a bb 4b 2c 74 3b
       -0.017894564 -0.012384129 -0.003331749 0.0037257846
000080 eb 0a a2 3b 4d 2d 14 bc 3c 06 6a 3b ff cd 00 3c
       0.004945149 -0.009044004 0.0035709282 0.007861613
000090 29 70 bb 3b 8d 38 80 bc 13 ac f3 3c a2 e4 2d 3b
       0.0057201576 -0.015651966 0.029745137 0.002653398
0000a0 f9 88 0c b9 23 f8 f1 3b 61 77 58 ba d7 48 1d 3b
       -0.00013402467 0.0073843165 -0.0008257535 0.0023999715
0000b0 93 af 50 bb 6a e4 16 bb 61 e1 47 3c 26 b2 18 3c
       -0.0031842932 -0.002302433 0.012199731 0.009319818
0000c0 fb 22 91 bb 35 1c fa bb d4 3f 52 3c 2f 27 85 3a
       -0.004429219 -0.007632757 0.012832601 0.0010158772
0000d0 86 03 80 3c e2 12 e5 3b 4b 74 01 bc 80 4f 2d bc
       0.01562668 0.0069907764 -0.007901262 -0.010578036
0000e0 97 71 2d bc 98 1a e8 3a be df bd bb 83 f3 1e bc
       -0.010586164 0.0017708121 -0.0057944944 -0.009701612
0000f0 5c 51 3b 3c 2a 98 5b ba 7d 33 d6 bb b0 8f b4 3a
       0.011432972 -0.0008376861 -0.0065368996 0.0013775732
000100 af bd 1d bc c2 3e 44 bb d2 c7 9a 3c 2c 48 6b 3c
       -0.009627744 -0.0029944633 0.01889411 0.014360469
000110 55 ae f5 b9 b3 21 4d 3a 52 4c 80 bb 60 96 3c ba
       -0.0004685993 0.0007825151 -0.003915348 -0.00071940385
000120 f8 bf 68 bb a5 27 f6 bb 09 8c 81 3c 92 25 cb 3c
       -0.0035514813 -0.00751205 0.015813844 0.024798188
000130 1a d0 8a 39 25 68 ee bb d4 c1 15 3c 62 33 0d 3c
       0.0002647646 -0.0072755986 0.0091404505 0.008618208
000140 56 ae a4 bb 79 5b 07 3b 13 13 1e 3c ba 82 84 bb
       -0.0050256653 0.0020653887 0.009648102 -0.004043904
000150 33 c8 46 3c 65 1e f1 3b d2 f8 6d bb e6 68 0d bc
       0.012132692 0.0073583596 -0.0036311639 -0.008630967
000160 cd d8 19 3c 5d db 8d bc 69 2c 97 3c c7 9a 2a 3c
       0.009390068 -0.017316515 0.018453794 0.010412878
000170 87 2d 46 3c 52 a1 09 bb e4 af 38 bc 29 a6 04 bc
       0.0120958155 -0.0021000695 -0.011272404 -0.008096256
000180 8d ee 1f 3c ca ff 61 bb f2 92 28 3c 41 ad 47 bc
       0.009761465 -0.0034484738 0.010288941 -0.012187303
000190 97 8a 29 3b ae ad 63 bb d7 a2 c8 3b 98 2a db 3b
       0.002586996 -0.0034740972 0.0061229276 0.006688427
0001a0 8a 8d 43 bc 3b 50 27 bc e8 60 22 3c b7 bb ad bb
       -0.011935601 -0.0102119995 0.0099108 -0.0053019184
0001b0 80 04 c5 3c f5 45 c3 3a d0 f5 de 3b 6a 9d 37 bb
       0.024049997 0.0014898168 0.0068042055 -0.002801741
0001c0 a0 28 50 b9 b0 75 9a 3c bc 85 e8 ba 7e e9 13 3c
       -0.0001985156 0.018854946 -0.0017740051 0.009027837
0001d0 a1 ec ef bb 0a ba ad bb a6 05 d0 3b f0 eb 20 3c
       -0.0073219095 -0.0053017186 0.0063483296 0.009821877
0001e0 cc d7 77 bb c9 af 13 bb cd 5b c9 ba 09 6f b2 ba
       -0.0037817834 -0.0022535196 -0.0015362442 -0.0013613413
0001f0 9b 0d 04 bc e5 34 3f 3a dd bb c9 3b 12 5a 08 3c
       -0.008059884 0.00072939537 0.0061564283 0.008322256
000200 50 5b 31 3c 1d 6b 0f 39 cd 5c 83 bb 46 cd 11 3c
       0.010824993 0.00013677446 -0.0040088654 0.008899039
000210 3e d9 af 3b ee 53 b7 3b c0 2e 84 3c 32 08 6f bc
       0.0053664735 0.005594722 0.016135573 -0.014589356
000220 80 3e 11 bc e0 27 c4 bb 46 70 c7 bc a2 0a f7 3b
       -0.008864999 -0.005986199 -0.024345528 0.0075391093
000230 cd 5a 87 3c a0 ed 65 39 47 a2 35 bc 66 e3 58 3b
       0.01652279 0.00021927664 -0.011086053 0.0033094524
000240 1c 00 38 3c d2 b7 37 3c 1d 75 4a bc d8 8d 48 3c
       0.011230495 0.01121326 -0.012357024 0.012240849
000250 66 1c 53 ba 6d 8f 2a bb ea 3c b5 3b 32 ed c8 3a
       -0.0008053243 -0.002602543 0.005530943 0.0015329479
000260 55 1e 66 39 0d a6 ba 3b 8d 9c 86 bc 64 58 c3 bb
       0.00021945809 0.0056960643 -0.016432071 -0.0059614647
000270 54 70 99 3b 5c 5d 66 3b 9c b1 6e 3c 69 e6 fc bb
       0.00468258 0.0035150861 0.014568713 -0.0077178967
000280 46 03 8e 3c 81 22 d0 3b 25 0a c4 bb 53 3f b3 bb
       0.017335545 0.0063517694 -0.0059826546 -0.0054701953
000290 c4 40 3d 3c b0 76 41 3b 8b 9d 91 bc 77 22 88 3b
       0.011551086 0.0029520206 -0.017775318 0.004154499
0002a0 54 c8 df 3b a2 ab 18 3c 92 ab a4 bc 8b 7f db 38
       0.006829301 0.009318264 -0.020101342 0.000104664905
0002b0 a2 d8 13 bc 74 00 46 3b 7e 8b af 3c fe 76 98 bb
       -0.009023817 0.0030212672 0.02142882 -0.004652857
0002c0 5b ab ec bb 02 d9 3d bb a1 5d 53 bc 3b 8c e7 3b
       -0.0072225756 -0.0028968458 -0.012900741 0.0070662773
0002d0 64 ae 47 bc d2 23 e2 bb c2 92 85 3c 94 d3 b9 3b
       -0.012187574 -0.006901243 0.016305331 0.005670974
0002e0 13 7f 5e 3b fd 7f 6f 3c 6d 64 11 3c a7 88 62 3b
       0.0033950254 0.014617917 0.008874041 0.0034566314
0002f0 ef a0 c6 ba 6f a6 91 3c f9 5e ca bb 36 15 ae 3c
       -0.0015154163 0.017779557 -0.0061758724 0.021250349
000300 49 e1 7e 3b 46 c3 d1 bb 27 62 e1 39 3c b6 25 bc
       0.0038891605 -0.0064014522 0.00042988473 -0.010114249
000310 b4 79 e1 bb 5e b7 e6 3b 8e 07 49 ba 53 f2 5d 3c
       -0.006880963 0.007040902 -0.0007668667 0.013546544
000320 5a cc 00 3c 89 4b 72 bb a1 3e 55 3c 89 ad 17 bc
       0.007861221 -0.0036971292 0.01301542 -0.009257683
000330 f3 05 39 bc 81 ba d2 bc 44 54 e2 ba 53 27 31 3a
       -0.011292922 -0.025723698 -0.0017267545 0.0006757874
000340 65 7c 90 bc 26 55 34 3c 8a 52 22 3c de 3a 33 bc
       -0.017637441 0.011006629 0.009907374 -0.010939328
000350 bc 45 3a bc 8e 3f d3 bb e7 12 e6 b9 6c 69 f1 bb
       -0.011369165 -0.0064467853 -0.00043883102 -0.0073673036
000360 01 72 48 3b 47 8e 96 3a aa ad e8 3b e1 26 73 ba
       0.003058553 0.0011486494 0.0071007805 -0.0009275508
000370 12 c9 89 3c 33 1e 3c bc 67 22 13 3c 87 a1 86 3b
       0.01681951 -0.011481809 0.00898037 0.004108611
000380 1e d8 24 3c e9 ff a0 3b 8f 02 bf ba eb ad 98 bc
       0.010061292 0.0049133194 -0.0014572906 -0.018637618
000390 89 ad c3 3b 3b 91 ee 3b 4f cf c5 3b b0 43 64 3c
       0.0059716147 0.0072804964 0.006036676 0.013932154
0003a0 2e 47 96 3a 89 ff ed bb 31 97 8f bb 40 d0 6c ba
       0.0011465305 -0.007263128 -0.004382037 -0.0009033717
0003b0 7d d0 67 3c 65 31 02 bc 32 75 48 3c 62 47 53 ba
       0.014148829 -0.007946347 0.012234973 -0.0008059648
0003c0 53 5f 93 39 f4 ad fe ba 1d 34 81 3b 0b 71 ee bb
       0.00028109047 -0.0019430504 0.00394298 -0.0072766594
0003d0 73 a6 c3 3b 39 ac 92 bb 4a b3 21 3c b9 b9 70 bc
       0.00597077 -0.004476097 0.009869406 -0.014692717
0003e0 86 40 4c 3c e3 6e 71 3b 15 c6 21 3b 8f 01 8a 3b
       0.012466555 0.0036839775 0.0024684716 0.0042116116
0003f0 e7 ec b8 ba 92 ec 81 ba a4 5f 2e bc b9 bc f2 39
       -0.0014108688 -0.0009912422 -0.01064292 0.00046298446

action_input.bias f4 [128]
000000 c2 2e 08 3d 95 4e a5 bd 7f 18 9b 3d 4c c1 98 bc
       0.033247717 -0.08071629 0.07573032 -0.018646859
000010 d8 c5 88 bc 74 07 88 bd 51 06 b2 3d 98 fd f4 bc
       -0.016695902 -0.066420466 0.08692611 -0.02990608
000020 03 6f bd bd e1 43 84 3d ce 8a 15 3d 58 8d a8 3c
       -0.092496894 0.064582594 0.036509328 0.02057521
000030 d7 78 b5 bd 4b 72 92 3d 21 81 9e 3d bf 0a c0 bd
       -0.08860939 0.07150706 0.07739473 -0.0937705
000040 97 ee ca 3d 00 58 89 b8 c0 bc 3a 3b c0 d7 e5 bc
       0.09908789 -6.54906e-05 0.0028493851 -0.02805698
000050 00 ac 3d ba 66 7f 88 bd 85 17 b7 bd 98 51 2d 3c
       -0.0007235408 -0.06664924 -0.08940033 0.0105785355
000060 8c c2 91 bc 52 6e 31 3d a0 22 71 bd fc b6 0c bd
       -0.017792962 0.0433181 -0.05887091 -0.034354195
000070 cb b5 c6 bd fd 9d 31 bd 5a c7 0b bd f8 99 a5 3c
       -0.09702643 -0.04336356 -0.034125663 0.02021502
000080 c0 82 5a bb f7 20 92 3d 00 6a 04 3b 50 72 5f bd
       -0.0033342093 0.07135194 0.0020204782 -0.054552376
000090 5a 67 75 3d 40 02 71 bc 00 e9 e1 bc 18 87 98 3c
       0.059913017 -0.014710009 -0.027576923 0.018619105
0000a0 32 f2 77 3d f9 b1 8f 3d 94 55 f5 3c 41 d7 95 3d
       0.06053371 0.070163675 0.029948033 0.07316447
0000b0 60 a0 ea 3b 68 16 41 bc 74 9a ad bc aa 96 0c bd
       0.0071602315 -0.011785127 -0.021191813 -0.034323372
0000c0 c3 56 56 bd 80 7d 89 bd ed 96 56 bd de 2c 02 3d
       -0.052328836 -0.0671339 -0.052390028 0.03178107
0000d0 68 77 a7 bc 00 18 3f bb fd e2 97 3d c3 3f 55 bd
       -0.02044268 -0.0029158592 0.074163415 -0.05206276
0000e0 60 19 af 3b 00 ae d8 3a 75 14 c2 bd a7 46 69 bd
       0.005343601 0.0016531348 -0.09476558 -0.056952145
0000f0 9a ae 37 bd b8 1b a3 bc 4b 10 8a 3d 63 ea a9 3d
       -0.044844247 -0.019910678 0.06741389 0.08296659
000100 6b 59 8e bd 20 37 e3 bc 7d cb 4b bd d2 52 50 3d
       -0.06950649 -0.027736247 -0.04975461 0.050860234
000110 00 de 46 bd 00 be 55 3c 40 b4 42 bc ed ea 44 bd
       -0.04855156 0.013045788 -0.011883795 -0.048075605
000120 cb 97 a5 bd 23 68 8f 3d 8c 36 a2 bc 21 ff b6 3d
       -0.08085593 0.070022844 -0.0198014 0.08935381
000130 8c 10 e0 bc 12 e7 c6 bd 04 ab d3 3c a0 73 b9 3b
       -0.02735164 -0.09712042 0.025838383 0.0056595355
000140 fa 01 48 bd 85 35 ac bd 12 d8 04 3d aa a8 3a bd
       -0.04883001 -0.084086455 0.032432623 -0.045571007
000150 c0 4d 1a bc 80 d1 a1 bb e3 80 72 bd 60 d5 a2 bb
       -0.009417951 -0.0049383044 -0.059204947 -0.004969284
000160 2a 47 36 3d f8 c1 b9 bc d6 c8 45 3d 53 80 c9 bd
       0.04450146 -0.0226755 0.048287235 -0.09838929
000170 25 64 84 3d 28 33 fc bc 33 69 31 bd c5 57 9d bd
       0.064644136 -0.030786112 -0.043313216 -0.07682756
000180 28 b6 34 3c 9b 7a a8 3d 8c 60 84 bc 3d 66 b9 bd
       0.011029758 0.0822651 -0.016159318 -0.090527035
000190 2b 2c a1 3d 1c ea ea 3c 00 10 8b b9 58 78 88 bd
       0.078697525 0.028676085 -0.00026524067 -0.06663579
0001a0 69 9b 9a 3d 34 9f 85 3c 68 b3 34 bc a0 ef c9 bd
       0.075491734 0.016311266 -0.011029102 -0.09860158
0001b0 32 92 02 3d 46 6c 6b 3d f8 cd 9b 3c a0 af 29 bb
       0.031877704 0.057476304 0.019019112 -0.0025892034
0001c0 d3 a4 b7 bd ba 45 0d bd 67 82 b9 bd 05 42 c4 bd
       -0.089669846 -0.034490325 -0.090580754 -0.09582905
0001d0 32 df 61 3d 96 ee 16 3d e0 8d 92 bd 00 9e 66 3b
       0.055144496 0.036848627 -0.07155967 0.003518939
0001e0 68 0a cc 3c f8 16 b5 3c cc f5 f1 bc f4 d1 c8 3c
       0.024907306 0.022105679 -0.02953615 0.024514176
0001f0 ee 06 05 3d 54 c8 95 3c e0 f0 b7 3b 28 37 a1 bd
       0.03247731 0.018284 0.0056134313 -0.07871848

layers.0.weight f4 [256, 256]
000000 13 34 f3 3b c9 30 f2 bb e8 8b 8e 3c a4 bd 03 bc
       0.007421979 -0.0073910696 0.017400697 -0.008040819
000010 2c ac dd bb f2 ef c5 3a 32 dc 50 bb 95 49 9f 3c
       -0.0067649093 0.0015101417 -0.0031869528 0.019444266
000020 8d 62 8b 3b 87 5a ab bb 22 88 31 bc 6c b7 da bb
       0.0042536915 -0.0052292976 -0.010835679 -0.0066746976
000030 e0 07 a3 3b 5e 53 99 3a 8a e9 25 3b 7b 42 54 3c
       0.004975304 0.0011697819 0.0025316202 0.012955303
000040 85 dc 2d ba c0 69 8d 3c 4d 74 ca 3b 5d c8 ac bc
       -0.0006632286 0.01726234 0.006178415 -0.021091634
000050 75 db 66 bc 42 c3 91 bc 0b 2a 04 3b ef d5 9d bb
       -0.014090409 -0.017793301 0.002016666 -0.0048167626
000060 f6 f1 19 bc 40 98 52 3b db 04 a1 3b dc 5b 85 bc
       -0.009396067 0.0032134205 0.004913909 -0.016279154
000070 0e b1 11 3a 5d c6 e4 bb c0 03 1f 3c b1 36 83 bb
       0.0005557694 -0.0069816546 0.009705484 -0.0040043225
000080 00 85 2c 3b e9 71 46 bb 0a 85 de bb 73 a5 d3 bb
       0.0026324391 -0.0030280298 -0.006790762 -0.006458932
000090 4c f8 fd 3b 67 0c 85 3a 40 8d 89 bc 89 cb 8e bc
       0.0077505466 0.0010150791 -0.016790986 -0.017431038
0000a0 f0 22 ef bb c6 30 e8 bb 80 3a 36 bb 40 c5 7c bc
       -0.007297866 -0.0070858924 -0.0027805865 -0.015427887
0000b0 c4 45 ca 3b 51 5e 9b ba 9b 54 1c bc 0f a2 43 3c
       0.0061728675 -0.001185367 -0.009541656 0.011940493
0000c0 de dc 3e bb 49 b9 16 bc 42 25 02 bc e2 d2 a9 3c
       -0.0029123346 -0.009199449 -0.007943453 0.02073044
0000d0 77 ce 3a bb 96 60 06 3b 94 74 09 3c bc a3 c0 3c
       -0.002850441 0.0020504347 0.008389611 0.023515575
0000e0 70 5b bd 3b 41 ae d6 ba 18 eb 1b 3b 63 f4 82 3c
       0.0057787225 -0.0016378836 0.002379125 0.015985673
0000f0 93 85 34 bc cb b0 02 bc c5 ac 59 bc ea 00 bc bb
       -0.011018175 -0.007976721 -0.01328582 -0.0057374137
000100 a7 db 55 3c 29 3c 4e bb 4a 32 c8 bb cf d3 a9 bb
       0.0130528575 -0.0031468964 -0.0061095105 -0.0051827203
000110 cf 58 03 bc de 3d 8c bc 41 00 9b 3b db 5e 97 bc
       -0.008016779 -0.017119344 0.004730255 -0.018477848
000120 a0 76 a9 3b 41 18 91 3b 5c 0a a8 b9 87 98 b2 3c
       0.005171612 0.00442794 -0.00032051175 0.021801246
000130 58 61 b1 3b aa e5 b9 3b d0 77 c1 bb 9d f6 f1 3b
       0.0054132156 0.00567313 -0.0059041753 0.007384135
000140 de 5b e8 bb 09 cc 68 3b 22 69 a9 bb 12 16 29 3c
       -0.0070910295 0.0035522005 -0.0051700035 0.010320203
000150 87 c3 90 bb b8 48 a8 3c 78 75 6a bc 18 ff bd 39
       -0.00441784 0.020542488 -0.014310233 0.0003623895
000160 75 1a 4a 3b 12 04 14 bc 06 e7 48 bb 85 4c 5d bc
       0.0030838524 -0.009034174 -0.0030655279 -0.013507013
000170 a6 6c 0e 3c 1c 2a d9 3b e7 6c 74 3a 3e 38 3f bb
       0.008692896 0.0066273343 0.0009324089 -0.002917781
000180 d0 0a e7 3b 40 75 3a bc 6a 68 26 3c 6a 70 51 3a
       0.0070508495 -0.011380494 0.01015673 0.0007989468
000190 5d eb ea 3b c6 0a ff bb ef d1 cb 3b 3d ce f1 bb
       0.007169171 -0.0077832667 0.0062200944 -0.007379322
0001a0 ec d8 89 3c 1b 73 b3 ba 3d 26 a3 ba 50 97 00 bc
       0.01682707 -0.001369092 -0.0012447309 -0.007848576
0001b0 04 50 8d 3b 4d 65 bf bb be aa dd 3b 7e bf 47 3b
       0.004312517 -0.0058409334 0.006764739 0.0030479128
0001c0 de ee 08 bc 60 2a 42 bb d4 fe 93 3a 5c 51 d5 3a
       -0.008357732 -0.0029627308 0.0011291155 0.0016274857
0001d0 79 9f 46 bc 5b 56 65 3c eb e3 44 bc 83 ed ff 3b
       -0.012122982 0.0139976395 -0.0120172305 0.007810296
0001e0 8f ed 90 3b 2d 4a 93 bc 7e 2e d4 ba 4c 5a e3 3b
       0.0044228504 -0.017979706 -0.0016188172 0.0069382545
0001f0 1b 1f f7 3c e6 2c 48 bc b9 a8 9b 3b 1d 0c d7 bc
       0.0301662 -0.012217736 0.004750338 -0.026250893
000200 1b 06 a7 bc 8b ad b8 bb a4 a7 07 ba a2 65 04 3c
       -0.020388654 -0.0056359223 -0.00051748217 0.008080872
000210 8e a0 18 3b 75 0b 44 bc b9 62 af 3b 47 88 cf 3a
       0.0023289057 -0.011965622 0.005352345 0.001583346
000220 57 b4 a2 bc 58 33 c7 bb e2 4c 23 3c b7 8d df 3b
       -0.019861383 -0.0060791187 0.009967061 0.0068223136
000230 ff ad 86 bb 2e fd af 3c 64 6d 4a 3c 04 62 08 3a
       -0.0041100974 0.02148303 0.012355182 0.0005202594
000240 cb 45 bd b9 7d 72 20 bc cc 17 8c bc 40 68 f5 bb
       -0.0003610089 -0.009792921 -0.017101191 -0.007489234
000250 f2 f1 02 3b 20 56 20 3c 57 55 0b 3b d5 4a 61 3c
       0.0019980636 0.009786159 0.0021260583 0.0137507515
000260 1e 03 6e bc 76 91 ab bb d7 2c 85 bb 22 2b 0c 3c
       -0.01452711 -0.005235846 -0.004064183 0.008555206
000270 8e 00 73 3c f0 13 74 bc 99 9b e1 3b eb 09 bc 3b
       0.014831675 -0.014897332 0.0068850038 0.005738487
000280 af f0 80 bb f4 37 d6 bb 05 fe f5 b9 4e 84 16 3b
       -0.0039349417 -0.006537432 -0.000469193 0.0022967043
000290 76 ae 27 3b 7c 0b 98 bb 15 d5 87 bb 8c ed 62 ba
       0.0025586165 -0.004640041 -0.0041452744 -0.0008656613
0002a0 b0 d2 83 bb 10 c8 2b bc eb 2a 62 3c b2 2b 15 bc
       -0.0040229186 -0.01048471 0.013804178 -0.009104656
0002b0 03 cd 70 bc 24 eb 53 b9 02 ed a2 ba b4 9d 5b 3c
       -0.014697316 -0.00020210125 -0.0012430253 0.013404299
0002c0 b5 24 61 bc 30 83 03 3c f9 ac 2c bb a5 06 58 bc
       -0.013741662 0.008026883 -0.0026348217 -0.013185178
0002d0 3b 70 84 bb 67 95 d0 bb 38 39 8f bb 3d 9e 86 3c
       -0.004041699 -0.0063654664 -0.0043708347 0.016432876
0002e0 66 9f 87 3b 47 dd 8f bc 61 42 2d 3b 18 48 2a bc
       0.004138875 -0.017561568 0.002643727 -0.010393165
0002f0 37 7f a5 bb 13 5a 34 bc 07 05 bd 3a fc 18 ba 3b
       -0.0050505656 -0.0110078035 0.0014421054 0.005679248
000300 47 6a 11 3c 91 b7 09 bc d0 81 1b 3c ca 21 89 bc
       0.008875436 -0.008405582 0.009491399 -0.016739745
000310 e2 f4 2e 3b 62 b7 2e bc 25 a0 d7 bb de ec 91 3c
       0.0026696254 -0.010663839 -0.00658037 0.017813142
000320 d4 ce 48 ba db ff 88 3b f8 9b bc 3c f3 62 07 3a
       -0.00076602143 0.004180891 0.02302359 0.0005164586
000330 75 9a 8a 3a 6f 5e 65 ba 46 02 0d bc af 44 bc 3b
       0.0010574596 -0.00087497284 -0.008606499 0.0057454924
000340 bc 3c b9 bc 9d c3 07 3b e9 c0 04 3c a4 40 3f bc
       -0.022611968 0.002071596 0.008102634 -0.011673126
000350 d8 d9 7a 3a 3b 3a 13 3c fe 9b aa 3c 90 aa 04 3b
       0.00095692044 0.008986051 0.020826336 0.0020243265
000360 ae 3e f5 3a fd b8 ad bb 80 cc cc 3c c5 37 18 3c
       0.0018710697 -0.0053015933 0.024999857 0.00929064
000370 2e 18 0a 3c ca d4 2e bc 2d 8a 3d 3c e5 2d ce bb
       0.008428616 -0.01067085 0.011568588 -0.006292092
000380 53 87 e2 bb a9 7f 7c 3a 12 55 05 3c e9 4a 02 bc
       -0.0069131046 0.000963206 0.008137958 -0.00795243
000390 79 f4 71 bc 2c fd 55 3b 00 40 fb 3b e3 c7 f5 ba
       -0.0147677595 0.0032652123 0.0076675415 -0.0018751587
0003a0 f4 00 33 bc bc cf f7 bc e7 4b f7 39 84 f1 07 3c
       -0.01092552 -0.030250423 0.00047168063 0.008297328
0003b0 7a a7 82 3b 1d d8 a1 3b bd 20 bf ba 80 dc d1 bb
       0.00398725 0.004939093 -0.00145819 -0.0064044595
0003c0 ab 3e ec 3a 7c e0 55 bc 37 ae b0 bc 70 1e 40 3c
       0.0018024048 -0.0130540095 -0.021567447 0.011726007
0003d0 bd a6 73 bc 55 3c 8b bb 29 9e 12 bc b8 f9 9b bb
       -0.0148712965 -0.0042491355 -0.008948841 -0.0047599934
0003e0 16 46 18 3c a7 b9 01 bb 6f 56 31 ba 9e 62 26 3b
       0.009294054 -0.0019794495 -0.0006764894 0.002538837
0003f0 6d 49 3c bc d8 60 07 bc b8 13 89 3b 24 4a a9 bb
       -0.011492115 -0.008262835 0.004183259 -0.005166309

layers.0.bias f4 [256]
000000 e8 cc b5 bd 12 14 2f 3d d8 94 8e 3c 30 23 b5 bb
       -0.088769734 0.04274375 0.017404959 -0.0055278763
000010 98 a1 12 3c 37 ab c3 bd e0 59 8d 3c ae 95 58 3d
       0.00894966 -0.09554141 0.01725477 0.05287712
000020 80 73 ed bb 07 e8 3b bd ab 81 ac 3d d7 26 bc bd
       -0.0072464347 -0.045875575 0.0842317 -0.091870956
000030 99 0e ba 3d f6 3e a8 bd 50 8e e7 bb 62 ca aa bd
       0.090848155 -0.08215134 -0.0070665255 -0.08339383
000040 00 bd dd bc 66 71 19 bd 63 5d 9d bd 30 8f 6f 3c
       -0.027067661 -0.03746166 -0.07683828 0.014621541
000050 2b fe a2 bd 82 ff 55 3d c8 a4 ca 3c 7a d4 6b bd
       -0.07958635 0.052245624 0.024736777 -0.05757568
000060 d4 40 aa 3c 80 68 8d bd 9e ab 96 bd 4d f3 c5 bd
       0.020782866 -0.069046974 -0.07356952 -0.096655466
000070 f2 73 70 3d e6 82 a7 bd c3 4e 30 bd 93 e7 85 3d
       0.058704324 -0.08179264 -0.043043863 0.0653831
000080 46 32 31 3d 2f 88 b1 3d 00 9d 1f 3c f3 79 a1 3d
       0.043260835 0.08668553 0.009742022 0.07884588
000090 26 e8 16 bd 20 d7 5c bd fe 3f 9b bd fd 3a 52 bd
       -0.036842488 -0.053916097 -0.07580565 -0.051325787
0000a0 18 60 87 bd d8 95 8e 3c 98 a9 8e 3c a5 a9 89 bd
       -0.06610125 0.017405435 0.017414853 -0.0672181
0000b0 cc 9a 06 bd 46 54 ab bd d5 11 a2 3d c5 86 ac 3d
       -0.03286247 -0.08365683 0.079135574 0.08424143
0000c0 20 ed 9e bb ed 80 8f 3d d1 7e a5 3d 00 ca 31 bb
       -0.004850045 0.070070125 0.08080829 -0.0027128458
0000d0 30 4c 41 bc 0f 3f 81 3d 18 e0 9b 3c 03 a6 a6 bd
       -0.01179795 0.063108556 0.019027755 -0.08137133
0000e0 e0 90 b2 bc 08 11 80 3c 92 8c b2 bd 22 b2 42 3d
       -0.021797597 0.015633121 -0.08718218 0.047533162
0000f0 d5 e4 88 bd f4 26 0a bd fa 19 0b 3d 71 6f bd 3d
       -0.06684271 -0.033728555 0.03396032 0.092497714
000100 a9 64 90 3d 4d 8d 22 bd a6 5b 3f 3d 00 34 01 3b
       0.070504494 -0.039685536 0.046718262 0.0019714832
000110 c0 59 23 bd f7 7e 2e bd 30 1c 2e bc 9b c8 a5 3d
       -0.039880514 -0.04260155 -0.010626838 0.08094903
000120 23 06 96 3d b9 b2 a5 3d 66 91 0f bd 89 b1 9f 3d
       0.07325389 0.08090729 -0.035050772 0.07797534
000130 3a 0b 3f 3d 92 3e a0 bd 08 d3 a2 bc 5b 05 aa bd
       0.046641566 -0.07824434 -0.019876018 -0.08301803
000140 38 e8 96 3c 1c 4e eb 3c a0 e4 12 3b 58 48 b8 bc
       0.018421277 0.028723769 0.0022414103 -0.022495434
000150 c0 63 96 3c 36 da 6b 3d f2 9d 40 3d cd 0c 80 bd
       0.018358111 0.05758115 0.04702563 -0.062524416
000160 a2 cc 23 3d 18 c1 68 bc da 7e 53 3d 80 95 37 bd
       0.039990075 -0.014206193 0.051634647 -0.04482031
000170 96 85 53 3d 60 71 18 bb 61 61 bf 3d 5c bf 86 bd
       0.05164107 -0.0023260936 0.093447454 -0.06579468
000180 d5 a8 ac 3d 0d 84 2a bd 9b 83 a3 3d a3 a6 9c 3d
       0.0843064 -0.04162984 0.07984086 0.07648971
000190 9c 4c fa 3c ee d5 69 3d 93 77 97 3d b0 84 de bb
       0.030554108 0.057088785 0.07395854 -0.00679072
0001a0 77 fb cb 3d 41 bd b7 3d 30 c0 14 bc 90 c2 30 bd
       0.099600725 0.08971644 -0.009079024 -0.0431543
0001b0 62 77 34 3d 03 80 9d 3d a0 b8 12 bb 4a 7b 3d bd
       0.044059165 0.07690432 -0.0022387877 -0.046260156
0001c0 b4 33 02 bd 11 6f b8 3d 94 5c b4 bc dd 31 b0 3d
       -0.03178759 0.09005559 -0.022016801 0.08603261
0001d0 90 33 95 bd 07 75 8b 3d c2 ca 17 3d 7e 21 2f 3d
       -0.072852254 0.068094306 0.0370586 0.04275655
0001e0 9f b3 ba bd 41 01 ca 3d e2 f5 70 3d 12 f9 2b 3d
       -0.09116291 0.098635204 0.058828242 0.04198558
0001f0 58 eb 58 3c 98 0a f9 bc 30 24 10 bc 6a c9 67 bd
       0.013239704 -0.03040056 -0.00879769 -0.056588568
000200 87 9f b2 bd ac f7 f6 bc 4a da 57 bd 00 6f 9e 3b
       -0.08721834 -0.030147396 -0.05269841 0.0048350096
000210 33 0e b4 3d d6 68 38 3d a5 4c cc bd 9f 6e c4 bd
       0.08791771 0.045021854 -0.09975556 -0.09591412
000220 90 6d 0b bd a0 e8 96 bc 38 3d a0 bd b5 eb be 3d
       -0.034040034 -0.018421471 -0.078241765 0.09322301
000230 95 f6 bc bd fa e3 a6 bd e0 a3 8b bc 0a 50 77 bd
       -0.09226719 -0.08148952 -0.017045915 -0.060379066
000240 fd 6c 37 bd 30 80 01 bd 2a 4f 47 3d 69 61 b4 3d
       -0.044781674 -0.03161639 0.04865948 0.08807642
000250 38 25 d4 bc ba 59 14 3d 50 fc c8 3b f8 95 b9 bd
       -0.025896654 0.036218382 0.0061335936 -0.090618074
000260 53 fe 3c bd c8 ce d2 bc 92 55 59 3d 7d 7b 1e bd
       -0.04614098 -0.025733367 0.05306012 -0.038691986
000270 f8 c1 88 3c 40 9d c2 ba cd f8 b8 bd 90 a1 91 bd
       0.016694054 -0.001484789 -0.0903183 -0.07110894
000280 02 98 20 3d 9d 4f 96 bd e2 a3 54 3d d0 72 39 bd
       0.039207466 -0.07339404 0.051914103 -0.04527551
000290 82 ec 14 3d ee fb 72 3d c0 56 4a bc 64 84 cd 3c
       0.036358364 0.05932229 -0.012349784 0.025087543
0002a0 10 3c 09 bc 0a 8d 33 3d 08 4c 9e bc 75 5d c1 bd
       -0.008376136 0.043835677 -0.019323364 -0.09441654
0002b0 a8 41 c5 bc ce d8 12 3d 21 f9 8f 3d 18 7c 6d 3c
       -0.024079159 0.035851292 0.070299394 0.014494918
0002c0 17 c3 cc bd f0 b3 5e bd 05 1c 88 3d 68 6b d9 bc
       -0.09998148 -0.05437082 0.06645969 -0.026540473
0002d0 27 e1 56 bd d8 35 5b bc e0 f8 d6 3b 6e 40 4a 3d
       -0.052460816 -0.013379537 0.00656043 0.04937785
0002e0 8d 29 95 3d 10 b5 59 bc 74 b5 eb bc aa 45 78 3d
       0.07283316 -0.013287798 -0.028773047 0.06061331
0002f0 ee 70 43 3d 3d e1 3c bd 5d 07 1d bd 80 3d 78 ba
       0.04771512 -0.04611324 -0.0383371 -0.00094696134
000300 b7 64 1c bd 31 e0 cb 3d 0c 82 85 bd df 9c 94 3d
       -0.038181987 0.099548705 -0.06518945 0.07256483
000310 28 89 3d 3c 75 01 b0 3d 26 57 64 3d 0b c4 80 3d
       0.011568345 0.08594028 0.055747174 0.06287392
000320 97 36 ad 3d 14 5f 87 bd 00 58 84 39 9a a8 7e 3d
       0.08457678 -0.066099316 0.00025242567 0.06217251
000330 0d 36 a8 3d de 9c 43 3d e0 1f db bb e2 cc 75 3d
       0.08213434 0.047757022 -0.0066871494 0.060009845
000340 c2 b9 0c 3d 48 69 cd bc ad 7a c0 3d 65 22 9f bd
       0.03435684 -0.025074616 0.093983985 -0.07770232
000350 52 dd 4b 3d ab 85 b1 bd dd 3f 2c bd 19 7d c0 3d
       0.049771614 -0.08668073 -0.042053092 0.093988605
000360 00 b5 bf bd 29 bf 80 3d 40 dd c2 3c 34 bd f0 3c
       -0.09360695 0.06286461 0.02378714 0.029387094
000370 eb 6e a2 bd b3 9e b2 bd 60 5f a7 3c bc 5c dc 3c
       -0.07931312 -0.08721676 0.02043122 0.026899688
000380 54 0e c3 bc fe 1f 7c 3d 24 d7 ed 3c ac 37 f1 3c
       -0.023810543 0.061553948 0.029033251 0.029445492
000390 eb 45 a6 3d d8 5c 25 3c 5f d8 c6 bd ad 9c 9b 3d
       0.081188045 0.010092936 -0.09709238 0.07598243
0003a0 f2 76 13 3d 26 98 86 bd 50 41 9b bd 57 5f 3b bd
       0.036002107 -0.06571989 -0.07580817 -0.04574522
0003b0 5a b2 38 bd a8 a6 af bd 08 d2 ac bd b2 0e 77 3d
       -0.045091964 -0.08576709 -0.08438498 0.06031675
0003c0 b1 90 8f 3d e4 31 01 bd 20 b6 21 bd 9a f4 74 bd
       0.070100196 -0.03154172 -0.03948033 -0.059803583
0003d0 80 88 cb 3a 22 fc 00 3d f2 2f 19 3d 4c 9d a9 bc
       0.0015528351 0.031490453 0.03739924 -0.020704888
0003e0 10 ce 83 bd d1 19 c7 3d af b4 9c 3d 2a 13 c8 bd
       -0.06435788 0.09721721 0.0765165 -0.0976928
0003f0 c9 20 88 3d 3c c1 f5 3c a2 9f 9e bd 83 53 1c bd
       0.06646878 0.029999368 -0.07745291 -0.03816558

layers.2.weight f4 [256]
000000 00 00 80 3f 00 00 80 3f 00 00 80 3f 00 00 80 3f
       1.0 1.0 1.0 1.0
000010 00 00 80 3f 00 00 80 3f 00 00 80 3f 00 00 80 3f
       1.0 1.0 1.0 1.0
000020 00 00 80 3f 00 00 80 3f 00 00 80 3f 00 00 80 3f
       1.0 1.0 1.0 1.0
000030 00 00 80 3f 00 00 80 3f 00 00 80 3f 00 00 80 3f
       1.0 1.0 1.0 1.0
000040 00 00 80 3f 00 00 80 3f 00 00 80 3f 00 00 80 3f
       1.0 1.0 1.0 1.0
000050 00 00 80 3f 00 00 80 3f 00 00 80 3f 00 00 80 3f
       1.0 1.0 1.0 1.0
000060 00 00 80 3f 00 00 80 3f 00 00 80 3f 00 00 80 3f
       1.0 1.0 1.0 1.0
000070 00 00 80 3f 00 00 80 3f 00 00 80 3f 00 00 80 3f
       1.0 1.0 1.0 1.0
000080 00 00 80 3f 00 00 80 3f 00 00 80 3f 00 00 80 3f
       1.0 1.0 1.0 1.0
000090 00 00 80 3f 00 00 80 3f 00 00 80 3f 00 00 80 3f
       1.0 1.0 1.0 1.0
0000a0 00 00 80 3f 00 00 80 3f 00 00 80 3f 00 00 80 3f
       1.0 1.0 1.0 1.0
0000b0 00 00 80 3f 00 00 80 3f 00 00 80 3f 00 00 80 3f
       1.0 1.0 1.0 1.0
0000c0 00 00 80 3f 00 00 80 3f 00 00 80 3f 00 00 80 3f
       1.0 1.0 1.0 1.0
0000d0 00 00 80 3f 00 00 80 3f 00 00 80 3f 00 00 80 3f
       1.0 1.0 1.0 1.0
0000e0 00 00 80 3f 00 00 80 3f 00 00 80 3f 00 00 80 3f
       1.0 1.0 1.0 1.0
0000f0 00 00 80 3f 00 00 80 3f 00 00 80 3f 00 00 80 3f
       1.0 1.0 1.0 1.0
000100 00 00 80 3f 00 00 80 3f 00 00 80 3f 00 00 80 3f
       1.0 1.0 1.0 1.0
000110 00 00 80 3f 00 00 80 3f 00 00 80 3f 00 00 80 3f
       1.0 1.0 1.0 1.0
000120 00 00 80 3f 00 00 80 3f 00 00 80 3f 00 00 80 3f
       1.0 1.0 1.0 1.0
000130 00 00 80 3f 00 00 80 3f 00 00 80 3f 00 00 80 3f
       1.0 1.0 1.0 1.0
000140 00 00 80 3f 00 00 80 3f 00 00 80 3f 00 00 80 3f
       1.0 1.0 1.0 1.0
000150 00 00 80 3f 00 00 80 3f 00 00 80 3f 00 00 80 3f
       1.0 1.0 1.0 1.0
000160 00 00 80 3f 00 00 80 3f 00 00 80 3f 00 00 80 3f
       1.0 1.0 1.0 1.0
000170 00 00 80 3f 00 00 80 3f 00 00 80 3f 00 00 80 3f
       1.0 1.0 1.0 1.0
000180 00 00 80 3f 00 00 80 3f 00 00 80 3f 00 00 80 3f
       1.0 1.0 1.0 1.0
000190 00 00 80 3f 00 00 80 3f 00 00 80 3f 00 00 80 3f
       1.0 1.0 1.0 1.0
0001a0 00 00 80 3f 00 00 80 3f 00 00 80 3f 00 00 80 3f
       1.0 1.0 1.0 1.0
0001b0 00 00 80 3f 00 00 80 3f 00 00 80 3f 00 00 80 3f
       1.0 1.0 1.0 1.0
0001c0 00 00 80 3f 00 00 80 3f 00 00 80 3f 00 00 80 3f
       1.0 1.0 1.0 1.0
0001d0 00 00 80 3f 00 00 80 3f 00 00 80 3f 00 00 80 3f
       1.0 1.0 1.0 1.0
0001e0 00 00 80 3f 00 00 80 3f 00 00 80 3f 00 00 80 3f
       1.0 1.0 1.0 1.0
0001f0 00 00 80 3f 00 00 80 3f 00 00 80 3f 00 00 80 3f
       1.0 1.0 1.0 1.0
000200 00 00 80 3f 00 00 80 3f 00 00 80 3f 00 00 80 3f
       1.0 1.0 1.0 1.0
000210 00 00 80 3f 00 00 80 3f 00 00 80 3f 00 00 80 3f
       1.0 1.0 1.0 1.0
000220 00 00 80 3f 00 00 80 3f 00 00 80 3f 00 00 80 3f
       1.0 1.0 1.0 1.0
000230 00 00 80 3f 00 00 80 3f 00 00 80 3f 00 00 80 3f
       1.0 1.0 1.0 1.0
000240 00 00 80 3f 00 00 80 3f 00 00 80 3f 00 00 80 3f
       1.0 1.0 1.0 1.0
000250 00 00 80 3f 00 00 80 3f 00 00 80 3f 00 00 80 3f
       1.0 1.0 1.0 1.0
000260 00 00 80 3f 00 00 80 3f 00 00 80 3f 00 00 80 3f
       1.0 1.0 1.0 1.0
000270 00 00 80 3f 00 00 80 3f 00 00 80 3f 00 00 80 3f
       1.0 1.0 1.0 1.0
000280 00 00 80 3f 00 00 80 3f 00 00 80 3f 00 00 80 3f
       1.0 1.0 1.0 1.0
000290 00 00 80 3f 00 00 80 3f 00 00 80 3f 00 00 80 3f
       1.0 1.0 1.0 1.0
0002a0 00 00 80 3f 00 00 80 3f 00 00 80 3f 00 00 80 3f
       1.0 1.0 1.0 1.0
0002b0 00 00 80 3f 00 00 80 3f 00 00 80 3f 00 00 80 3f
       1.0 1.0 1.0 1.0
0002c0 00 00 80 3f 00 00 80 3f 00 00 80 3f 00 00 80 3f
       1.0 1.0 1.0 1.0
0002d0 00 00 80 3f 00 00 80 3f 00 00 80 3f 00 00 80 3f
       1.0 1.0 1.0 1.0
0002e0 00 00 80 3f 00 00 80 3f 00 00 80 3f 00 00 80 3f
       1.0 1.0 1.0 1.0
0002f0 00 00 80 3f 00 00 80 3f 00 00 80 3f 00 00 80 3f
       1.0 1.0 1.0 1.0
000300 00 00 80 3f 00 00 80 3f 00 00 80 3f 00 00 80 3f
       1.0 1.0 1.0 1.0
000310 00 00 80 3f 00 00 80 3f 00 00 80 3f 00 00 80 3f
       1.0 1.0 1.0 1.0
000320 00 00 80 3f 00 00 80 3f 00 00 80 3f 00 00 80 3f
       1.0 1.0 1.0 1.0
000330 00 00 80 3f 00 00 80 3f 00 00 80 3f 00 00 80 3f
       1.0 1.0 1.0 1.0
000340 00 00 80 3f 00 00 80 3f 00 00 80 3f 00 00 80 3f
       1.0 1.0 1.0 1.0
000350 00 00 80 3f 00 00 80 3f 00 00 80 3f 00 00 80 3f
       1.0 1.0 1.0 1.0
000360 00 00 80 3f 00 00 80 3f 00 00 80 3f 00 00 80 3f
       1.0 1.0 1.0 1.0
000370 00 00 80 3f 00 00 80 3f 00 00 80 3f 00 00 80 3f
       1.0 1.0 1.0 1.0
000380 00 00 80 3f 00 00 80 3f 00 00 80 3f 00 00 80 3f
       1.0 1.0 1.0 1.0
000390 00 00 80 3f 00 00 80 3f 00 00 80 3f 00 00 80 3f
       1.0 1.0 1.0 1.0
0003a0 00 00 80 3f 00 00 80 3f 00 00 80 3f 00 00 80 3f
       1.0 1.0 1.0 1.0
0003b0 00 00 80 3f 00 00 80 3f 00 00 80 3f 00 00 80 3f
       1.0 1.0 1.0 1.0
0003c0 00 00 80 3f 00 00 80 3f 00 00 80 3f 00 00 80 3f
       1.0 1.0 1.0 1.0
0003d0 00 00 80 3f 00 00 80 3f 00 00 80 3f 00 00 80 3f
       1.0 1.0 1.0 1.0
0003e0 00 00 80 3f 00 00 80 3f 00 00 80 3f 00 00 80 3f
       1.0 1.0 1.0 1.0
0003f0 00 00 80 3f 00 00 80 3f 00 00 80 3f 00 00 80 3f
       1.0 1.0 1.0 1.0

layers.2.bias f4 [256]
000000 00 00 00 00 00 00 00 00 00 00 00 00 00 00 00 00
       0.0 0.0 0.0 0.0
000010 00 00 00 00 00 00 00 00 00 00 00 00 00 00 00 00
       0.0 0.0 0.0 0.0
000020 00 00 00 00 00 00 00 00 00 00 00 00 00 00 00 00
       0.0 0.0 0.0 0.0
000030 00 00 00 00 00 00 00 00 00 00 00 00 00 00 00 00
       0.0 0.0 0.0 0.0
000040 00 00 00 00 00 00 00 00 00 00 00 00 00 00 00 00
       0.0 0.0 0.0 0.0
000050 00 00 00 00 00 00 00 00 00 00 00 00 00 00 00 00
       0.0 0.0 0.0 0.0
000060 00 00 00 00 00 00 00 00 00 00 00 00 00 00 00 00
       0.0 0.0 0.0 0.0
000070 00 00 00 00 00 00 00 00 00 00 00 00 00 00 00 00
       0.0 0.0 0.0 0.0
000080 00 00 00 00 00 00 00 00 00 00 00 00 00 00 00 00
       0.0 0.0 0.0 0.0
000090 00 00 00 00 00 00 00 00 00 00 00 00 00 00 00 00
       0.0 0.0 0.0 0.0
0000a0 00 00 00 00 00 00 00 00 00 00 00 00 00 00 00 00
       0.0 0.0 0.0 0.0
0000b0 00 00 00 00 00 00 00 00 00 00 00 00 00 00 00 00
       0.0 0.0 0.0 0.0
0000c0 00 00 00 00 00 00 00 00 00 00 00 00 00 00 00 00
       0.0 0.0 0.0 0.0
0000d0 00 00 00 00 00 00 00 00 00 00 00 00 00 00 00 00
       0.0 0.0 0.0 0.0
0000e0 00 00 00 00 00 00 00 00 00 00 00 00 00 00 00 00
       0.0 0.0 0.0 0.0
0000f0 00 00 00 00 00 00 00 00 00 00 00 00 00 00 00 00
       0.0 0.0 0.0 0.0
000100 00 00 00 00 00 00 00 00 00 00 00 00 00 00 00 00
       0.0 0.0 0.0 0.0
000110 00 00 00 00 00 00 00 00 00 00 00 00 00 00 00 00
       0.0 0.0 0.0 0.0
000120 00 00 00 00 00 00 00 00 00 00 00 00 00 00 00 00
       0.0 0.0 0.0 0.0
000130 00 00 00 00 00 00 00 00 00 00 00 00 00 00 00 00
       0.0 0.0 0.0 0.0
000140 00 00 00 00 00 00 00 00 00 00 00 00 00 00 00 00
       0.0 0.0 0.0 0.0
000150 00 00 00 00 00 00 00 00 00 00 00 00 00 00 00 00
       0.0 0.0 0.0 0.0
000160 00 00 00 00 00 00 00 00 00 00 00 00 00 00 00 00
       0.0 0.0 0.0 0.0
000170 00 00 00 00 00 00 00 00 00 00 00 00 00 00 00 00
       0.0 0.0 0.0 0.0
000180 00 00 00 00 00 00 00 00 00 00 00 00 00 00 00 00
       0.0 0.0 0.0 0.0
000190 00 00 00 00 00 00 00 00 00 00 00 00 00 00 00 00
       0.0 0.0 0.0 0.0
0001a0 00 00 00 00 00 00 00 00 00 00 00 00 00 00 00 00
       0.0 0.0 0.0 0.0
0001b0 00 00 00 00 00 00 00 00 00 00 00 00 00 00 00 00
       0.0 0.0 0.0 0.0
0001c0 00 00 00 00 00 00 00 00 00 00 00 00 00 00 00 00
       0.0 0.0 0.0 0.0
0001d0 00 00 00 00 00 00 00 00 00 00 00 00 00 00 00 00
       0.0 0.0 0.0 0.0
0001e0 00 00 00 00 00 00 00 00 00 00 00 00 00 00 00 00
       0.0 0.0 0.0 0.0
0001f0 00 00 00 00 00 00 00 00 00 00 00 00 00 00 00 00
       0.0 0.0 0.0 0.0
000200 00 00 00 00 00 00 00 00 00 00 00 00 00 00 00 00
       0.0 0.0 0.0 0.0
000210 00 00 00 00 00 00 00 00 00 00 00 00 00 00 00 00
       0.0 0.0 0.0 0.0
000220 00 00 00 00 00 00 00 00 00 00 00 00 00 00 00 00
       0.0 0.0 0.0 0.0
000230 00 00 00 00 00 00 00 00 00 00 00 00 00 00 00 00
       0.0 0.0 0.0 0.0
000240 00 00 00 00 00 00 00 00 00 00 00 00 00 00 00 00
       0.0 0.0 0.0 0.0
000250 00 00 00 00 00 00 00 00 00 00 00 00 00 00 00 00
       0.0 0.0 0.0 0.0
000260 00 00 00 00 00 00 00 00 00 00 00 00 00 00 00 00
       0.0 0.0 0.0 0.0
000270 00 00 00 00 00 00 00 00 00 00 00 00 00 00 00 00
       0.0 0.0 0.0 0.0
000280 00 00 00 00 00 00 00 00 00 00 00 00 00 00 00 00
       0.0 0.0 0.0 0.0
000290 00 00 00 00 00 00 00 00 00 00 00 00 00 00 00 00
       0.0 0.0 0.0 0.0
0002a0 00 00 00 00 00 00 00 00 00 00 00 00 00 00 00 00
       0.0 0.0 0.0 0.0
0002b0 00 00 00 00 00 00 00 00 00 00 00 00 00 00 00 00
       0.0 0.0 0.0 0.0
0002c0 00 00 00 00 00 00 00 00 00 00 00 00 00 00 00 00
       0.0 0.0 0.0 0.0
0002d0 00 00 00 00 00 00 00 00 00 00 00 00 00 00 00 00
       0.0 0.0 0.0 0.0
0002e0 00 00 00 00 00 00 00 00 00 00 00 00 00 00 00 00
       0.0 0.0 0.0 0.0
0002f0 00 00 00 00 00 00 00 00 00 00 00 00 00 00 00 00
       0.0 0.0 0.0 0.0
000300 00 00 00 00 00 00 00 00 00 00 00 00 00 00 00 00
       0.0 0.0 0.0 0.0
000310 00 00 00 00 00 00 00 00 00 00 00 00 00 00 00 00
       0.0 0.0 0.0 0.0
000320 00 00 00 00 00 00 00 00 00 00 00 00 00 00 00 00
       0.0 0.0 0.0 0.0
000330 00 00 00 00 00 00 00 00 00 00 00 00 00 00 00 00
       0.0 0.0 0.0 0.0
000340 00 00 00 00 00 00 00 00 00 00 00 00 00 00 00 00
       0.0 0.0 0.0 0.0
000350 00 00 00 00 00 00 00 00 00 00 00 00 00 00 00 00
       0.0 0.0 0.0 0.0
000360 00 00 00 00 00 00 00 00 00 00 00 00 00 00 00 00
       0.0 0.0 0.0 0.0
000370 00 00 00 00 00 00 00 00 00 00 00 00 00 00 00 00
       0.0 0.0 0.0 0.0
000380 00 00 00 00 00 00 00 00 00 00 00 00 00 00 00 00
       0.0 0.0 0.0 0.0
000390 00 00 00 00 00 00 00 00 00 00 00 00 00 00 00 00
       0.0 0.0 0.0 0.0
0003a0 00 00 00 00 00 00 00 00 00 00 00 00 00 00 00 00
       0.0 0.0 0.0 0.0
0003b0 00 00 00 00 00 00 00 00 00 00 00 00 00 00 00 00
       0.0 0.0 0.0 0.0
0003c0 00 00 00 00 00 00 00 00 00 00 00 00 00 00 00 00
       0.0 0.0 0.0 0.0
0003d0 00 00 00 00 00 00 00 00 00 00 00 00 00 00 00 00
       0.0 0.0 0.0 0.0
0003e0 00 00 00 00 00 00 00 00 00 00 00 00 00 00 00 00
       0.0 0.0 0.0 0.0
0003f0 00 00 00 00 00 00 00 00 00 00 00 00 00 00 00 00
       0.0 0.0 0.0 0.0
